dc_ids_known_traffic_classification.pth (torch, 364779 bytes, 32 tensors)

fc_mu.0.weight f4 [128, 8]
0.24934179 0.31646496 -0.08282784 0.29371732 -0.03572114 0.07316214 -0.12600538 0.20763579
0.31006736 -0.29738197 0.30730727 0.021230845 0.20793656 0.09007381 0.068925835 -0.049918562
0.3142095 0.042403523 -0.16505283 0.04722148 -0.1267532 0.0037225757 -0.10368594 0.23453704
-0.31027678 -0.12679926 -0.09983453 -0.25493902 0.025192877 -0.36642063 0.31267136 -0.30033237
0.17585959 0.037419587 -0.11480038 0.20582792 0.07418508 0.26703176 0.039207943 -0.11150126
0.042297367 -0.0674682 0.14879563 0.31981608 0.15265168 -0.122646235 0.12715252 0.06325996
0.14474806 -0.20971964 -0.34998548 -0.10056385 -0.20957562 0.20668608 0.074797496 0.14644659
0.08451451 0.0034995892 0.2766938 -0.19376087 -0.0041981456 -0.18435805 0.06139309 -0.12175752
0.063586965 -0.10684489 0.29323432 -0.1879576 -0.192011 -0.14894442 0.19543242 0.11782205
0.32864094 -0.3454406 -0.35068116 -0.20595808 -0.23586999 0.12822713 0.064515285 0.29377612
-0.15428092 -0.19258916 0.18758771 -0.11193417 0.15965138 -0.12454753 0.14966968 -0.27469966
-0.13044725 0.118346505 0.07474387 -0.042289846 0.19283813 0.17722012 -0.19672894 -0.18875091
0.33536154 -0.14228946 -0.12534046 -0.37525952 -0.19832534 0.10427676 -0.019262439 -0.25663945
-0.0058930367 -0.25788677 -0.29995352 -0.1767948 -0.27001524 -0.13990073 0.26420537 0.06677738
0.08971329 -0.2841527 -0.2322046 -0.17313918 0.044982854 -0.31265566 -0.17247678 -0.2116613
-0.019324774 -0.16660833 -0.024499744 -0.13358271 -0.19520746 -0.14256519 -0.094621204 -0.2790529
0.3022794 -0.06098955 0.3041962 0.073052265 -0.24431294 0.17032154 -0.08380402 -0.13552622
-0.2963465 -0.3429204 0.10115537 -0.049751736 0.1393335 -0.2374278 0.22861055 -0.25952718
-0.015884038 0.0028179965 0.18252257 0.20787565 0.26008338 -0.19333842 0.057922237 -0.15207249
-0.06750607 -0.23107678 0.32203713 -0.1815045 0.2090585 0.04841502 0.14297809 -0.1911473
0.29635328 0.074399754 0.045481116 -0.25671193 0.09414648 -0.13321212 -0.14010498 0.3036835
0.040622056 -0.1745798 -0.17894714 -0.10826199 0.16729291 -0.104480594 -0.15784825 -0.12107183
-0.22263393 0.1268943 0.27366456 -0.27480423 0.087665886 0.11601848 0.100331485 -0.12590908
0.16862063 0.1700855 0.13220325 -0.08191963 -0.09779748 0.020075504 -0.021718523 -0.105359286
0.2317622 0.3282715 -0.03500086 -0.062469438 0.0403012 -0.025323214 0.08839494 0.09907755
-0.28626376 -0.1753915 0.29773775 0.12917681 0.017786559 -0.11221501 -0.16518064 -0.3167014
-0.1421194 0.06962947 0.22543326 0.16231921 -0.23320237 -0.12938835 -0.03182897 0.3420097
0.040151034 -0.077564806 0.14627042 -0.124433 -0.17263241 0.20598744 -0.12522693 -0.070875704
-0.33440885 0.19515254 0.26786432 0.07592931 -0.26370946 -0.2666441 -0.2730818 0.26364484
0.20652668 0.25548682 0.18521598 0.14088555 -0.014852362 -0.21681653 -0.17841592 -0.3306957
0.061615482 -0.20947614 -0.07115352 -0.12010758 -0.022596264 -0.20188323 -0.12580301 0.11727747
-0.06996718 0.22110042 -0.11342302 -0.29446074 -0.03159484 -0.13678795 -0.116296254 -0.33658126
00000000: 7453 7f3e b207 a23e a4a1 a9bd 1e62 963e
00000010: 5550 12bd 08d6 953d 8e07 01be 7a9e 543e
00000020: 26c1 9e3e 7342 98be 6157 9d3e 4fec ad3c
00000030: 52ed 543e 9e78 b83d fd28 8d3d 6877 4cbd
00000040: 11e0 a03e 51af 2d3d 9c03 29be 506b 413d
00000050: 97cb 01be 75f6 733b 4b59 d4bd 7a2a 703e
00000060: 99dc 9ebe aad7 01be 0c76 ccbd 5e87 82be
00000070: 4b61 ce3c 7c9b bbbe 7616 a03e 2ac5 99be
00000080: 8914 343e 4845 193d 761c ebbd 8ec4 523e
00000090: 59ee 973d 63b8 883e 8298 203d c65a e4bd
000000a0: 0140 2d3d c52c 8abd e25d 183e efbe a33e
000000b0: b950 1c3e f32d fbbd 4534 023e 708e 813d
000000c0: d638 143e bfc0 56be 4c31 b3be 6bf4 cdbd
000000d0: fe9a 56be 84a5 533e 6e2f 993d 18f6 153e
000000e0: f215 ad3d 5d59 653b cfaa 8d3e 4069 46be
000000f0: 9990 89bb 5bc8 3cbe 5277 7b3d 025c f9bd
00000100: e239 823d 7ed1 dabd cf22 963e f577 40be
00000110: 889e 44be e384 18be 701f 483e b04c f13d
00000120: a043 a83e 97dd b0be 7b8c b3be ade6 52be
00000130: e787 71be f94d 033e 9720 843d d369 963e
00000140: d1fb 1dbe 1836 45be fe16 403e be3d e5bd
00000150: a77b 233e c712 ffbd 0243 193e 6fa5 8cbe
00000160: f793 05be a75f f23d 5013 993d 1e38 2dbd
00000170: 5c77 453e 3179 353e 5073 49be eb47 41be
00000180: 82b4 ab3e 54b4 11be 4059 00be 0422 c0be
00000190: cc15 4bbe 0e8f d53d 43cc 9dbc 3f66 83be
000001a0: 601a c1bb bc09 84be 8293 99be b209 35be
000001b0: 703f 8abe 2342 0fbe ed45 873e 94c2 883d
000001c0: 9abb b73d 767c 91be 0bc7 6dbe 664b 31be
000001d0: f13f 383d 6714 a0be c19d 30be bdbd 58be
000001e0: fd4e 9ebc 609b 2abe b0b3 c8bc e8c9 08be
000001f0: 77e4 47be 9cfc 11be c3c8 c1bd 06e0 8ebe
00000200: 5ec4 9a3e 2ed0 79bd 9bbf 9b3e 6d9c 953d
00000210: 2c2d 7abe c568 2e3e 71a1 abbd 63c7 0abe
00000220: baba 97be 4393 afbe 8c2a cf3d 7ac8 4bbd
00000230: 71ad 0e3e 4620 73be e218 6a3e bfe0 84be
00000240: 3e1f 82bc 23ae 383b 32e7 3a3e 5bdd 543e
00000250: a629 853e 82fa 45be de3f 6d3d e4b8 1bbe
00000260: 9f40 8abd 649f 6cbe 0de2 a43e 51dc 39be
00000270: 6e13 563e d44e 463d d968 123e 1ebc 43be
00000280: 9ebb 973e e65e 983d 684a 3a3d bf6f 83be
00000290: dfcf c03d c268 08be ae77 0fbe 677c 9b3e
000002a0: 5063 263d 0cc5 32be eb3d 37be 76b8 ddbd
000002b0: d54e 2b3e ecf9 d5bd f9a2 21be 82f4 f7bd
000002c0: 26fa 63be 94f0 013e c31d 8c3e 24b3 8cbe
000002d0: 2c8a b33d 199b ed3d 987a cd3d 4fee 00be
000002e0: e3aa 2c3e e52a 2e3e 4a60 073e 7bc5 a7bd
000002f0: 0c4a c8bd 6275 a43c 0beb b1bc 9cc6 d7bd
00000300: 1253 6d3e 3413 a83e 105d 0fbd f4df 7fbd
00000310: df12 253d a172 cfbc 6808 b53d 2ce9 ca3d
00000320: 2a91 92be d499 33be 1571 983e ed46 043e
00000330: 1eb5 913c fcd0 e5bd 1d25 29be b026 a2be
00000340: bf87 11be e599 8e3d fad7 663e 0237 263e
00000350: 9acc 6ebe 617e 04be 185f 02bd e51b af3e
00000360: 6975 243d 4cda 9ebd eac7 153e bbd6 febd
00000370: 8dc6 30be 5fee 523e 7d3b 00be 4827 91bd
00000380: a337 abbe 11d6 473e 8325 893e d380 9b3d
00000390: ed04 87be 9385 88be 61d1 8bbe 75fc 863e
000003a0: bb7b 533e 2bcf 823e 42a9 3d3e 4d44 103e
000003b0: 5257 73bc 2705 5ebe aab2 36be f250 a9be
000003c0: 8460 7c3d ea80 56be f0b8 91bd f7fa f5bd
000003d0: cd1b b9bc 7aba 4ebe 81d2 00be 2c2f f03d
000003e0: f44a 8fbd 2668 623e 544a e8bd 8fc3 96be
000003f0: 9769 01bd 2412 0cbe bb2c eebd 6154 acbe

fc_mu.0.bias f4 [128]
0.22494823 -0.04799241 0.15072076 -0.24029815 0.05880215 -0.21057306 0.17404625 -0.1749586
-0.08995971 -0.3002287 -0.015774278 0.32733452 0.14945748 -0.17673576 -0.026950208 -0.06452247
-0.28354293 0.29945943 -0.017417867 0.0630944 -0.15358108 -0.121510245 0.055019177 0.12853117
0.078019485 -0.15614428 0.34404722 -0.037747353 -0.24671099 -0.15058263 0.35170007 0.009629329
-0.04169504 -0.17308187 -0.10268409 -0.29474425 -0.29398823 0.19747122 0.2991754 0.32173884
-0.2634831 0.19547871 -0.20265841 0.22604327 0.27234215 0.2875029 0.24928764 0.20647961
0.023272127 0.15349329 -0.14803267 0.16638081 -0.1084445 0.008145724 -0.30876338 -0.08078207
-0.20823276 -0.13069317 -0.19744116 -0.31230122 0.021851376 0.21907645 0.3256513 0.20196764
-0.18573052 -0.33953044 0.14501649 0.19430144 -0.30963448 0.111473784 0.27932912 0.03323933
-0.22664005 0.2827435 0.1696768 0.23280971 -0.21238823 0.21867524 -0.22977433 0.3250775
-0.14878723 0.19895782 0.058269184 0.112874925 -0.043765742 0.16491812 -0.16049147 -0.33593166
-0.15756162 0.29284826 -0.09781692 0.10554228 -0.10758212 0.26227584 0.18493922 0.112545095
-0.20041403 -0.28552607 0.030551191 -0.19855143 0.33251837 -0.32658097 0.13208923 0.34630287
0.19865182 0.105533615 -0.34348407 0.31805274 -0.070424885 -0.31323805 0.36044976 -0.15737689
-0.046050742 0.32295528 -0.22754614 -0.24315871 0.034669504 -0.04806428 0.07651442 -0.2806808
0.0037348657 -0.15437828 -0.19180569 -0.3241615 0.19342832 0.06245557 -0.28001907 0.28659502
00000000: d458 663e b093 44bd 8b56 1a3e b810 76be
00000010: 86da 703d 77a0 57be 2e39 323e 5928 33be
00000020: cc3c b8bd 93b7 99be 0f39 81bc 6498 a73e
00000030: 620b 193e 38fa 34be afc6 dcbc 5b24 84bd
00000040: 8a2c 91be bf52 993e eaaf 8ebc a337 813d
00000050: 5c44 1dbe 5dda f8bd ca5b 613d ad9d 033e
00000060: aec8 9f3d 49e4 1fbe f526 b03e f89c 1abd
00000070: cea1 7cbe 5532 1abe 0812 b43e 55c4 1d3c
00000080: 6bc8 2abd 603c 31be 094c d2bd b8e8 96be
00000090: a085 96be e535 4a3e 852d 993e f4ba a43e
000000a0: 42e7 86be 922b 483e b085 4fbe e377 673e
000000b0: 6e70 8b3e 9533 933e 4245 7f3e 646f 533e
000000c0: 30a5 be3c 582d 1d3e e095 17be bb5f 2a3e
000000d0: 2618 debd a575 053c 3c16 9ebe 1271 a5bd
000000e0: f83a 55be 6ed4 05be 042e 4abe f2e5 9fbe
000000f0: a801 b33c 9455 603e c4bb a63e 9bd0 4e3e
00000100: 2430 3ebe efd6 adbe 347f 143e f5f6 463e
00000110: 6988 9ebe 5e4c e43d 3a04 8f3e f725 083d
00000120: 5414 68be c2c3 903e c1bf 2d3e ab65 6e3e
00000130: 4d7c 59be 67ec 5f3e f649 6bbe 8f70 a63e
00000140: ae5b 18be 99bb 4b3e abab 6e3d f82a e73d
00000150: b543 33bd 4ce0 283e e057 24be 3cff abbe
00000160: d557 21be 35f0 953e 3d54 c8bd 8d26 d83d
00000170: 0454 dcbd 0549 863e b560 3d3e 0b7e e63d
00000180: 5639 4dbe 7930 92be 7e46 fa3c 1151 4bbe
00000190: d93f aa3e 9f35 a7be 6642 073e 9c4e b13e
000001a0: 626b 4b3e 0222 d83d 25dd afbe cfd7 a23e
000001b0: ec3a 90bd bd60 a0be df8c b83e 6827 21be
000001c0: b49f 3cbd 655a a53e db01 69be 99fe 78be
000001d0: 9c01 0e3d 0ddf 44bd 98b3 9c3d 65b5 8fbe
000001e0: a6c4 743b 5715 1ebe b668 44be 7ff8 a5be
000001f0: 1312 463e 69d1 7f3d a95e 8fbe 95bc 923e

fc_mu.2.weight f4 [64, 128]
0.024995504 0.010686556 -0.05172591 -0.020029154 0.087241255 0.053459447 -0.06537338 0.065667145
-0.015585599 0.029968444 0.053851746 0.08241748 -0.076127924 0.055153072 -0.055342007 0.003329151
-0.06333847 -0.039968967 -0.015705755 -0.019043826 -0.011682948 0.018869106 0.08370578 0.052916724
0.042904433 0.02835819 0.06126375 0.0037105225 -0.016998589 0.017624907 -0.07236479 -0.07515827
-0.004850459 -0.04959919 -0.0072456244 -0.011022621 -0.011078973 0.060549673 -0.028601093 0.07397142
0.0540959 -0.0791432 -0.0659821 -0.065955296 -0.04225052 -0.031462397 -0.011602459 -0.044140387
-0.04634187 -0.03646161 -0.03809241 0.070555225 -0.029282376 -0.08259926 0.036380038 -0.010417381
0.055417884 0.050556153 0.05565008 -0.072872296 0.045018964 0.0738329 -0.051538244 0.073780306
0.03231342 -0.01613716 0.042706057 -0.03851306 -0.07426691 0.012081355 0.023910545 -0.05897492
0.027058722 -0.076536685 0.052308705 0.08198992 0.013529358 -0.05501028 0.042127997 0.010378512
0.016123082 0.02148477 0.060473703 -0.039345194 -0.02070189 0.025523929 0.015159668 0.0723154
-0.04335458 -0.0012148357 0.020212062 -0.018584972 0.057959322 0.018168207 -0.07167116 -0.0041920585
-0.048122432 0.0021379315 0.00030439626 -0.080007315 -0.024357572 -0.014501539 -0.02657943 0.06773862
-0.016859172 0.04746443 0.015832743 -0.08471774 0.011251546 0.058642082 -0.059069745 -0.058922198
0.06989392 0.07317206 -0.051285766 0.046933904 -0.015301472 -0.0889203 0.012368346 -0.007557835
-0.014017058 0.01960784 -0.083349735 0.055723544 0.08092486 0.04890295 0.014591808 0.019144466
-0.07836608 -0.054711152 -0.03140939 -0.080917634 -0.09844129 0.044780064 0.026654102 -0.100271195
0.009851578 0.0061742277 0.048529718 0.000840109 0.04799134 -0.05298845 0.023479355 0.043888744
-0.111909814 -0.104899876 0.0046701664 0.0072882166 -0.0767219 -0.038478732 -0.045170806 -0.0028932143
-0.06339336 0.009578676 0.039367646 -0.101365894 -0.008082898 -0.0014755938 -0.0061048623 0.06126803
0.015776172 -0.02095531 0.060677268 -0.081204705 -0.028792035 -0.032437596 -0.101817064 -0.037986364
-0.09171625 -0.021545468 -0.017331447 -0.02554583 -0.1037201 -0.12480941 0.01057444 0.05851105
-0.106475994 0.015577872 -0.07712528 -0.035532065 0.050297447 0.04108231 -0.08882374 0.039600186
0.018558703 -0.035707742 0.04895009 -0.055034 -0.037534736 -0.06307714 0.0014826179 0.0027339277
-0.011937502 -0.051237606 -0.07878322 0.003782858 -0.093479455 -0.05175683 -0.011780185 -0.072839774
0.012948617 -0.025639895 0.035564277 -0.031110415 -0.08627132 0.024314607 -0.023265049 -0.03205104
-0.08808573 -0.021777654 -0.12089865 0.004382548 0.033722118 -0.123168565 -0.092009135 -0.06619549
0.04275661 0.046199087 -0.020748062 0.04915212 -0.065070696 -0.12495747 -0.01726765 3.5918816e-05
0.071717076 -0.033961445 0.024657754 0.006558448 0.049089547 -0.11444307 0.03699527 -0.10690028
0.042477254 -0.03521668 -0.0952981 0.021768125 -0.030982392 -0.10805658 -0.0640815 -0.030764952
0.02790176 -0.051591653 0.021506114 -0.029980235 -0.023476709 -0.0048217215 -0.086533695 -0.079766065
-0.06865225 -0.10274039 -0.061106056 -0.034716714 -0.10245077 -0.065218695 -0.049887344 -0.03192696
00000000: 5fc3 cc3c aa16 2f3c 8cde 53bd 2e14 a4bc
00000010: 8bab b23d 4bf8 5a3d 7be2 85bd 7f7c 863d
00000020: bd5a 7fbc 6280 f53c a693 5c3d 7fca a83d
00000030: f5e8 9bbd 30e8 613d 4dae 62bd e32d 5a3b
00000040: 9ab7 81bd 80b6 23bd 5ba9 80bc cc01 9cbc
00000050: d669 3fbc 6293 9a3c f06d ab3d 35bf 583d
00000060: 8fbc 2f3d 6f4f e83c b3ef 7a3d 3d2c 733b
00000070: a040 8bbc 1c62 903c fe33 94bd 94ec 99bd
00000080: 99f0 9ebb 8528 4bbd b46c edbb 3998 34bc
00000090: 9584 35bc ef02 783d d74c eabc 547e 973d
000000a0: aa93 5d3d d415 a2bd a021 87bd 9213 87bd
000000b0: e20e 2dbd b7de 00bd 3d18 3ebc 8dcc 34bd
000000c0: f9d0 3dbd c558 15bd c906 1cbd 427f 903d
000000d0: 98e1 efbc cd29 a9bd 3c03 153d aaad 2abc
000000e0: ddfd 623d f813 4f3d 57f1 633d 123e 95bd
000000f0: ce65 383d b435 973d c419 53bd 211a 973d
00000100: 145b 043d 1432 84bc 8cec 2e3d dfbf 1dbd
00000110: 4019 98bd e0f0 453c 0ce0 c33c b08f 71bd
00000120: 41aa dd3c 44bf 9cbd a741 563d 55ea a73d
00000130: 3eaa 5d3c 7652 61bd 688e 2c3d a20a 2a3c
00000140: 8e14 843c d400 b03c 46b3 773d 6d28 21bd
00000150: 0397 a9bc 8f17 d13c 4260 783c 191a 943d
00000160: 9294 31bd 1f3b 9fba c493 a53c 833f 98bc
00000170: c166 6d3d 7ed5 943c 54c8 92bd 895d 89bb
00000180: 071c 45bd 8a1c 0c3b 6097 9f39 e0da a3bd
00000190: 8889 c7bc dd97 6dbc 1bbd d9bc 8cba 8a3d
000001a0: 3f1c 8abc 106a 423d abb3 813c 7f80 adbd
000001b0: 6858 383c ae32 703d 1ef3 71bd 6758 71bd
000001c0: 8b24 8f3d 3cdb 953d 0611 52bd c43d 403d
000001d0: 06b3 7abc d91b b6bd 9aa4 4a3c b7a7 f7bb
000001e0: cda7 65bc 9fa0 a03c 44b3 aabd 5f3e 643d
000001f0: efbb a53d 764e 483d 7b12 6f3c dbd4 9c3c
00000200: 657e a0bd cd18 60bd 22a7 00bd 25b8 a5bd
00000210: 969b c9bd 4d6b 373d b459 da3c fc5a cdbd
00000220: 8368 213c 2d51 ca3b 19c7 463d c33a 5c3a
00000230: 9192 443d 6b0a 59bd c757 c03c afc4 333d
00000240: f930 e5bd bfd5 d6bd 3208 993b fed1 ee3b
00000250: 5f20 9dbd e09b 1dbd 0605 39bd 159c 3dbb
00000260: 61d4 81bd e1ef 1c3c f83f 213d ec98 cfbd
00000270: 226e 04bc b668 c1ba 4c0b c8bb 30f4 7a3d
00000280: 083d 813c 78aa abbc ba88 783d a74e a6bd
00000290: 46dd ebbc 49dd 04bd 7785 d0bd 9797 1bbd
000002a0: bbd5 bbbd 1f80 b0bc aefa 8dbc 7d45 d1bc
000002b0: 346b d4bd 139c ffbd 6a40 2d3c 48a9 6f3d
000002c0: 1610 dabd 553a 7f3c dcf3 9dbd 128a 11bd
000002d0: b204 4e3d ed45 283d 39e9 b5bd ce33 223d
000002e0: 6c08 983c 4842 12bd e47f 483d 556b 61bd
000002f0: 06be 19bd 962e 81bd 6754 c23a b22b 333b
00000300: 8395 43bc 86de 51bd 1959 a1bd d3e9 773b
00000310: 2872 bfbd f8fe 53bd ad01 41bc 052d 95bd
00000320: 7026 543c c20a d2bc d9ab 113d 45db febc
00000330: 05af b0bd 6d2f c73c 5896 bebc f447 03bd
00000340: 4b66 b4bd 0d67 b2bc b699 f7bd 7a9b 8f3b
00000350: 3420 0a3d cd3f fcbd 496f bcbd 8091 87bd
00000360: 8e21 2f3d 413b 3d3d d7f7 a9bc bc53 493d
00000370: c943 85bd b4e9 ffbd e374 8dbc 89a7 1638
00000380: 67e0 923d 281b 0bbd 0fff c93c 40e8 d63b
00000390: 1f12 493d 2161 eabd 5a88 173d 89ee dabd
000003a0: a1fc 2d3d 5e3f 10bd a62b c3bd 1153 b23c
000003b0: c9ce fdbc c54c ddbd 293d 83bd c806 fcbc
000003c0: 3b92 e43c c551 53bd 972d b03c 1c99 f5bc
000003d0: 3a52 c0bc 88ff 9dbb 9438 b1bd 645c a3bd
000003e0: 8d99 8cbd 8e69 d2bd 584a 7abd 1d33 0ebd
000003f0: b6d1 d1bd 6191 85bd ac56 4cbd d8c5 02bd

fc_mu.2.bias f4 [64]
0.03794005 -0.00653988 0.04528999 0.0072530727 -0.045575902 -0.013880926 0.05835516 -0.011695742
-0.089914486 -0.06013041 -0.08366297 -0.015401839 0.06511408 0.021200538 0.0018000545 0.0056161704
-0.05112307 0.07988409 0.03442909 -0.044079125 -0.06481283 -0.09445518 -0.048948634 0.046906013
-0.0021912588 -0.04301619 -0.003940125 -0.07490316 0.043971613 0.06256363 0.029548896 -0.048378013
-0.046461947 0.023870055 0.031985935 -0.03665555 -0.014374044 -0.013037676 -0.03635491 -0.09002615
-0.08777371 0.075468026 -0.06392806 0.04524444 0.028029766 -0.03282564 -0.0661856 -0.020919949
-0.037189227 -0.053597018 0.06921816 -0.044733573 -0.0058753677 -0.0744054 0.0007615833 0.002784578
0.059909035 -0.05173685 0.027410006 0.0047900532 0.029779801 -0.02526228 -0.03893806 0.040567994
00000000: 0767 1b3d 7d4c d6bb ff81 393d 2fab ed3b
00000010: ccad 3abd d36c 63bc d205 6f3d 7f9f 3fbc
00000020: 1625 b8bd 4e4b 76bd 7e57 abbd ff57 7cbc
00000030: 885a 853d c0ac ad3c ceef eb3a da07 b83b
00000040: 6d66 51bd 459a a33d 8405 0d3d 508c 34bd
00000050: 97bc 84bd b871 c1bd 5d7e 48bd 8520 403d
00000060: 399b 0fbb bf31 30bd 2a1c 81bb d466 99bd
00000070: 941b 343d 5c21 803d 8710 f23c 0628 46bd
00000080: e24e 3ebd 228b c33c af03 033d 2124 16bd
00000090: 1c81 6bbc fa9b 55bc e3e8 14bd a15f b8bd
000000a0: b4c2 b3bd fb8e 9a3d b7ec 82bd 3c52 393d
000000b0: ae9e e53c 2e74 06bd 518c 87bd 5060 abbc
000000c0: bb53 18bd 8c88 5bbd 40c2 8d3d 8d3a 37bd
000000d0: 2886 c0bb dc61 98bd fda4 473a 777d 363b
000000e0: 2d63 753d 05ea 53bd f38a e03c e1f5 9c3b
000000f0: c5f4 f33c d7f2 cebc 847d 1fbd a02a 263d

fc_mu.4.weight f4 [32, 64]
-0.04601268 0.092322335 -0.08565227 -0.069887735 0.1326532 -0.034800377 -0.081201844 -0.08165723
0.13678254 -0.0031009445 -0.091886915 0.00010911882 -0.048342425 -0.064644545 -0.04005518 0.10567285
0.06353235 0.0871325 0.02553948 -0.038636666 -0.037210666 -0.069951445 -0.07592049 -0.088475935
0.03198009 0.08355419 0.11598416 0.0078168325 -0.005836316 4.448538e-05 0.055800527 -0.0049649114
-0.026310276 -0.024564633 -0.11034413 -0.083498776 -0.03991886 0.022051184 -0.059788126 0.059990093
-0.05160237 0.12868647 -0.10153421 0.08442049 -0.04283269 -0.031139087 -0.09631626 -0.09476858
-0.09682404 0.009565404 0.12395651 0.079853855 0.08666255 0.04306772 -0.03550434 -0.03824002
-0.020677691 -0.10032345 0.08807092 -0.024629205 -0.05670376 0.04965322 0.011834311 0.08134701
-0.0870766 0.102325566 -0.06066472 0.026650736 0.09934663 -0.0147414645 -0.12601778 -0.11992512
0.10278069 -0.12742284 -0.05564411 0.066786565 -0.10080372 0.09939438 -0.0056123766 0.029671546
0.003944574 -0.00079475436 0.066488594 -0.11348557 0.016983863 -0.07090027 0.107008584 0.08569292
-0.05357388 0.049991623 -0.036224443 0.061311103 -0.041557524 -0.07955873 0.056017287 0.049563933
0.09683741 0.029142182 -0.06193183 0.020954208 0.0016030121 0.09956662 0.026990915 0.09627939
-0.0040810034 -0.094293565 -0.08706059 0.104274616 0.08959345 0.025137285 -0.11175067 0.07199245
0.034092322 -0.107263505 0.029164078 0.08670695 -0.08733365 -0.008427813 0.024726273 -0.044998072
0.0658392 0.10045197 0.101475276 -0.11925585 -0.0050899126 0.0822438 0.09767327 -0.03919766
0.06807427 0.09301862 -0.013954815 0.07799853 0.06481259 -0.021619635 -0.06409848 -0.076157846
-0.101015635 -0.08706973 0.027189309 0.045534916 -0.05299545 -0.011293926 0.07930195 0.01642248
-0.08367844 0.09461493 0.05382283 0.0015847629 0.04088466 -0.10164722 0.07029927 0.024853323
-0.018768383 -0.04986301 0.100005224 0.019040067 -0.082591705 0.042425193 0.014139218 -0.052423004
0.094830595 0.12216061 -0.010044842 -0.057572175 -0.082982115 -0.064703606 0.06724408 0.081400506
-0.08173629 0.05481795 0.0034700008 -0.0102768475 -0.0420188 -0.11598399 -0.10028531 0.09405388
-0.00872291 -0.017515562 -0.07218596 -0.008483102 -0.058265727 0.011342336 -0.1219986 0.0047747595
-0.11148879 -0.08614269 -0.009063866 -0.020500984 -0.039862428 0.07631426 0.00852488 0.016985664
0.05824 0.021701043 -0.1010311 -0.044995055 0.0827613 0.07306383 0.04049335 0.10769264
-0.046548672 -0.024199096 -0.02557901 -0.02286219 0.10942373 -0.11096498 0.021770189 0.12750755
-0.054421593 0.09162212 -0.10592815 0.017238243 -0.06552585 0.03491233 0.035320226 0.037155066
-0.019885864 -0.031957544 -0.09650264 0.026100764 0.111542575 -0.08383323 -0.043457728 0.035785113
0.06825212 0.052145854 0.083422124 0.022156162 -0.03533374 -0.091639295 -0.116193645 -0.07802033
0.06579955 0.10946572 0.13295159 0.10252478 0.022905715 0.09968584 0.047809526 -0.069042325
-0.0032064386 -0.11725919 0.114514425 0.047618516 0.11777884 0.014977203 0.10609457 0.06883469
-0.0039055236 0.011365321 0.09557165 -0.023068752 0.11083228 0.029321194 -0.045406207 -0.054937355
00000000: cb77 3cbd 7e13 bd3d 756a afbd 4d21 8fbd
00000010: 3ed6 073e d78a 0ebd 274d a6bd e83b a7bd
00000020: b910 0c3e 3739 4bbb 352f bcbd b8d6 e438
00000030: b502 46bd 5c64 84bd e710 24bd 026b d83d
00000040: 401d 823d 8672 b23d 2c38 d13c 7b41 1ebd
00000050: 366a 18bd b442 8fbd 347c 9bbd df32 b5bd
00000060: 8efd 023d 761e ab3d 1a89 ed3d 2c12 003c
00000070: 913e bfbb d095 3a38 188f 643d b2b0 a2bb
00000080: a688 d7bc c53b c9bc 1afc e1bd 6801 abbd
00000090: f581 23bd afa4 b43c 65e4 74bd 2cb8 753d
000000a0: 025d 53bd 63c6 033e 2bf1 cfbd a6e4 ac3d
000000b0: 5571 2fbd 6617 ffbc 7641 c5bd 0716 c2bd
000000c0: af4b c6bd 36b8 1c3c e9dc fd3d 6b8a a33d
000000d0: 237c b13d c767 303d 006d 11bd 91a1 1cbd
000000e0: 4364 a9bc 6276 cdbd 875e b43d 30c3 c9bc
000000f0: 3442 68bd 2d61 4b3d b3e4 413c 4399 a63d
00000100: 3755 b2bd 1190 d13d 927b 78bd a552 da3c
00000110: 3f76 cb3d 2f86 71bc ce0a 01be 4d9b f5bd
00000120: af7e d23d 227b 02be 14eb 63bd 65c7 883d
00000130: 2e72 cebd 488f cb3d 07e8 b7bb be11 f33c
00000140: 7c41 813b 1057 50ba 2c2b 883d 1f6b e8bd
00000150: be21 8b3c 2934 91bd 5127 db3d c57f af3d
00000160: 4970 5bbd 04c4 4c3d 1560 14bd 5a21 7b3d
00000170: 3938 2abd b0ef a2bd 6272 653d 8d03 4b3d
00000180: b152 c63d 96bb ee3c 3bac 7dbd 29a8 ab3c
00000190: 291c d23a 96e9 cb3d 0d1c dd3c 212e c53d
000001a0: f0b9 85bb fc1c c1bd d34c b2bd ee8d d53d
000001b0: c57c b73d b5ec cd3c 89dd e4bd c770 933d
000001c0: 64a4 0b3d f8ac dbbd 81e9 ee3c 6a93 b13d
000001d0: fcdb b2bd cf14 0abc c18e ca3c e64f 38bd
000001e0: b4d6 863d c3b9 cd3d 45d2 cf3d 693c f4bd
000001f0: 48c9 a6bb 706f a83d ec08 c83d ba8d 20bd
00000200: 866a 8b3d 8c80 be3d bda2 64bc b1bd 9f3d
00000210: 77bc 843d a91b b1bc 1046 83bd a5f8 9bbd
00000220: 49e1 cebd 9d51 b2bd 1dbc de3c d282 3a3d
00000230: c211 59bd 290a 39bc 1069 a23d 7088 863c
00000240: 9a5f abbd 79c5 c13d 5475 5c3d d2b7 cf3a
00000250: ac76 273d 6b2c d0bd 10f9 8f3d 3299 cb3c
00000260: 27c0 99bc 283d 4cbd 8acf cc3d eaf9 9b3c
00000270: d725 a9bd 0ac6 2d3d 2ea8 673c 81b9 56bd
00000280: 8b36 c23d 582f fa3d 1f93 24bc cdd0 6bbd
00000290: 87f2 a9bd 5383 84bd 44b7 893d 4fb5 a63d
000002a0: 5b65 a7bd c988 603d f468 633b 3960 28bc
000002b0: e81b 2cbd 0489 edbd 6262 cdbd 529f c03d
000002c0: 89ea 0ebc cc7c 8fbc 3cd6 93bd b5fc 0abc
000002d0: 0ba8 6ebd 35d5 393c 67da f9bd 9675 9c3b
000002e0: 3c54 e4bd 946b b0bd 9c80 14bc aef1 a7bc
000002f0: c946 23bd a74a 9c3d f0ab 0b3c 8525 8b3c
00000300: 118d 6e3d 63c6 b13c 65e9 cebd bc4c 38bd
00000310: c27e a93d 7da2 953d 5bdc 253d f58d dc3d
00000320: d2a9 3ebd 2f3d c6bc 128b d1bc 7d49 bbbc
00000330: 8c19 e03d 9c41 e3bd 6557 b23c 5791 023e
00000340: 2de9 5ebd 61a4 bb3d dcf0 d8bd 3737 8d3c
00000350: 6b32 86bd 3b00 0f3d f1ab 103d e92f 183d
00000360: aee7 a2bc eae5 02bd 2da3 c5bd 45d1 d53c
00000370: 6f70 e43d c2b0 abbd bb00 32bd 6993 123d
00000380: c4c7 8b3d e496 553d 38d9 aa3d d780 b53c
00000390: 1dba 10bd 62ad bbbd eff6 edbd 1fc9 9fbd
000003a0: eac1 863d 902f e03d 7624 083e 83f8 d13d
000003b0: c4a4 bb3c 1728 cc3d ecd3 433d 1066 8dbd
000003c0: 1d23 52bb 9625 f0bd 8a86 ea3d a20b 433d
000003d0: 0836 f13d f162 753c 1c48 d93d 34f9 8c3d
000003e0: d0f3 7fbb 9d35 3a3c 12bb c33d aefa bcbc
000003f0: 09fc e23d 0033 f03c dcfb 39bd fe05 61bd

fc_mu.4.bias f4 [32]
0.06639556 -0.07969237 -0.012985686 0.039595217 -0.051675107 -0.055130906 0.027308358 0.104423426
0.10100744 0.0365304 0.009093922 0.051604122 -0.033676352 0.098882265 0.05724179 -0.12533374
0.119319096 0.0050344705 -0.109474346 -0.0590547 0.12259041 -0.09507215 0.03603187 -0.023157932
-0.10740287 0.03414673 0.07653244 0.11085272 -0.13716786 0.0675995 0.10380504 0.0052732294
00000000: 65fa 873d c135 a3bd eac1 54bc 982e 223d
00000010: 47a9 53bd f2d0 61bd c7b5 df3c f3db d53d
00000020: fddc ce3d e7a0 153d acfe 143c d85e 533d
00000030: 37f0 09bd c982 ca3d 5e76 6a3d 7d57 00be
00000040: 925d f43d 33f8 a43b 1634 e0bd 57e3 71bd
00000050: ae10 fb3d 30b5 c2bd 2796 133d b4b5 bdbc
00000060: 09f6 dbbd 71dd 0b3d 0abd 9c3d c006 e33d
00000070: bb75 0cbe 9b71 8a3d bd97 d43d 0ecb ac3b

fc_var.0.weight f4 [128, 8]
0.32456908 0.30561382 -0.28632396 0.09873582 0.1362165 0.028440828 0.1562892 0.018982947
-0.09275696 0.27262 0.20486632 0.15908785 -0.09813995 -0.22299154 -0.03886977 -0.06622648
-0.06713662 -0.14566883 0.2538664 -0.04553381 -0.28153914 -0.17383222 -0.24956416 0.19565323
0.031544212 -0.19437262 -0.2711476 0.12922706 -0.30907083 -0.25633368 -0.01407107 0.21110395
-0.29154694 -0.23921756 0.11398569 -0.31093404 0.15244836 0.14039917 0.1086528 0.3009462
0.28076184 -0.13380289 0.19972113 0.15744539 0.15444618 -0.08641071 -0.117952004 -0.22953169
0.083157726 0.0055199224 0.01789689 0.2827376 -0.22122331 0.04293074 0.017980494 -0.015670866
0.22217634 0.2575687 -0.238035 0.16398115 -0.17103776 -0.14993289 -0.31908685 0.1318166
-0.09224565 -0.20421267 -0.070200115 -0.030667176 0.08991507 0.23455699 -0.21448204 -0.022093982
0.35380265 0.24363784 0.16296545 -0.13767675 0.044655476 0.04030093 -0.012881132 0.2307289
-0.14763518 -0.0674656 0.24642155 0.06785024 -0.25825173 -0.04655185 0.1660057 0.21424285
0.18601376 -0.19993696 -0.26417354 0.07792463 0.20912905 0.2129585 0.12256552 0.20870712
-0.22634898 0.09484866 -0.03643495 -0.012646015 0.12704076 -0.22837625 0.035139453 -0.12386975
0.16687216 -0.26720074 -0.19503681 -0.16340756 0.18723032 0.15345126 0.256326 0.34903392
0.06803221 0.023114828 0.09876916 0.055602722 0.057792865 -0.1691123 0.22393563 -0.23942271
0.21233526 0.15918528 0.0916588 0.14378637 0.06517865 -0.15694584 -0.18063904 -0.1796898
-0.17102893 0.1373808 0.026306033 0.003938977 0.09147669 0.27380243 -0.024407767 -0.16975664
-0.26365492 0.30621567 -0.31240693 0.11674148 0.25792065 0.14302307 -0.022125106 -0.04591331
0.24190202 -0.1801298 0.124985754 -0.061744824 0.17309622 -0.090555884 -0.19753122 -0.13500698
0.2929768 0.15245646 -0.24962562 -0.26608172 -0.06634389 -0.045034006 -0.08207759 0.23770782
0.09229248 -0.11661731 -0.020286113 0.10728606 -0.26448086 -0.33208477 -0.24119285 0.1554456
0.02549541 -0.31518504 0.28896913 0.19431205 -0.3035352 0.26833028 0.015220303 0.02970612
0.25024575 0.27327955 0.07723409 -0.16793282 0.21629244 0.2566505 -0.037195858 -0.28174663
0.33451998 -0.15008852 -0.21121775 -0.27954924 0.13614616 0.13779838 -0.104923435 -0.34261945
0.26193726 0.0053961235 0.31387278 -0.054633446 0.26579663 -0.12993452 -0.1049917 0.20666566
0.15055501 0.32018632 0.02657181 -0.22898777 -0.23806527 -0.07922577 -0.07557785 -0.1939377
0.2735167 -0.19046667 0.033545136 0.14410841 0.06971312 0.004524191 0.12989406 -0.18337512
-0.328747 0.0942978 -0.26152793 -0.33371282 -0.2931524 0.2638308 -0.24925846 0.275345
0.2814963 0.035944737 -0.20756117 -0.30479622 -0.22149695 0.20157026 -0.21609211 -0.046005726
0.017659267 -0.049210735 0.07914701 -0.24866314 0.27218813 -0.25531584 -0.24116348 -0.29452643
0.17842074 -0.16044922 -0.12050012 0.20605585 -0.058427203 0.21623479 0.05972157 -0.030016005
-0.2205586 -0.34862784 0.09786266 0.037293185 0.28029415 -0.26828322 -0.021566955 0.13163745
00000000: eb2d a63e 6a79 9c3e 0e99 92be 0136 ca3d
00000010: 577c 0b3e bdfc e83c 470a 203e 2082 9b3c
00000020: 5cf7 bdbd d994 8b3e 7ac8 513e ede7 223e
00000030: 99fd c8bd e557 64be e835 1fbd c0a1 87bd
00000040: ed7e 89bd 362a 15be c7fa 813e a981 3abd
00000050: e625 90be 1301 32be bf8d 7fbe 5259 483e
00000060: 8134 013d 9e09 47be dcd3 8abe 1954 043e
00000070: 883e 9ebe 2b3e 83be 588a 66bc a22b 583e
00000080: a445 95be 73f5 74be 5471 e93d bf32 9fbe
00000090: 6c1b 1c3e cdc4 0f3e 5c85 de3d 9f15 9a3e
000000a0: 04c0 8f3e a003 09be b283 4c3e 5d39 213e
000000b0: 2427 1e3e 19f8 b0bd d290 f1bd 5b0a 6bbe
000000c0: 994e aa3d 77e0 b43b 809c 923c fcc2 903e
000000d0: 5d88 62be 25d8 2f3d d44b 933c 3060 80bc
000000e0: 3282 633e 0be0 833e 72bf 73be adea 273e
000000f0: 8624 2fbe 0288 19be 5a5f a3be eefa 063e
00000100: 4aeb bcbd 201d 51be 14c5 8fbd bb39 fbbc
00000110: 6425 b83d b52f 703e 2ea1 5bbe 70fe b4bc
00000120: 9f25 b53e 337c 793e 6ae0 263e 22fb 0cbe
00000130: a9e8 363d 9712 253d 620b 53bc 3244 6c3e
00000140: ad2d 17be 682b 8abd ee55 7c3e 11f5 8a3d
00000150: 9239 84be 27ad 3ebd 66fd 293e 7a62 5b3e
00000160: 647a 3e3e 46bc 4cbe c141 87be f396 9f3d
00000170: ed25 563e cb11 5a3e a203 fb3d 52b7 553e
00000180: 07c8 67be 0440 c23d d03c 15bd 3b31 4fbc
00000190: f916 023e 77db 69be 63ee 0f3d 6caf fdbd
000001a0: 89e0 2a3e 89ce 88be bbb7 47be 5054 27be
000001b0: 4eb9 3f3e 5422 1d3e 293d 833e 93b4 b23e
000001c0: 7954 8b3d 4f5b bd3c 7c47 ca3d aebf 633d
000001d0: 36b8 6c3d c62b 2dbe 624f 653e 3a2b 75be
000001e0: 6a6e 593e 7701 233e 9cb7 bb3d bc3c 133e
000001f0: 627c 853d 69b6 20be 71f9 38be 9a00 38be
00000200: 3522 2fbe 8dad 0c3e c07f d73c 8912 813b
00000210: 2158 bb3d d52f 8c3e ccf2 c7bc afd4 2dbe
00000220: c7fd 86be 4dc8 9c3e cdf3 9fbe 2816 ef3d
00000230: 2d0e 843e a474 123e b63f b5bc 980f 3cbd
00000240: 2ab5 773e f273 38be 88f8 ff3d 24e8 7cbd
00000250: 2340 313e 5d75 b9bd a045 4abe 453f 0abe
00000260: 0e01 963e 8c1d 1c3e dc9d 7fbe dd3b 88be
00000270: 4edf 87bd 9475 38bd 4c18 a8bd ae69 733e
00000280: d703 bd3d 0ed5 eebd 102f a6bc cbb8 db3d
00000290: 096a 87be 0407 aabe 42fb 76be 222d 1f3e
000002a0: c0db d03c ef5f a1be c3f3 933e bdf9 463e
000002b0: f768 9bbe 9662 893e 945e 793c 405a f33c
000002c0: 3620 803e 4ceb 8b3e e82c 9e3d 95f6 2bbe
000002d0: c47b 5d3e b267 833e af5a 18bd 1841 90be
000002e0: 3446 ab3e ceb0 19be 7749 58be 1421 8fbe
000002f0: e669 0b3e 051b 0d3e 19e2 d6bd d16b afbe
00000300: a41c 863e f7d1 b03b efb3 a03e 52c7 5fbd
00000310: 7f16 883e 8e0d 05be e305 d7bd 2aa0 533e
00000320: 182b 1a3e 76ef a33e 20ad d93c c57b 6abe
00000330: 62c7 73be 1f41 a2bd 8fc8 9abd 9b97 46be
00000340: 620a 8c3e b209 43be a066 093d 2891 133e
00000350: c1c5 8e3d aa3f 943b f302 053e b0c6 3bbe
00000360: 8751 a8be 341f c13d fde6 85be 68dc aabe
00000370: 1218 96be d514 873e 9c3d 7fbe 05fa 8c3e
00000380: 4820 903e ca3a 133d ea8a 54be 400e 9cbe
00000390: 19d0 62be 6f68 4e3e 4047 5dbe 8070 3cbd
000003a0: 2baa 903c 3291 49bd d417 a23d 8da1 7ebe
000003b0: 3e5c 8b3e c2b8 82be 8ff3 76be 2bcc 96be
000003c0: edb3 363e cd4c 24be c4c8 f6bd 4e00 533e
000003d0: 5d51 6fbd a76c 5d3e 9b9e 743d 20e4 f5bc
000003e0: 1dda 61be 597f b2be 386c c83d bdc0 183d
000003f0: b782 8f3e 6b5c 89be 2fad b0bc f8cb 063e

fc_var.0.bias f4 [128]
0.06431274 0.25467804 0.25393283 -0.11271911 -0.30368385 0.089205064 -0.23953336 -0.35783213
0.23365773 -0.30759287 0.36613894 -0.3265273 -0.28157273 0.17568484 -0.0046570967 -0.1681054
0.14499934 -0.2366042 -0.18073231 -0.33804175 -0.20530695 -0.30081224 0.31020358 -0.16125673
0.051398277 -0.16162385 -0.079303466 0.2442224 0.06289438 0.14321493 0.117005505 -0.30953485
0.20355909 0.31564108 0.09711311 0.28641847 -0.18244897 -0.24883988 -0.27308977 -0.053677425
-0.050430812 -0.19842397 -0.1008219 -0.15006664 0.34595644 -0.02692382 0.28700438 0.035459056
0.11776154 0.17767777 -0.32770243 -0.15143774 -0.2974568 0.34848553 0.1049835 -0.1458707
-0.2745353 0.16962309 0.05342402 -0.18579926 -0.23900136 -0.19334143 0.106163286 -0.3005422
-0.027692167 0.19135097 0.19839922 0.0431982 0.026619395 0.09944766 0.104185514 0.25890392
0.0802716 0.18119253 0.24334018 -0.27107272 -0.17747661 0.1832236 0.06547258 -0.20347166
0.08835787 -0.33463132 -0.15286286 0.1796966 -0.025551753 -0.24675749 0.16778874 0.014465768
-0.06283947 -0.34505498 -0.15504502 0.039301217 -0.19021723 0.020301 -0.26016054 0.25880307
0.24007694 0.23243774 -0.059882443 -0.3721798 -0.13758025 -0.02381117 -0.28470388 0.2889681
0.10450343 0.25444692 -0.30171546 -0.16964373 0.08646152 0.0031280364 -0.19417763 0.25702512
0.12274683 -0.01932733 0.3284976 -0.34594995 -0.34382913 0.06627712 0.3137684 0.2170423
-0.2081327 0.25869983 0.16059034 0.026274234 0.2221433 0.07901909 0.014411136 -0.08868921
00000000: 66b6 833d 2965 823e 7c03 823e 47d9 e6bd
00000010: 737c 9bbe 25b1 b63d 3c48 75be c635 b7be
00000020: f943 6f3e d07c 9dbe 9076 bb3e 962e a7be
00000030: 4d2a 90be bae6 333e 8f9a 98bb d223 2cbe
00000040: b57a 143e 5f48 72be e411 39be cf13 adbe
00000050: fc3b 52be 1004 9abe 01d3 9e3e 7c20 25be
00000060: 0087 523d b980 25be db69 a2bd 7015 7a3e
00000070: c5ce 803d efa6 123e 95a0 ef3d 5a7b 9ebe
00000080: cb71 503e b59b a13e 3de3 c63d 71a5 923e
00000090: e7d3 3abe e2cf 7ebe 6cd2 8bbe dcdc 5bbd
000000a0: 8a90 4ebd a72f 4bbe b67b cebd 12ab 19be
000000b0: 3421 b13e 588f dcbc 3df2 923e 843d 113d
000000c0: f62c f13d 29f1 353e 9dc8 a7be 7f12 1bbe
000000d0: 424c 98be b26c b23e 9701 d73d 215f 15be
000000e0: e48f 8cbe adb1 2d3e 25d3 5a3d 2942 3ebe
000000f0: c6bc 74be 4cfb 45be 236c d93d abe0 99be
00000100: afda e2bc 82f1 433e 2a29 4b3e 99f0 303d
00000110: eb10 da3c 37ab cb3d 375f d53d 0e8f 843e
00000120: 7065 a43d 898a 393e 2b2e 793e 0bca 8abe
00000130: 6ebc 35be f89e 3b3e 7d16 863d e05a 50be
00000140: f9f4 b43d cc54 abbe 1588 1cbe 6302 383e
00000150: e951 d1bc ffad 7cbe d0d0 2b3e d401 6d3c
00000160: fbb1 80bd 0cab b0be 1fc4 1ebe 50fa 203d
00000170: 4ec8 42be 484e a63c c333 85be d681 843e
00000180: bbd6 753e 2904 6e3e 4b47 75bd 5a8e bebe
00000190: d6e1 0cbe a50f c3bc b5c4 91be a0f3 933e
000001a0: e505 d63d de46 823e 737a 9abe 16b7 2dbe
000001b0: bd12 b13d beff 4c3b 80d6 46be cc98 833e
000001c0: b162 fb3d 5954 9ebc d630 a83e 5a20 b1be
000001d0: 5f0a b0be 4cbc 873d 40a6 a03e 5640 5e3e
000001e0: bd20 55be 4e74 843e cb71 243e 103d d73c
000001f0: 8979 633e c3d4 a13d af1c 6c3c b0a2 b5bd

fc_var.2.weight f4 [64, 128]
-0.057413407 -0.06755109 -0.029828109 -0.070155255 -0.009458041 -0.00011161675 -0.095743656 -0.0831142
0.026981564 -0.057307415 -0.013597631 -0.084897965 -0.043535177 0.011373211 0.005658898 0.022616295
-0.032232985 -0.09121 -0.027936837 0.039661363 0.002508188 -0.013395493 -0.0013477198 0.05002645
0.017946422 -0.026812468 -0.062378157 0.041107103 -0.061326154 -0.08797028 0.00666961 -0.08306702
-0.09626655 -0.087822504 -0.010519555 -0.07815222 0.045932654 -0.01821157 -0.056687985 -0.08725642
-0.0521022 0.058282364 -0.072422445 -0.09274059 0.003603278 0.0036462522 -0.08373637 -0.06280565
0.05848073 -0.059721515 0.019056927 -0.07323114 -0.1042055 -0.098716006 0.057588425 0.013257459
0.0022332894 0.016897349 0.011513077 0.034237977 0.05988381 0.0491384 0.0067579015 0.0037415859
-0.0049989186 -0.08986024 0.009486282 0.014106436 0.014086368 -0.0536539 0.039111555 -0.030433407
-0.04066848 -0.021905854 -0.050969493 -0.049421243 0.049299262 -0.0032750457 -0.02614454 -0.031545848
0.006234691 -0.06800134 -0.0848036 0.052941278 -0.02422639 0.013265433 -0.04611715 -0.0787782
-0.013344544 0.034535356 -0.102186866 -0.118601814 -0.043438505 0.023270389 -0.10861489 0.04614064
0.07168755 -0.04360259 -0.018478876 -0.028228423 0.06623073 -0.005685987 -0.011960175 -0.0540076
-0.030195897 -0.068809986 -0.03139565 -0.016096909 -4.8218364e-05 -0.0035628132 -0.09535762 0.044453528
0.035337053 0.05044951 0.046324585 -0.012757955 0.045114893 0.016962405 0.02816481 -0.089679316
0.0022705926 -0.01568843 0.0049838955 0.005492194 -0.087116785 -0.06757089 -0.084381446 -0.036683578
0.018390622 -0.0004972513 0.067421146 -0.06929461 0.034405604 0.07115707 -0.07689771 -0.083318494
0.022055838 -0.055008557 0.019277083 -0.04810805 -0.0045081372 -0.07614001 0.0656628 -0.06958191
-0.08245917 -0.060742777 -0.0031945421 0.0627191 0.007281413 -0.02228085 -0.07510129 0.024403084
-0.0033652033 -0.041165963 -0.022344286 0.035500627 0.041898716 -0.060762078 -0.025909267 0.048714206
-0.06178506 -0.0056649963 0.066164725 0.064472444 -0.072466336 -0.06241291 0.0007748032 0.056828387
-0.033242736 -0.086181626 -0.013048875 0.04485726 -0.047022182 -0.07149888 -0.005092091 0.07163041
-0.068801545 0.01691532 0.043185245 0.002185918 -0.057269778 -0.032873996 -0.05773496 -0.011992189
-0.044424653 -0.0026363172 -0.019335475 -0.06886686 0.07728785 0.01800618 0.040058885 0.044321064
0.035249438 -0.031962834 -0.028445138 -0.044242308 -0.08168616 -0.052232053 -0.043303173 0.08301471
-0.088180006 -0.05779456 -0.08447599 -0.05449056 0.07052293 -0.06273837 -0.05284849 -0.057490516
0.0073933084 -0.040601827 -0.045382448 0.07278628 0.014048496 -0.07023753 -0.05259289 0.0542538
0.025512468 -0.060785115 -0.05120709 -0.047670998 0.020137617 -0.07176488 0.08301992 0.004729067
0.025289979 0.033946183 0.07058446 -0.032854807 -0.043387257 -0.06958629 0.05872236 -0.022373402
-0.0069633615 0.075137824 -0.019537482 -0.029304195 -0.044251516 0.03337568 -0.0067606275 -0.055418216
0.051548947 0.015500511 -0.031783808 0.038673345 -0.09614917 -0.069850326 -0.04370288 0.0384349
7.766133e-05 0.046071652 -0.08761333 0.056022495 -0.08791143 -0.035608046 0.073386654 -0.044858642
00000000: 522a 6bbd 3a58 8abd 145a f4bc 8fad 8fbd
00000010: e6f5 1abc c913 eab8 4015 c4bd c737 aabd
00000020: 7108 dd3c 2ebb 6abd 99c8 5ebc fcde adbd
00000030: f151 32bd b456 3a3c 476e b93b cf45 b93c
00000040: bc06 04bd 4fcc babd cbdb e4bc f473 223d
00000050: 6960 243b c578 5bbc f9a5 b0ba 89e8 4c3d
00000060: 6004 933c d2a5 dbbc 3d80 7fbd ec5f 283d
00000070: 2231 7bbd c329 b4bd be8c da3b 0b1f aabd
00000080: 6627 c5bd 49dc b3bd 365a 2cbc 450e a0bd
00000090: e123 3c3d 6e30 95bc a931 68bd 7eb3 b2bd
000000a0: 1e69 55bd 7db9 6e3d 3852 94bd c7ee bdbd
000000b0: f924 6c3b f6f5 6e3b f97d abbd 40a0 80bd
000000c0: 7d89 6f3d 8c9e 74bd 461d 9c3c 35fa 95bd
000000d0: b169 d5bd 9e2b cabd d7e1 6b3d d035 593c
000000e0: 615c 123b 4f6c 8a3c 58a1 3c3c 1f3d 0c3d
000000f0: ba48 753d 5945 493d 6371 dd3b 6535 753b
00000100: f8cd a3bb a508 b8bd 5a6c 1b3c ae1e 673c
00000110: 82ca 663c 31c4 5bbd 7033 203d 7b4f f9bc
00000120: fe93 26bd e873 b3bc 63c5 50bd ee6d 4abd
00000130: 06ee 493d 26a2 56bb 132d d6bc 3836 01bd
00000140: 614c cc3b 4944 8bbd 83ad adbd f4d8 583d
00000150: 6c76 c6bc 4257 593c 56e5 3cbd 7756 a1bd
00000160: 13a3 5abc f274 0d3d 5947 d1bd 82e5 f2bd
00000170: 93ec 31bd 8ba1 be3c 7c71 debd f8fd 3c3d
00000180: ecd0 923d a198 32bd 0361 97bc 4b3f e7bc
00000190: faa3 873d 8451 babb 9cf4 43bc 1337 5dbd
000001a0: 635d f7bc 40ec 8cbd ba98 00bd aadd 83bc
000001b0: 133e 4ab8 167e 69bb db4a c3bd e714 363d
000001c0: 96bd 103d 25a4 4e3d d9be 3d3d be06 51bc
000001d0: 65ca 383d bef4 8a3c e3b9 e63c caa9 b7bd
000001e0: 39ce 143b 0685 80bc f24f a33b ddf7 b33b
000001f0: 496a b2bd 9b62 8abd 2ed0 acbd 8541 16bd
00000200: eea7 963c f859 02ba 1914 8a3d 55ea 8dbd
00000210: e4ec 0c3d ccba 913d 8c7c 9dbd e3a2 aabd
00000220: 72ae b43c a750 61bd f9ea 9d3c f20c 45bd
00000230: ffb8 93bb 4bef 9bbd 387a 863d f680 8ebd
00000240: 5ae0 a8bd 6bcd 78bd 865b 51bb df72 803d
00000250: eb98 ee3b 5486 b6bc b5ce 99bd fae8 c73c
00000260: be8a 5cbb a49d 28bd 5d0b b7bc 1b69 113d
00000270: fd9d 2b3d a8e1 78bd ac3f d4bc 8c88 473d
00000280: 5512 7dbd 6fa1 b9bb 5f81 873d 210a 843d
00000290: 3b69 94bd aea4 7fbd 2a1c 4b3a e2c4 683d
000002a0: 8929 08bd fe7f b0bd f3ca 55bc 3fbc 373d
000002b0: 559a 40bd 016e 92bd 8edb a6bb f7b2 923d
000002c0: d3e7 8cbd ff91 8a3c 03e3 303d 9e41 0f3b
000002d0: b793 6abd e2a6 06bd 7e7b 6cbd e37a 44bc
000002e0: a0f6 35bd 10c6 2cbb 6e65 9ebc 110a 8dbd
000002f0: 1849 9e3d b281 933c c914 243d 018a 353d
00000300: b761 103d 76eb 02bd c705 e9bc 6c37 35bd
00000310: 134b a7bd 47f1 55bd ab5e 31bd 9e03 aa3d
00000320: b897 b4bd fdb9 6cbd bf01 adbd 7e31 5fbd
00000330: 536e 903d f97c 80bd a977 58bd 2d7b 6bbd
00000340: 9143 f23b 1a4e 26bd f2e2 39bd f910 953d
00000350: aa2b 663c b2d8 8fbd a46b 57bd 3c39 5e3d
00000360: 86ff d03c d0f9 78bd 87be 51bd aa42 43bd
00000370: a5f7 a43c 77f9 92bd 5906 aa3d 4af6 9a3b
00000380: ee2c cf3c 270b 0b3d 968e 903d c392 06bd
00000390: d6b6 31bd 4283 8ebd db86 703d 6d48 b7bc
000003a0: e92c e4bb dce1 993d 120d a0bc 5a0f f0bc
000003b0: 1441 35bd f0b4 083d 4188 ddbb 36fe 62bd
000003c0: fd24 533d dbf5 7d3c bd2f 02bd f167 1e3d
000003d0: dbe9 c4bd b00d 8fbd cb01 33bd ea6d 1d3d
000003e0: 1cde a238 a1b5 3c3d 9e6e b3bd d877 653d
000003f0: e80a b4bd bed9 11bd be4b 963d b2bd 37bd

fc_var.2.bias f4 [64]
0.0063864966 0.07913117 -0.09942274 -0.04800179 -0.10382407 -0.008679514 -0.059393045 -0.03518019
0.08349431 -0.047452312 0.0039080842 0.05803024 0.028717041 0.07286352 0.06459305 0.0013935149
0.059861507 0.07656375 -0.07079387 0.010527762 0.07395475 -0.07138579 0.030868718 0.024393877
-0.0016446345 -0.0382769 -0.01694222 0.05898124 -0.0728116 0.030514283 -0.065496035 0.052331757
-0.019053468 0.0190086 0.046940997 -0.022606067 -0.0043471893 0.065049976 0.06294746 0.04827911
-0.028925808 0.0040519293 -0.06164569 0.0424266 0.010259096 0.051373433 -0.06583529 0.0083212815
0.013721251 -0.035091605 0.0022402601 0.0053626094 -0.025159998 0.057020888 -0.083033614 -0.020121668
-0.050972722 0.04905514 -0.049119163 -0.015406761 0.06636303 -0.09809892 -0.016109686 0.06537557
00000000: d145 d13b 860f a23d 269e cbbd 869d 44bd
00000010: b7a1 d4bd 8534 0ebc 1f46 73bd 1a19 10bd
00000020: 11ff aa3d 5b5d 42bd 630f 803b 1eb1 6d3d
00000030: 0040 eb3c 7839 953d 5c49 843d 9aa6 b63a
00000040: 5731 753d 75cd 9c3d 60fc 90bd a27c 2c3c
00000050: 9775 973d b732 92bd 65e0 fc3c abd5 c73c
00000060: c790 d7ba 3dc8 1cbd 69ca 8abc 5096 713d
00000070: 401e 95bd 17f9 f93c c922 86bd d359 563d
00000080: 0516 9cbc ecb7 9b3c 3445 403d 5c30 b9bc
00000090: de72 8ebb ec38 853d 99ea 803d 51c0 453d
000000a0: d1f5 ecbc 0cc6 843b 3180 7cbd 84c7 2d3d
000000b0: c415 283c f36c 523d a7d4 86bd fc55 083c
000000c0: 19cf 603c 37bc 0fbd 54d1 123b d4b8 af3b
000000d0: 571c cebc bc8e 693d 870d aabd 32d6 a4bc
000000e0: c6c8 50bd 0bee 483d 2d31 49bd a46c 7cbc
000000f0: 57e9 873d 16e8 c8bd 76f8 83bc a0e3 853d

fc_var.4.weight f4 [32, 64]
0.090307124 -0.035497025 -0.019317241 -0.05492988 0.028600672 0.042958304 0.08421931 0.058137883
0.061511118 -0.019257063 -0.076686375 0.067501545 0.006028615 -0.07874709 0.0075549423 0.120037004
-0.0072789923 -0.098105386 0.0791334 0.092117496 -0.082523815 -0.10686302 -0.08893468 0.06656758
-0.04434929 -0.11883844 -0.009799536 -0.056697324 -0.03990349 -0.046434894 -0.035838943 -0.08110758
-0.025712686 -0.07578851 -0.014743861 -0.0766906 0.0055548023 0.0942526 -0.041208047 -0.019655539
-0.010808104 -0.036142807 -0.08245367 0.030937457 -0.0013373421 0.011305869 -0.03139796 -0.07025603
-0.04517119 0.06602881 0.07908751 -0.030666223 0.06938761 -0.069423914 -0.011104946 -0.100010335
-0.016913412 0.032937746 0.06933667 0.038562197 0.06392056 -0.025697058 0.122057065 -0.10001771
-0.034026537 -0.03596679 0.08495901 0.024742018 0.111838646 -0.09289704 0.036433507 -0.10838168
0.037205953 -0.055784304 -0.056818917 0.014450011 0.004052867 0.12030774 0.082377955 -0.0021202404
0.035861995 0.023048287 -0.034027863 -0.09024848 -0.10981099 0.008783866 -0.049200054 0.108285345
-0.055780374 0.03719869 -0.053057343 0.12409826 0.048118286 0.066597596 0.032619197 -0.030551182
-0.04710174 -0.06655222 -0.10316929 -0.031976957 -0.05019476 0.10373964 0.11061541 -0.08977865
0.019142063 -0.0995937 0.05988703 0.09125671 -0.06958925 -0.09691321 -0.027502766 0.096358895
0.07833665 -0.066994235 -0.00065618916 -0.09605508 0.120489344 0.052783184 -0.055990472 0.061591268
0.00026847018 -0.07623508 -0.14526133 0.07428544 -0.1000828 0.082324244 -0.036356695 0.06812223
0.026582684 0.044537652 -0.073502354 0.038045723 -0.0030259883 -0.026707586 -0.023083974 -0.016211499
0.053275518 0.059516743 -0.06780785 -0.018394768 -0.055473343 -0.06311416 0.02632805 0.08916679
0.035883266 -0.056875344 0.05010481 0.100392275 0.009392755 0.08511634 0.0247169 -0.050895475
0.016257357 0.017643405 0.020117076 -0.045271557 -0.10814105 -0.13311975 -0.100378595 0.046526596
-0.048274245 -0.1273244 0.07696269 -0.13985659 0.0062605147 0.073040515 -0.08059498 -0.02288706
0.1075137 0.085724086 0.0675617 -0.04340944 0.04912205 0.020703226 -0.018162403 0.08802261
0.011237377 0.059953574 -0.11433087 0.018981762 -0.13110568 -0.0019429103 0.014767024 0.056626987
0.04197769 -0.08018039 0.032859493 -0.14216681 0.077058814 0.03886042 -0.037081644 0.0115736965
0.052775797 -0.10535382 0.06680842 0.021938229 0.10780631 -0.011427337 -0.0013049237 0.012097673
0.08512726 -0.116996735 0.055816747 0.05528039 -0.019802505 -0.098037876 0.08031213 0.058962528
-0.041696656 0.014900659 -0.056303207 -0.068508685 0.1046791 0.034664664 -0.006663632 0.061906267
0.065963976 0.04651967 0.036467988 -0.1053177 -0.06326541 0.08515919 0.025724495 0.020666322
-0.09495649 -0.071684144 -0.057963677 0.0441335 -0.068983205 0.07694857 -0.104086466 -0.039263748
0.090956904 -0.0674397 -0.010959273 -0.05279778 0.035243455 -0.06536173 -0.10293214 -0.057315957
0.030937351 -0.046711355 -0.11003764 -0.038830135 -0.06918471 0.09254687 -0.040092018 0.0402308
0.10038663 -0.092487395 0.031304207 0.0032307087 0.08887507 -0.010048106 0.021092225 -0.13068572
00000000: f1f2 b83d 5465 11bd 313f 9ebc 27fe 60bd
00000010: f54b ea3c 0cf5 2f3d 2c7b ac3d fd21 6e3d
00000020: 15f3 7b3d fdc0 9dbc bf0d 9dbd 403e 8a3d
00000030: b08b c53b 2846 a1bd 738f f73b f6d5 f53d
00000040: 9d84 eebb 7aeb c8bd b110 a23d 19a8 bc3d
00000050: 3f02 a9bd 00db dabd 6323 b6bd 9554 883d
00000060: 9aa7 35bd 9161 f3bd 3c8e 20bc 743b 68bd
00000070: d871 23bd 8432 3ebd dbcb 12bd bb1b a6bd
00000080: 69a3 d2bc 0237 9bbd 3c90 71bc f60f 9dbd
00000090: 0f05 b63b 8207 c13d c5c9 28bd a704 a1bc
000000a0: 7914 31bc 7b0a 14bd 78dd a8bd 8d70 fd3c
000000b0: c149 afba 403c 393c 269b 00bd 65e2 8fbd
000000c0: 6d05 39bd 1d3a 873d a2f8 a13d bb37 fbbc
000000d0: 171b 8e3d 202e 8ebd 85f1 35bc 38d2 ccbd
000000e0: ff8d 8abc bbe9 063d 6200 8e3d 65f3 1d3d
000000f0: c8e8 823d a382 d2bc 0ef9 f93d 16d6 ccbd
00000100: 695f 0bbd ea51 13bd fdfe ad3d c6af ca3c
00000110: a90b e53d ce40 bebd 4d3b 153d 37f7 ddbd
00000120: 4565 183d 157e 64bd f4ba 68bd bdbf 6c3c
00000130: eacd 843b e863 f63d c6b5 a83d bbf3 0abb
00000140: 07e4 123d c3cf bc3c cd60 0bbd 32d4 b8bd
00000150: 96e4 e0bd 34ea 0f3c ff85 49bd b5c4 dd3d
00000160: f679 64bd a75d 183d a852 59bd 3b27 fe3d
00000170: ae17 453d 5264 883d b59b 053d 7946 fabc
00000180: c1ed 40bd 884c 88bd 6c4a d3bd 45fa 02bd
00000190: 0599 4dbd 7375 d43d 558a e23d dedd b7bd
000001a0: d1cf 9c3c c8f7 cbbd 1a4c 753d cce4 ba3d
000001b0: cf84 8ebd 6f7a c6bd 7b4d e1bc d057 c53d
000001c0: f76e a03d 4634 89bd 1c04 2cba 87b8 c4bd
000001d0: 1ec3 f63d 2e33 583d 4456 65bd 2047 7c3d
000001e0: 75c1 8c39 2321 9cbd 63bf 14be f722 983d
000001f0: 36f8 ccbd 9d99 a83d c2ea 14bd ab83 8b3d
00000200: eec3 d93c 1d6d 363d 6788 96bd d5d5 1b3d
00000210: a94f 46bb dec9 dabc 9a1a bdbc facd 84bc
00000220: 6e37 5a3d d4c7 733d d8de 8abd a0b0 96bc
00000230: 0438 63bd ff41 81bd ecad d73c 149d b63d
00000240: 55fa 123d 1ff6 68bd b43a 4d3d 779a cd3d
00000250: 12e4 193c 7a51 ae3d 197b ca3c c677 50bd
00000260: 262e 853c e788 903c 91cc a43c ab6e 39bd
00000270: 0e79 ddbd 8b50 08be 4b93 cdbd ac92 3e3d
00000280: 37bb 45bd 5461 02be 9d9e 9d3d 9136 0fbe
00000290: 0125 cd3b 4496 953d fb0e a5bd a57d bbbc
000002a0: 2530 dc3d 1c90 af3d ca5d 8a3d 19ce 31bd
000002b0: 3434 493d d099 a93c 52c9 94bc 3345 b43d
000002c0: fa1c 383c e191 753d 4e26 eabd a47f 9b3c
000002d0: 9140 06be 40a9 feba 63f1 713c b3f1 673d
000002e0: ccf0 2b3d 9e35 a4bd ad97 063d 2d94 11be
000002f0: 03d1 9d3d 1b2c 1f3d ece2 17bd 9a9f 3d3c
00000300: 6f2b 583d bec3 d7bd dad2 883d cdb7 b33c
00000310: 8ec9 dc3d ba39 3bbc f909 abba 5135 463c
00000320: 3357 ae3d fc9b efbd 1aa0 643d b16d 623d
00000330: dd38 a2bc 15c8 c8bd b07a a43d b182 713d
00000340: 1dca 2abd e521 743c 319e 66bd 484e 8cbd
00000350: ff61 d63d 89fc 0d3d 995a dabb 6d91 7d3d
00000360: 1f18 873d 698b 3e3d 755f 153d ceb0 d7bd
00000370: 4c91 81bd f167 ae3d 2dbc d23c 6b4c a93c
00000380: 8c78 c2bd 23cf 92bd 526b 6dbd 54c5 343d
00000390: 1147 8dbd 3697 9d3d 492b d5bd 06d3 20bd
000003a0: 9d47 ba3d d31d 8abd 868e 33bc 7c42 58bd
000003b0: 715b 103d 5fdc 85bd 16ce d2bd 23c4 6abd
000003c0: 5470 fd3c 6854 3fbd 6a5b e1bd 590c 1fbd
000003d0: b7b0 8dbd 3789 bd3d 8737 24bd 0dc9 243d
000003e0: 8197 cd3d 086a bdbd d738 003d 4cba 533b
000003f0: 2204 b63d d0a0 24bc 9ac9 ac3c 7ad2 05be

fc_var.4.bias f4 [32]
0.032794576 0.02877383 0.07023724 -0.06215512 0.098560505 -0.112862565 0.05339411 -0.07996861
-0.08693286 0.08007408 0.063544236 0.015027619 -0.026032826 -0.07686201 -0.09795296 -0.022066925
-0.016970063 0.087873116 0.004079307 -0.06396437 0.04983899 -0.09735759 0.030282503 0.05113132
-0.048662096 0.026084622 -0.10991831 0.10401789 0.08526668 0.08843993 0.019840341 0.06734796
00000000: 9b53 063d 18b7 eb3c 8bd8 8f3d 5e96 7ebd
00000010: 17da c93d 7d24 e7bd c8b3 5a3d 95c6 a3bd
00000020: db09 b2bd e1fd a33d 7b23 823d 6736 763c
00000030: cb42 d5bc d469 9dbd 909b c8bd b2c5 b4bc
00000040: cd04 8bbc d2f6 b33d b5ab 853b c0ff 82bd
00000050: f823 4c3d 6b63 c7bd 0313 f83c 136f 513d
00000060: e851 47bd 6baf d53c da1c e1bd 5507 d53d
00000070: 4ca0 ae3d fe1f b53d 3688 a23c baed 893d
