dc_ids_known_traffic_classification.pth (torch, 364779 bytes, 32 tensors)

fc_mu.0.weight f4 [128, 8]
0.3741627 0.47629544 -0.08282784 0.26566488 -0.04311943 0.071039334 -0.18651852 0.18201822
0.32982472 -0.15715079 0.30730727 0.010911127 0.23321384 0.08637457 0.08009554 -0.018866643
0.38127494 0.18420301 -0.16505283 0.08156447 -0.1286727 -0.0114988545 -0.1456766 0.23260659
-0.20150279 -0.049656205 -0.09983453 -0.21376638 0.04070859 -0.33622137 0.2952758 -0.31701618
0.3252707 0.22096974 -0.11480038 0.18786624 0.08710045 0.298566 0.029735126 -0.13000993
0.15031713 0.11183405 0.14879563 0.28391686 0.18103692 -0.119169764 0.16541888 0.029961323
0.23291986 -0.07916961 -0.34998548 -0.13725853 -0.22062886 0.27616015 0.07885789 0.122638345
0.20697506 0.20668194 0.2766938 -0.25525483 0.046536773 -0.1896919 0.06527059 -0.15612298
0.14053781 -0.028574087 0.29323432 -0.2301295 -0.17865218 -0.16780744 0.25767925 0.093403734
0.29815534 -0.46012592 -0.35068116 -0.28456804 -0.2523626 0.14745927 0.12703945 0.2652672
-0.07364872 -0.06867064 0.18758771 -0.13533966 0.22261949 -0.1095815 0.2011795 -0.29394653
-0.025587315 0.31514534 0.07474387 -0.13009028 0.20377386 0.21672814 -0.2849467 -0.18976663
0.39649776 0.05758838 -0.12534046 -0.33654657 -0.17692307 0.076398626 -0.079730265 -0.24655469
-0.0631163 -0.36501986 -0.29995352 -0.1752634 -0.2836327 -0.16842572 0.32452944 0.06546925
0.15709265 -0.19662909 -0.2322046 -0.15893903 0.061057355 -0.30031008 -0.16440672 -0.22492084
0.08993264 0.02542124 -0.024499744 -0.18024753 -0.21937701 -0.16955355 -0.12080411 -0.28194624
0.34273723 0.08484835 0.3041962 0.08007484 -0.26519677 0.20721196 -0.112319484 -0.1099113
-0.3741708 -0.47353062 0.10115537 -0.05233992 0.13357092 -0.27235144 0.2637558 -0.21467824
0.024107588 0.17424473 0.18252257 0.24301213 0.3147382 -0.24390684 0.06123862 -0.17695782
0.053669143 -0.063893594 0.32203713 -0.25673673 0.20466457 0.06377431 0.12096323 -0.19486813
0.41456184 0.2892209 0.045481116 -0.35724518 0.12517041 -0.05757515 -0.17237082 0.26733714
-0.06339501 -0.4038261 -0.17894714 -0.026938517 0.2154118 -0.11379657 -0.21217409 -0.06886025
-0.117311314 0.27964392 0.27366456 -0.31640702 0.14958811 0.17108203 0.05768157 -0.165105
0.3093238 0.36510092 0.13220325 -0.0830846 -0.06568477 0.044069845 -0.06990735 -0.1489592
0.3408407 0.4941231 -0.03500086 -0.07544955 0.0818779 -0.006924163 0.08830573 0.06719374
-0.22326855 -0.03933786 0.29773775 0.1279857 0.029533569 -0.15712968 -0.20216374 -0.34825635
-0.020460151 0.15767804 0.22543326 0.1519429 -0.24369332 -0.15643758 -0.036569733 0.2952326
0.13748436 0.044073943 0.14627042 -0.13869992 -0.1804822 0.24649987 -0.17716856 -0.08516371
-0.23051435 0.28892526 0.26786432 0.12607627 -0.21616356 -0.2759206 -0.2656633 0.22409476
0.29588085 0.45332077 0.18521598 0.08060194 0.001007315 -0.23195302 -0.28019905 -0.3317629
0.24021682 -0.0066873278 -0.07115352 -0.18525659 -0.022669543 -0.2176153 -0.18911132 0.05068269
0.0010616317 0.35873723 -0.11342302 -0.28950772 0.0074174847 -0.16432737 -0.12621252 -0.34342235
00000000: 4192 bf3e ffdc f33e a4a1 a9bd 3a05 883e
00000010: 009e 30bd 127d 913d b6fe 3ebe fc62 3a3e
00000020: c9de a83e 23ec 20be 6157 9d3e 95c4 323c
00000030: 9ccf 6e3e 27e5 b03d 2109 a43d 388e 9abc
00000040: 7836 c33e b79f 3c3e 9c03 29be 460b a73d
00000050: c7c2 03be b165 3cbc 3f2c 15be 6c30 6e3e
00000060: bf56 4ebe 4e64 4bbd 0c76 ccbd 93e5 5abe
00000070: 0dbe 263d 3525 acbe 642e 973e f24f a2be
00000080: e289 a63e e445 623e 761c ebbd 0260 403e
00000090: b961 b23d a5dd 983e 1497 f33c 5321 05be
000000a0: bcec 193e 4009 e53d e25d 183e 8d5d 913e
000000b0: be61 393e 470f f4bd 9163 293e 7371 f53c
000000c0: 8b82 6e3e ad23 a2bd 4c31 b3be 808d 0cbe
000000d0: 88ec 61be dd64 8d3e 3f80 a13d d029 fb3d
000000e0: 45f1 533e 6ea4 533e cfaa 8d3e c3b0 82be
000000f0: 589d 3e3d 983e 42be 96ac 853d b4de 1fbe
00000100: 25e9 0f3e 3414 eabc cf22 963e 11a7 6bbe
00000110: 99f0 36be b7d5 2bbe 89ee 833e 754a bf3d
00000120: d1a7 983e a095 ebbe 7b8c b3be e7b2 91be
00000130: ac35 81be 90ff 163e a116 023e 1ad1 873e
00000140: 24d5 96bd 31a3 8cbd fe16 403e 7b96 0abe
00000150: 5df6 633e 446c e0bd 0002 4e3e 2980 96be
00000160: 7d9c d1bc bb5a a13e 5013 993d 6336 05be
00000170: 18aa 503e fbed 5d3e 89e4 91be 2f52 42be
00000180: c101 cb3e cbe1 6b3d 4059 00be d54f acbe
00000190: 522b 35be e276 9c3d 9f49 a3bd d578 7cbe
000001a0: 1e43 81bd e2e3 babe 8293 99be 4078 33be
000001b0: 4e38 91be cb77 2cbe b928 a63e be14 863d
000001c0: e5dc 203e 2359 49be 0bc7 6dbe eac0 22be
000001d0: 4717 7a3d 3ec2 99be 3c5a 28be a651 66be
000001e0: 9b2e b83d 3440 d03c b0b3 c8bc cf92 38be
000001f0: 5ea4 60be 729f 2dbe 2568 f7bd 425b 90be
00000200: 417b af3e f9c4 ad3d 9bbf 9b3e 47fe a33d
00000210: dfc7 87be 5f2f 543e c207 e6bd 2d19 e1bd
00000220: 5193 bfbe 9b72 f2be 8c2a cf3d 6262 56bd
00000230: d1c6 083e a671 8bbe 000b 873e 9dd4 5bbe
00000240: 477d c53c 366d 323e 32e7 3a3e 2cd8 783e
00000250: 5e25 a13e b7c2 79be 59d5 7a3d 6e34 35be
00000260: 2dd4 5b3d a5da 82bd 0de2 a43e ff72 83be
00000270: 9793 513e 1b9c 823d 92bb f73d 838b 47be
00000280: 7341 d43e c314 943e 684a 3a3d d7e8 b6be
00000290: ac2c 003e ecd3 6bbd fa81 30be 6ae0 883e
000002a0: 3ed5 81bd 4bc2 cebe eb3d 37be 2aae dcbc
000002b0: e994 5c3e 2d0e e9bd 2a44 59be 9a06 8dbd
000002c0: ea40 f0bd 7d2d 8f3e c31d 8c3e 1a00 a2be
000002d0: a02d 193e 2130 2f3e 8343 6c3d 4911 29be
000002e0: b05f 9e3e 82ee ba3e 4a60 073e 4228 aabd
000002f0: bd85 86bd 9582 343d 962b 8fbd c388 18be
00000300: ac82 ae3e b4fd fc3e 105d 0fbd 4b85 9abd
00000310: 9aaf a73d 17e4 e2bb a2d9 b43d df9c 893d
00000320: 83a0 64be bc20 21bd 1571 983e af0e 033e
00000330: 62f0 f13c 9ae6 20be 0304 4fbe a84e b2be
00000340: 0c9c a7bc 5a76 213e fad7 663e eb96 1b3e
00000350: be8a 79be 2c31 20be 25ca 15bd ba28 973e
00000360: b3c8 0c3e e186 343d eac7 153e 5a07 0ebe
00000370: 53d0 38be 766a 7c3e ad6b 35be 506a aebd
00000380: f40b 6cbe 03ee 933e 8325 893e 231a 013e
00000390: fb59 5dbe 7745 8dbe 0505 88be 1979 653e
000003a0: b27d 973e a919 e83e 42a9 3d3e a112 a53d
000003b0: e207 843a 1885 6dbe 4076 8fbe d4dc a9be
000003c0: 66fb 753e 5f21 dbbb f0b8 91bd e7b3 3dbe
000003d0: 7ab5 b9bc 8cd6 5ebe 66a6 41be a798 4f3d
000003e0: 7326 8b3a 68ac b73e 544a e8bd 5b3a 94be
000003f0: 5f0e f33b 6f45 28be db3d 01be 0ed5 afbe

fc_mu.0.bias f4 [128]
0.2508965 -0.031743396 0.19538894 -0.21666183 0.110915564 -0.19991472 0.19393688 -0.14333571
-0.104375325 -0.3012156 -0.01079713 0.34998304 0.19494939 -0.17121226 0.0038946997 -0.05364842
-0.25171554 0.29044425 0.02300707 0.05686891 -0.12362479 -0.14385352 0.09588059 0.18623784
0.14903022 -0.154691 0.35215557 -0.037029076 -0.23493826 -0.106213845 0.35865265 0.043819815
-0.0215943 -0.10737266 -0.030178364 -0.29538682 -0.25147912 0.2259608 0.30294254 0.3333618
-0.2525579 0.20369253 -0.17306514 0.25356415 0.30367908 0.28781423 0.27478153 0.24088517
0.06809485 0.19454326 -0.11792338 0.19278733 -0.12491134 -0.016835142 -0.26057673 -0.03937506
-0.1791816 -0.0968279 -0.19482702 -0.34955585 0.051403277 0.25769347 0.37326065 0.26256463
-0.15682362 -0.30304614 0.18026638 0.167725 -0.2685943 0.15253407 0.3292772 0.035127785
-0.20149861 0.32405695 0.15000367 0.2513151 -0.15824908 0.1581306 -0.23677921 0.3956944
-0.17297229 0.2197841 0.06542447 0.12712345 -0.0235418 0.2077074 -0.13236149 -0.25539455
-0.14350753 0.2844427 -0.060598444 0.105801255 -0.11426331 0.2683001 0.21744503 0.12881199
-0.15512131 -0.26774603 0.030803364 -0.21134764 0.30814797 -0.3119327 0.19442819 0.35888192
0.19748908 0.12261813 -0.28501296 0.33793744 -0.031250715 -0.30332613 0.32427087 -0.1348634
-0.028822763 0.34599385 -0.20034823 -0.24499561 0.049951743 -0.016813926 0.086180255 -0.26223806
0.022410437 -0.14148201 -0.16621031 -0.31110224 0.18287602 0.07712514 -0.2738568 0.3028836
00000000: 8275 803e 5d05 02bd 0a14 483e 99dc 5dbe
00000010: b327 e33d 72b6 4cbe 6497 463e 99c6 12be
00000020: bbc2 d5bd ee38 9abe 72e6 30bc fa30 b33e
00000030: d0a0 473e 4452 2fbe 383e 7f3b 72be 5bbd
00000040: dce0 80be 1cb5 943e 5379 bc3c 60ef 683d
00000050: fe2e fdbd 564e 13be 0b5d c43d 22b5 3e3e
00000060: 619b 183e 5167 1ebe bc4d b43e cdab 17bd
00000070: a893 70be a586 d9bd 52a1 b73e 687c 333d
00000080: 88e6 b0bc 32e6 dbbd 9e38 f7bc f13c 97be
00000090: dfc1 80be 4562 673e 491b 9b3e 66ae aa3e
000000a0: 454f 81be c694 503e fd37 31be 29d3 813e
000000b0: d37b 9b3e 635c 933e 2ab0 8c3e 9aaa 763e
000000c0: 5075 8b3d 5936 473e d081 f1bd 0b6a 453e
000000d0: 84d1 ffbd dae9 89bc 506a 85be be47 21bd
000000e0: 627b 37be b54d c6bd bc80 47be fcf8 b2be
000000f0: 3e8c 523d 66f0 833e 051c bf3e df6e 863e
00000100: 5f96 20be dd28 9bbe c097 383e 1ac0 2b3e
00000110: 3185 89be e431 1c3e 0597 a83e 27e2 0f3d
00000120: a755 4ebe cbea a53e 909a 193e 5fac 803e
00000130: 0c0c 22be fdec 213e 4076 72be 7598 ca3e
00000140: a61f 31be 150f 613e 44fd 853d a62c 023e
00000150: bcda c0bc 40b1 543e c589 07be 13c3 82be
00000160: a3f3 12be 79a2 913e 1336 78bd 54ae d83d
00000170: e202 eabd a15e 893e e9a9 5e3e 4ae7 033e
00000180: 1fd8 1ebe 0216 89be 5657 fc3c 846b 58be
00000190: 92c5 9d3e a5b5 9fbe 2f18 473e 5fbf b73e
000001a0: 943a 4a3e 371f fb3d 38ed 91be 2306 ad3e
000001b0: c000 00bd 904d 9bbe d506 a63e a219 0abe
000001c0: b71d ecbc 1b26 b13e 1628 4dbe 21e0 7abe
000001d0: 339a 4c3d 5cbd 89bc 467f b03d 1144 86be
000001e0: 1896 b73c a9e0 10be 0933 2abe cb48 9fbe
000001f0: da43 3b3e c9f3 9d3d f536 8cbe 8f13 9b3e

fc_mu.2.weight f4 [64, 128]
0.10055648 0.035185825 0.003926953 -0.0052024485 0.14871824 0.088430844 -0.038032204 0.11674435
0.011312212 0.04854144 0.07462089 0.14252692 -0.019691573 0.052413538 -0.042726763 0.031292282
-0.0064718807 -0.05115078 0.024401745 0.012507101 0.06258061 0.024387762 0.13050409 0.12301833
0.12359914 0.0485195 0.0828043 0.044769846 -0.0036602113 0.088777944 -0.040898964 -0.026952999
0.019005168 0.012062485 0.062140398 -0.018127812 0.038392052 0.08946659 -0.004107073 0.115596786
0.0765533 -0.08251899 -0.0071431766 -0.09576943 0.02724292 -0.008257816 0.016204786 0.020071575
0.024538727 0.029624049 0.0077557424 0.12896682 -0.0028186962 -0.017266067 0.082067624 0.03852911
0.08536173 0.11002693 0.10634333 -0.042537723 0.07561016 0.15079859 0.011335077 0.14038853
0.055575937 0.032609567 0.089992404 -0.02800711 -0.025047585 0.059673723 0.091806404 -0.07962567
0.06870614 -0.03437479 0.057242725 0.11731693 0.10763699 -0.027177678 0.072571486 0.07547297
0.02678839 0.053177495 0.08368005 0.009934695 0.054991677 0.098485455 0.014647233 0.14921941
-0.026432924 1.5898326e-05 0.07505509 -0.048184164 0.043101016 0.01729285 -0.047454216 0.016711406
-0.009537512 0.02317697 -0.014359096 -0.066167116 0.014011094 0.013033031 0.056733195 0.10888497
-0.022473238 0.07067806 0.09287642 -0.040784366 0.04510509 0.11184795 -0.008095353 -0.05305233
0.10348791 0.11259648 0.025377404 0.06995215 0.00722002 -0.056833796 0.032385677 0.0654582
0.005126809 0.04617557 -0.05354154 0.046246324 0.088082954 0.08172894 0.002339529 0.05450081
-0.10007877 -0.012068523 -0.025105922 -0.041311566 -0.09360292 0.059302296 0.07359173 -0.111427374
0.03860066 0.072996534 0.086586714 0.011567148 0.048771296 0.0064652003 0.053735103 0.054251596
-0.10461275 -0.035402574 0.0055296416 0.044498187 -0.08285897 0.021627175 -0.023778882 -0.025837114
-0.0934665 0.046778638 0.07141682 -0.07340299 0.020207928 -0.057560705 0.016407773 0.043267816
0.030498615 -0.064416915 0.025163133 -0.00811935 -0.048880596 -0.008396605 -0.06312701 0.0035755585
-0.06080698 0.031542134 -0.04017459 0.06170618 -0.109114625 -0.085690744 0.03787947 0.05538043
-0.13062316 -0.0070122047 -0.09167332 -0.0206556 0.081632346 0.04320908 -0.08003495 0.040428508
0.057104725 -0.04130415 0.096731864 -0.028445873 -0.02403864 -0.08978041 -0.012306583 -0.027625425
0.020163108 -0.061988123 -0.050169215 0.051226243 -0.0950948 -0.016610749 -0.04950353 0.003426536
0.027973965 0.00629715 0.08511044 -0.02454024 -0.11251847 0.059868973 0.012598249 -0.06410572
-0.042667694 0.028814876 -0.07130066 0.0020637785 -0.0040375227 -0.1169803 -0.016499225 -0.12745948
0.08995066 0.093427196 -0.029501932 0.12893914 0.021183567 -0.05737849 0.036746245 0.025583997
0.07412592 0.004358381 0.11604849 0.070740044 0.05632053 -0.07817764 0.019204233 -0.08815982
0.10587379 -0.005351794 -0.110815786 0.00998711 -0.017807323 -0.09755741 -0.04105431 0.027864033
0.0808341 -0.035423342 0.00598527 0.020613566 -0.0033498758 0.003956727 -0.06249275 -0.10127358
-0.02366231 -0.075200506 -0.03155244 0.04141716 -0.049310077 -0.048756793 0.021300392 -0.019265125
00000000: 8ef0 cd3d 031f 103d abad 803b 4d79 aabb
00000010: 9849 183e 3b1b b53d a8c7 1bbd a917 ef3d
00000020: db56 393c 64d3 463d d6d2 983d 94f2 113e
00000030: 3950 a1bc 94af 563d 4202 2fbd 562c 003d
00000040: 1212 d4bb 7b83 51bd 2be6 c73c 95ea 4c3c
00000050: 432a 803d d8c8 c73c dda2 053e 09f1 fb3d
00000060: 8c21 fd3d 62bc 463d 4d95 a93d 9660 373d
00000070: 28e0 6fbb 36d1 b53d ac85 27bd 89cc dcbc
00000080: bab0 9b3c bba1 453c ee86 7e3d c780 94bc
00000090: fc40 1d3d 423a b73d a094 86bb 02be ec3d
000000a0: fac7 9c3d b7ff a8bd 4f11 eabb c322 c4bd
000000b0: 8b2c df3c ca4b 07bc e6bf 843c 256d a43c
000000c0: 7105 c93c 22ae f23c e223 fe3b e10f 043e
000000d0: e0b9 38bb 9171 8dbc 1213 a83d b3d0 1d3d
000000e0: 21d2 ae3d cd55 e13d 88ca d93d 093c 2ebd
000000f0: 80d9 9a3d f26a 1a3e c2b6 393c 03c2 0f3e
00000100: 98a3 633d 9c91 053d f04d b83d 2b6f e5bc
00000110: 9830 cdbc 6f6c 743d ff04 bc3d c912 a3bd
00000120: ceb5 8c3d 94cc 0cbd 5977 6a3d dc43 f03d
00000130: c870 dc3d b9a3 debc 5ca0 943d 9391 9a3d
00000140: 5373 db3c a5d0 593d 7260 ab3d 22c5 223c
00000150: f43e 613d beb2 c93d f3fa 6f3c f9cc 183e
00000160: dc89 d8bc 655d 8537 7cb6 993d c25c 45bd
00000170: b18a 303d bca9 8d3c 5a5f 42bd 5ce6 883c
00000180: 3a43 1cbc a1dd bd3c 6a42 6bbc a082 87bd
00000190: ca8e 653c 7e88 553c 1161 683d 15ff de3d
000001a0: cc19 b8bc a9bf 903d fe35 be3d 820d 27bd
000001b0: 1dc0 383d 8a10 e53d 5fa2 04bc 664d 59bd
000001c0: 78f1 d33d fc98 e63d 46e4 cf3c 1343 8f3d
000001d0: eb95 ec3b 8eca 68bd d8a6 043d f30e 863d
000001e0: cafe a73b 9822 3d3d 604e 5bbd c96c 3d3d
000001f0: d664 b43d 8161 a73d c952 193b 3e3c 5f3d
00000200: 19f6 ccbd 0ebb 45bc efaa cdbc 5136 29bd
00000210: e3b2 bfbd f7e6 723d 43b7 963d 0934 e4bd
00000220: ba1b 1e3d 357f 953d 6054 b13d 2384 3d3c
00000230: 69c4 473d 08da d33b 5719 5c3d ec36 5e3d
00000240: 363f d6bd 4a02 11bd ff31 b53b bb43 363d
00000250: f7b1 a9bd 792b b13c eecb c2bc 5ba8 d3bc
00000260: 5d6b bfbd f59a 3f3d fb42 923d 4f54 96bd
00000270: 198b a53c c6c4 6bbd 9869 863c 9839 313d
00000280: 3bd8 f93c 04ed 83bd ea22 ce3c 0607 05bc
00000290: 0537 48bd ea91 09bc bc48 81bd eb53 6a3b
000002a0: bd10 79bd 5332 013d 1c8e 24bd 9fbf 7c3d
000002b0: 7d77 dfbd a17e afbd 8127 1b3d 97d6 623d
000002c0: 14c2 05be a3c6 e5bb 39bf bbbd ef35 a9bc
000002d0: dc2e a73d 01fc 303d 5de9 a3bd 5d98 253d
000002e0: a5e6 693d 8a2e 29bd 5b1b c63d 5207 e9bc
000002f0: afec c4bc cbde b7bd 8da1 49bc b74e e2bc
00000300: 1a2d a53c 42e7 7dbd 3c7e 4dbd 9cd2 513d
00000310: 10c1 c2bd 4413 88bc 37c4 4abd bc8f 603b
00000320: a829 e53c 5358 ce3b 624e ae3d 9d08 c9bc
00000330: 1570 e6bd 2b39 753d e368 4e3c dc49 83bd
00000340: 52c4 2ebd 2d0d ec3c 1506 92bd 7540 073b
00000350: 324d 84bb 5e93 efbd 6229 87bc bd84 02be
00000360: 0d38 b83d c256 bf3d 09ae f1bc 9f08 043e
00000370: 2989 ad3c b505 6bbd 3b83 163d 8895 d13c
00000380: 55cf 973d c0d0 8e3b d5aa ed3d 28e0 903d
00000390: 5bb0 663d 991b a0bd 3252 9d3c 238d b4bd
000003a0: 5cd4 d83d 1a5e afbb 63f3 e2bd faa0 233c
000003b0: aae0 91bc 2ecc c7bd 9028 28bd 1d43 e43c
000003c0: 598c a53d 1118 11bd 1520 c43b c8dd a83c
000003d0: 9789 5bbb 6fa7 813b 66f8 7fbd 8668 cfbd
000003e0: 76d7 c1bc b902 9abd 223d 01bd 0aa5 293d
000003f0: 5df9 49bd 34b5 47bd 297e ae3c e5d1 9dbc

fc_mu.2.bias f4 [64]
0.069732115 0.02333903 0.060286272 0.022867352 -0.01963871 0.01570601 0.07669965 0.015579592
-0.048644155 -0.045514464 -0.060812157 -0.0035712675 0.09915699 0.046804138 0.026445745 0.029013937
-0.035340983 0.10209472 0.05615214 -0.020877477 -0.0463214 -0.073553994 -0.019848973 0.07577022
0.015588944 -0.016174242 0.029298155 -0.05010442 0.06852254 0.10057306 0.042186 -0.012573808
-0.044802085 0.0620333 0.05811274 -0.005917705 0.011422073 0.01900813 -0.0049872533 -0.08030432
-0.049868442 0.10344316 -0.038108185 0.067171246 0.06861579 -0.0026866593 -0.041727632 0.003711207
-0.041399933 -0.044473577 0.10932866 -0.052698966 0.019492371 -0.043091886 0.02282365 0.033278413
0.070384055 -0.015526539 0.03393231 0.01483389 0.036197115 0.001492439 -0.017562035 0.06759367
00000000: b6cf 8e3d 7e31 bf3c bdee 763d 5054 bb3c
00000010: 5ce1 a0bc e4a9 803c b514 9d3d 8c41 7f3c
00000020: 183f 47bd 606d 3abd 2b16 79bd ed0b 6abb
00000030: d212 cb3d b2b5 3f3d bfa4 d83c a3ae ed3c
00000040: b5c1 10bd 0917 d13d c9ff 653d 3e07 abbc
00000050: 82bb 3dbd 7aa3 96bd 509a a2bc 6b2d 9b3d
00000060: c568 7f3c d87f 84bc af02 f03c 4b3a 4dbd
00000070: 8c55 8c3d 40f9 cd3d 3acb 2c3d 6002 4ebc
00000080: 6482 37bd a116 7e3d a007 6e3d 4fe9 c1bb
00000090: a523 3b3c f0b6 9b3c 1d6c a3bb 9776 a4bd
000000a0: da42 4cbd 02da d33d 5417 1cbd 1491 893d
000000b0: 6f86 8c3d aa12 30bb 98ea 2abd b937 733b
000000c0: fa92 29bd ed29 36bd b4e7 df3d dfda 57bd
000000d0: 77ae 9f3c 1e81 30bd aaf8 ba3c f24e 083d
000000e0: 8425 903d 0663 7ebc 9bfc 0a3d d809 733c
000000f0: 6d43 143d f19d c33a 42de 8fbc 8d6e 8a3d

fc_mu.4.weight f4 [32, 64]
-0.061067775 0.06325613 -0.10410033 -0.09211162 0.11439171 -0.05329661 -0.098129995 -0.09445105
0.11489103 -0.018599901 -0.10802676 -0.016799107 -0.06224966 -0.084512964 -0.06198991 0.09442567
0.045473825 0.07001823 0.010315008 -0.058766894 -0.052375864 -0.08921883 -0.093328595 -0.10826914
0.021640155 0.06272325 0.10081894 -0.0076053534 -0.022847265 -0.01242985 0.048155077 -0.024769612
-0.04733623 -0.040360406 -0.12725541 -0.098432206 -0.056181315 0.004655263 -0.08335209 0.034066945
-0.072171055 0.11906237 -0.110822715 0.06589739 -0.0689694 -0.046370134 -0.12434677 -0.12649782
-0.13089228 -0.013359642 0.10743531 0.05327116 0.07129814 0.02208419 -0.049308836 -0.05162913
-0.047491945 -0.118160665 0.06751676 -0.0400145 -0.07445371 0.021614036 -0.0023407969 0.06171361
-0.1299284 0.08447847 -0.090328954 0.0027529355 0.07102346 -0.052923616 -0.14960794 -0.15906371
0.07497117 -0.16345806 -0.08585309 0.047953166 -0.13807409 0.07718352 -0.024232168 -0.0039846385
-0.027173825 -0.02911225 0.029759796 -0.1538188 -0.021565503 -0.101616375 0.076622985 0.055840403
-0.08939012 0.021306021 -0.06323122 0.025356902 -0.08215909 -0.11757954 0.016598994 0.023380285
0.08136639 0.00045380052 -0.10011852 -0.010970996 -0.032465972 0.06442351 0.00059943844 0.057201013
-0.036588375 -0.13631321 -0.11934144 0.07073211 0.07045345 -0.006237603 -0.13254656 0.037365187
0.015269851 -0.14491153 -0.003187585 0.084791 -0.12607743 -0.03932725 -0.0073396824 -0.08454119
0.03731161 0.06692383 0.08031528 -0.15484115 -0.041034948 0.059873044 0.066602424 -0.07528184
0.06541728 0.09763167 -0.02618318 0.069159985 0.05791964 -0.02677159 -0.06552061 -0.08080749
-0.116099216 -0.085880466 0.024357846 0.03477661 -0.05332209 -0.017753849 0.069998 0.0212746
-0.09357688 0.087295555 0.060735144 -0.0031324117 0.048467517 -0.10296805 0.058787536 0.014775996
-0.016896129 -0.055461004 0.08481925 0.010445651 -0.083965175 0.037152387 0.0122548705 -0.06622108
0.072136365 0.10211035 -0.010882148 -0.0636271 -0.070511654 -0.07939607 0.06058227 0.07295617
-0.08985813 0.06003276 -0.00978583 -0.01949382 -0.061185688 -0.13308282 -0.11165315 0.08416929
-0.045101818 -0.016983995 -0.09294147 -0.03267272 -0.069763996 -0.009677368 -0.12628633 -0.008351963
-0.12530161 -0.09921569 -0.018773016 -0.021815415 -0.053828757 0.06885455 -0.0021881717 0.006180939
0.08043836 -0.01798847 -0.07379022 -0.04677883 0.103211075 0.09445941 0.0615991 0.13494898
-0.013727115 -0.0016965049 0.0052517494 -0.0057632527 0.12993732 -0.09995583 0.051930673 0.12051449
-0.04258273 0.1251915 -0.09189494 0.04539576 -0.06649582 0.04258561 0.06397066 0.066953726
-0.0016592506 -0.009461922 -0.081551954 0.05662865 0.13755263 -0.064292796 -0.025366388 0.07605098
0.09239678 0.08746098 0.086105876 0.049869545 -0.059677057 -0.061667394 -0.12618175 -0.07202185
0.09446469 0.123094626 0.15089801 0.12693317 0.058510665 0.12759875 0.033295102 -0.08587742
0.009794738 -0.11392813 0.15042153 0.045984708 0.1507824 0.039883114 0.1190096 0.08734198
0.002092789 0.02676721 0.118830815 -0.0031151827 0.11840033 0.011900522 -0.025904521 -0.025273385
00000000: 3422 7abd 6e8c 813d 8e32 d5bd 04a5 bcbd
00000010: 3346 ea3d 8c4d 5abd 61f8 c8bd 8d6f c1bd
00000020: fd4b eb3d d25e 98bc 223d ddbd 489e 89bc
00000030: 80f9 7ebd 2215 adbd 22e9 7dbd 3f62 c13d
00000040: c342 3a3d b865 8f3d 4800 293c 8eb5 70bd
00000050: 1388 56bd 5db8 b6bd 1023 bfbd 36bc ddbd
00000060: b246 b13c 0c75 803d 297a ce3d 5436 f9bb
00000070: 302a bbbc 92a6 4bbc 423e 453d a4e9 cabc
00000080: a2e3 41bd f450 25bd 3e4f 02be d396 c9bd
00000090: 611e 66bd 2d8b 983b 80b4 aabd c889 0b3d
000000a0: 6bce 93bd f9d6 f33d 05f7 e2bd 36f5 863d
000000b0: d43f 8dbd 9cee 3dbd 85a9 febd a588 01be
000000c0: a008 06be 66e2 5abc 0b07 dc3d dc32 5a3d
000000d0: c204 923d e7e9 b43c 10f8 49bd 1179 53bd
000000e0: ea86 42bd 38fe f1bd 3a46 8a3d 3fe6 23bd
000000f0: 307b 98bd eb0f b13c 0e68 19bb 69c7 7c3d
00000100: f30b 05be 0c03 ad3d 63fe b8bd 986a 343b
00000110: bf74 913d 6fc6 58bd d332 19be 99e1 22be
00000120: 7c8a 993d 8d61 27be bfd3 afbd 8a6a 443d
00000130: 4b63 0dbe 6512 9e3d 8a82 c6bc 9291 82bb
00000140: a49b debc d07c eebc d1ca f33c ad82 1dbe
00000150: 23aa b0bc 3f1c d0bd 83ec 9c3d e8b8 643d
00000160: 2b12 b7bd f789 ae3c 5f7f 81bd 47b9 cf3c
00000170: 0643 a8bd 8bcd f0bd 9dfa 873c 0388 bf3c
00000180: 6ca3 a63d 13ec ed39 f00a cdbd b1bf 33bc
00000190: 0afb 04bd 79f0 833d a223 1d3a 9c4b 6a3d
000001a0: b1dd 15bd b195 0bbe 4969 f4bd ffdb 903d
000001b0: e649 903d ce64 ccbb 49ba 07be 3d0c 193d
000001c0: 662e 7a3c b063 14be cde6 50bb e7a6 ad3d
000001d0: 711a 01be 9c15 21bd b881 f0bb ee23 adbd
000001e0: 0fd4 183d 5c0f 893d 567c a43d ae8e 1ebe
000001f0: 4314 28bd 703d 753d da66 883d 5e2d 9abd
00000200: 7ff9 853d 1df3 c73d 1c7e d6bc c0a3 8d3d
00000210: 253d 6d3d 1850 dbbc ab2f 86bd 667e a5bd
00000220: 6dc5 edbd 19e2 afbd 1b8a c73c eb71 0e3d
00000230: 4468 5abd 8570 91bc 1d5b 8f3d 1248 ae3c
00000240: 3ca5 bfbd 03c8 b23d 6ac5 783d 2649 4dbb
00000250: e085 463d eae0 d2bd 33cb 703d 0517 723c
00000260: c069 8abc 142b 63bd b7b5 ad3d 3c24 2b3c
00000270: eff5 abbd 1a2d 183d a7c8 483c eb9e 87bd
00000280: 3bbc 933d 3b1f d13d 094b 32bc ed4e 82bd
00000290: 6a68 90bd 689a a2bd 1d25 783d 0b6a 953d
000002a0: 8a07 b8bd e9e4 753d bf54 20bc 81b1 9fbc
000002b0: d89d 7abd dd46 08be 68aa e4bd f360 ac3d
000002c0: afbc 38bd 0522 8bbc 1958 bebd d4d3 05bd
000002d0: 6de0 8ebd d38d 1ebc 3451 01be acd6 08bc
000002e0: 114f 00be 9831 cbbd dec9 99bc 3eb6 b2bc
000002f0: 8b7b 5cbd 9d03 8d3d 6e67 0fbb 7989 ca3b
00000300: debc a43d 8e5c 93bc 541f 97bd 299b 3fbd
00000310: 5460 d33d ef73 c13d 564f 7c3d 1130 0a3e
00000320: b1e7 60bc 425d deba de16 ac3b abd9 bcbb
00000330: 4a0e 053e a4b5 ccbd 42b5 543d 4dd0 f63d
00000340: 3b6b 2ebd 3332 003e 6a33 bcbd e8f0 393d
00000350: f62e 88bd 406e 2e3d 0d03 833d 091f 893d
00000360: 367b d9ba 2d06 1bbc b604 a7bd 71f3 673d
00000370: 99da 0c3e f1ab 83bd 2ccd cfbc 9ec0 9b3d
00000380: 863a bd3d be1e b33d 4758 b03d 0244 4c3d
00000390: ee6f 74bd f396 7cbd ca35 01be 3180 93bd
000003a0: b476 c13d 0919 fc3d 0285 1a3e c5fa 013e
000003b0: e1a8 6f3d 3fa9 023e 7260 083d 80e0 afbd
000003c0: 1c7a 203c 2753 e9bd 1a08 1a3e 765a 3c3d
000003d0: b466 1a3e 7a5c 233d 4ebb f33d 5ae0 b23d
000003e0: 2c27 093b e846 db3c 925d f33d 1828 4cbb
000003f0: df7b f23d 68fa 423c b835 d4bc 210a cfbc

fc_mu.4.bias f4 [32]
0.0490766 -0.11543319 -0.017646668 0.048387244 -0.052581962 -0.045382455 0.007958737 0.11000042
0.08499614 0.03560956 0.0141020985 0.04327357 -0.041399952 0.09774956 0.050533503 -0.14784768
0.1219121 0.027385894 -0.1026592 -0.0777943 0.11996824 -0.098636046 0.030909985 -0.03346538
-0.10383257 0.02277766 0.06604027 0.10609697 -0.16966079 0.09061275 0.1098796 -0.0049755448
00000000: 8b04 493d 3c68 ecbd bf8f 90bc b431 463d
00000010: 2f60 57bd f4e2 39bd 5d65 023c e647 e13d
00000020: 7512 ae3d 54db 113d 7d0c 673c a03f 313d
00000030: ff92 29bd ec30 c83d 38fc 4e3d 6265 17be
00000040: 0dad f93d 6258 e03c fd3e d2bd 9e52 9fbd
00000050: e9b1 f53d b201 cabd f036 fd3c ff12 09bd
00000060: 2ca6 d4bd 3798 ba3c 1f40 873d 5e49 d93d
00000070: 8fbb 2dbe 2d93 b93d 8e08 e13d e509 a3bb

fc_var.0.weight f4 [128, 8]
0.39231485 0.45649564 -0.28632396 0.117119014 0.17771485 0.022203982 0.16205898 0.0292764
0.010157051 0.42673445 0.20486632 0.18108195 -0.08565772 -0.2679728 -0.086833395 -0.05444764
-0.15281121 -0.274595 0.2538664 -0.055672787 -0.32398233 -0.19623561 -0.27438164 0.1554663
-0.02708459 -0.2664486 -0.2711476 0.18081252 -0.2638881 -0.25427842 -0.015972996 0.18425752
-0.3627834 -0.37375146 0.11398569 -0.30534053 0.17552076 0.15439516 0.17783383 0.2879613
0.2804992 -0.19681871 0.19972113 0.16759907 0.16230184 -0.08877227 -0.16050105 -0.2483919
0.120399006 0.061319947 0.01789689 0.29306638 -0.232301 0.058968406 0.0013492836 0.011976677
0.32630688 0.3826264 -0.238035 0.091442116 -0.21957803 -0.19098508 -0.34271136 0.16499005
-0.12261951 -0.2601861 -0.070200115 -0.013540404 0.08922926 0.26459122 -0.21862537 -0.02657727
0.4036064 0.33521098 0.16296545 -0.12811206 0.08122837 0.021469703 0.008450959 0.22661395
-0.22352055 -0.20442319 0.24642155 0.10062781 -0.2859192 -0.073074795 0.25015298 0.21169585
0.17169921 -0.29078808 -0.26417354 0.1269343 0.25682947 0.2509229 0.13658881 0.19350004
-0.28721988 0.03979485 -0.03643495 0.0045862664 0.13741519 -0.24751864 0.051377952 -0.13492188
0.12356419 -0.36700988 -0.19503681 -0.21999583 0.1812626 0.16075286 0.29169568 0.35139784
0.1346142 0.09113349 0.09876916 0.051865753 0.06413822 -0.23997742 0.23322164 -0.24591675
0.29877812 0.24826059 0.0916588 0.11595022 0.060492564 -0.18801968 -0.18092562 -0.18572071
-0.09469936 0.22042575 0.026306033 -0.0046683243 0.13929814 0.30970937 -0.043978635 -0.17300865
-0.22311652 0.36364317 -0.31240693 0.15850998 0.31427792 0.19137499 -0.042491153 -0.025138348
0.19397832 -0.23792642 0.124985754 -0.08398858 0.15970674 -0.084980994 -0.23203127 -0.14920737
0.30406547 0.1884104 -0.24962562 -0.25987488 -0.0849266 -0.056559935 -0.105548814 0.2236003
0.12125217 -0.040474087 -0.020286113 0.13677073 -0.25795966 -0.32337612 -0.27566385 0.14033465
-0.027032482 -0.3819876 0.28896913 0.1710824 -0.31668296 0.20940341 0.0083728 0.025373803
0.3609389 0.4171116 0.07723409 -0.20569874 0.27442777 0.2648971 -0.088765875 -0.29126838
0.38503352 -0.040572688 -0.21121775 -0.35073343 0.13197128 0.15883178 -0.15180683 -0.31914672
0.2756225 0.16278224 0.31387278 -0.060635474 0.28443888 -0.13706914 -0.15351935 0.1723972
0.22548869 0.42973515 0.02657181 -0.23425798 -0.2626198 -0.118444234 -0.13696332 -0.18981647
0.26507765 -0.23870163 0.033545136 0.19848241 0.08518524 0.018431893 0.1308434 -0.18685056
-0.32710674 0.10852645 -0.26152793 -0.31667805 -0.26748088 0.24872981 -0.22350265 0.23051162
0.25384384 0.11472476 -0.20756117 -0.33802783 -0.24945912 0.19990109 -0.2672804 -0.036371168
-0.031379346 -0.15257865 0.07914701 -0.2537309 0.2478796 -0.22925118 -0.19739355 -0.20657289
0.2492356 -0.0516343 -0.12050012 0.18933843 -0.06724529 0.23214488 0.06646927 -0.033966415
-0.19411165 -0.28002182 0.09786266 0.0002469304 0.3088578 -0.2983094 0.024304915 0.08681962
00000000: 7edd c83e ccb9 e93e 0e99 92be 18dc ef3d
00000010: e2fa 353e 20e5 b53c caf2 253e 10d5 ef3c
00000020: c269 263c f07c da3e 7ac8 513e 8c6d 393e
00000030: 516d afbd bb33 89be b5d5 b1bd 7d04 5fbd
00000040: 8b7a 1cbe b797 8cbe c7fa 813e 2609 64bd
00000050: 03e1 a5be fdf1 48be c07b 8cbe 8f32 1f3e
00000060: 81e0 ddbc f36b 88be dcd3 8abe eb26 393e
00000070: 571c 87be c830 82be cdd9 82bc 01ae 3c3e
00000080: bfbe b9be 5a5c bfbe 5471 e93d 9855 9cbe
00000090: b7bb 333e c419 1e3e 121a 363e aa6f 933e
000000a0: 979d 8f3e d88a 49be b283 4c3e 179f 2b3e
000000b0: 7432 263e 3cce b5bd 635a 24be 725a 7ebe
000000c0: c193 f63d a02a 7b3d 809c 923c cc0c 963e
000000d0: 50e0 6dbe db88 713d 72da b03a d339 443c
000000e0: b211 a73e 9ce7 c33e 72bf 73be 0146 bb3d
000000f0: 10d9 60be 9891 43be dd77 afbe 27f3 283e
00000100: f01f fbbd 1d37 85be 14c5 8fbd 92d8 5dbc
00000110: d5bd b63d 8078 873e 54df 5fbe 93b8 d9bc
00000120: 80a5 ce3e c6a0 ab3e 6ae0 263e cf2f 03be
00000130: 0f5b a63d 3be1 af3c e475 0a3c 7d0d 683e
00000140: 92e2 64be 5054 51be ee55 7c3e f415 ce3d
00000150: 0064 92be 3da8 95bd 0d14 803e ccc6 583e
00000160: ebd1 2f3e 2de2 94be c141 87be 11fb 013e
00000170: 277f 833e f778 803e f0dd 0b3e e024 463e
00000180: 7c0e 93be edff 223d d03c 15bd 6448 963b
00000190: 91b6 0c3e 8775 7dbe b071 523d f628 0abe
000001a0: 390f fd3d b8e8 bbbe bbb7 47be 9646 61be
000001b0: e79c 393e 669c 243e 2359 953e 6bea b33e
000001c0: 4ed8 093e 32a4 ba3d 7c47 ca3d 2f71 543d
000001d0: e65a 833d a4bc 75be a7d1 6e3e 9ad1 7bbe
000001e0: 72f9 983e 0638 7e3e 9cb7 bb3d 4f77 ed3d
000001f0: 0dc7 773d 3b88 40be 9144 39be 922d 3ebe
00000200: bdf1 c1bd 4ab7 613e c07f d73c bef8 98bb
00000210: 2ca4 0e3e 3a92 9e3e f122 34bd 2e29 31be
00000220: a878 64be 702f ba3e cdf3 9fbe 7150 223e
00000230: 09e9 a03e cef7 433e 340b 2ebd f0ee cdbc
00000240: 41a2 463e fca2 73be 88f8 ff3d 3402 acbd
00000250: 2a8a 233e 840a aebd 9b99 6dbe d1c9 18be
00000260: 78ae 9b3e a8ee 403e dc9d 7fbe 520e 85be
00000270: ffed adbd 64ab 67bd fa29 d8bd 7af7 643e
00000280: 0f53 f83d 28c8 25bd 102f a6bc a00d 0c3e
00000290: 4a13 84be 8e91 a5be d023 8dbe e3b3 0f3e
000002a0: 3973 ddbc e193 c3be c3f3 933e 3a30 2f3e
000002b0: 4524 a2be d96d 563e 122e 093c b9dc cf3c
000002c0: fccc b83e a78f d53e e82c 9e3d b1a2 52be
000002d0: cc81 8c3e 98a0 873e e2ca b5bd 2121 95be
000002e0: 1d23 c53e 8c2f 26bd 7749 58be 5593 b3be
000002f0: 7b23 073e cca4 223e 4073 1bbe 3367 a3be
00000300: 641e 8d3e 63b0 263e efb3 a03e e75c 78bd
00000310: f9a1 913e da5b 0cbe 2d34 1dbe e488 303e
00000320: 82e6 663e 3f06 dc3e 20ad d93c 53e1 6fbe
00000330: 1a76 86be e492 f2bd 1d40 0cbe 405f 42be
00000340: 42b8 873e 336e 74be a066 093d f93e 4b3e
00000350: 9975 ae3d 7bfe 963c d0fb 053e c155 3fbe
00000360: 897a a7be 1e43 de3d fde6 85be a023 a2be
00000370: 41f3 88be 07b3 7e3e e1dd 64be 3d0b 6c3e
00000380: d2f7 813e d1f4 ea3d ea8a 54be fc11 adbe
00000390: 3672 7fbe dfb2 4c3e fad8 88be eff9 14bd
000003a0: a187 00bd 943d 1cbe d417 a23d 04e9 81be
000003b0: 26d4 7d3e d2c0 6abe 8921 4abe d887 53be
000003c0: 9e37 7f3e 7d7e 53bd c4c8 f6bd efe1 413e
000003d0: e6b7 89bd 63b7 6d3e 0a21 883d 5e20 0bbd
000003e0: 34c5 46be 055f 8fbe 386c c83d 7076 8139
000003f0: 9c22 9e3e 02bc 98be 1a1b c73c 7cce b13d

fc_var.0.bias f4 [128]
0.0909658 0.2795602 0.26400703 -0.12796794 -0.25936577 0.07441067 -0.23927918 -0.3200577
0.22309065 -0.2843921 0.36282286 -0.31612048 -0.2920915 0.19469516 0.012874176 -0.15688337
0.13710704 -0.23714583 -0.19963676 -0.33088464 -0.20058812 -0.29445678 0.33647916 -0.15682943
0.06833657 -0.13363151 -0.09350808 0.2528492 0.06766295 0.13979736 0.11335335 -0.3076418
0.2274839 0.29967108 0.11586933 0.28323728 -0.17782822 -0.2657631 -0.26242366 -0.05066498
-0.029858995 -0.17298308 -0.08270481 -0.13447966 0.3711736 -0.028895631 0.27030995 0.046390247
0.115516536 0.1657645 -0.33113176 -0.1558663 -0.26302177 0.3788396 0.12829001 -0.13018912
-0.28803176 0.17175125 0.06175027 -0.18295658 -0.2634341 -0.20009956 0.11937112 -0.2545109
-0.03416357 0.202745 0.1834014 0.038307305 0.0038029712 0.12793314 0.12765875 0.27117348
0.101623945 0.15618768 0.22819372 -0.23057579 -0.17293741 0.1861218 0.07669931 -0.20607905
0.08617379 -0.33185565 -0.15357861 0.1863951 -0.020148654 -0.23331013 0.18022029 0.033566132
-0.054818228 -0.34902668 -0.152692 0.03962068 -0.1883919 0.026268793 -0.28041333 0.25952935
0.25124952 0.23286459 -0.028921627 -0.34444067 -0.11369541 -0.008755026 -0.29962838 0.29485646
0.10370451 0.25398412 -0.32482928 -0.17411828 0.09743486 0.02304838 -0.18898872 0.26994202
0.14393264 -0.0059962235 0.31587598 -0.3274921 -0.26156422 0.05904326 0.34566748 0.19703375
-0.18831919 0.2704646 0.17677747 0.025742717 0.22392984 0.06232409 0.02047818 -0.09809407
00000000: 474c ba3d 8422 8f3e ee2b 873e 070a 03be
00000010: 97cb 84be 9f64 983d 9a05 75be 9ade a3be
00000020: e071 643e d79b 91be ebc3 b93e 8bda a1be
00000030: 048d 95be 2b5e 473e 35ee 523c 09a6 20be
00000040: ca65 0c3e 5bd6 72be 946d 4cbe b669 a9be
00000050: f966 4dbe 0ac3 96be ff46 ac3e e597 20be
00000060: 0bf4 8b3d b3d6 08be 2a81 bfbd 7375 813e
00000070: df92 8a3d 0a27 0f3e cd25 e83d 3a83 9dbe
00000080: 8af1 683e 7d6e 993e e64c ed3d 7a04 913e
00000090: 9a18 36be 1a12 88be 655c 86be 1586 4fbd
000000a0: da9a f4bc 7a22 31be 2461 a9bd 09b5 09be
000000b0: 770a be3e 88b6 ecbc 1166 8a3e b303 3e3d
000000c0: ef93 ec3d 2bbe 293e 1a8a a9be 6a9b 1fbe
000000d0: caaa 86be 44f7 c13e 755e 033e 4c50 05be
000000e0: e678 93be 8fdf 2f3e daed 7c3d f858 3bbe
000000f0: d6e0 86be e6e6 4cbe d978 f43d 414f 82be
00000100: 19ef 0bbd 639c 4f3e 94cd 3b3e 1fe8 1c3d
00000110: 453b 793b e800 033e fab8 023e 40d7 8a3e
00000120: 3720 d03d aaef 1f3e 9dab 693e 0f1c 6cbe
00000130: 8116 31be b796 3e3e 8714 9d3d 6306 53be
00000140: e27b b03d fce8 a9be b643 1dbe 5bde 3e3e
00000150: ca0e a5bc dae8 6ebe ab8b 383e a47c 093d
00000160: 1489 60bd a0b3 b2be 4b5b 1cbe 4b49 223d
00000170: cee9 40be a731 d73c 5692 8fbe 08e1 843e
00000180: c7a3 803e 0e74 6e3e 0ced ecbc 875a b0be
00000190: 24d9 e8bd 3e71 0fbc e468 99be 6df7 963e
000001a0: 0863 d43d 350a 823e 0650 a6be 104c 32be
000001b0: ee8b c73d f5cf bc3c 4286 41be d735 8a3e
000001c0: 1463 133e f87b c4bb 7fba a13e 0bad a7be
000001d0: bfeb 85be 58d7 713d 54fb b03e 37c3 493e
000001e0: bfd6 40be 567a 8a3e 2705 353e 64e2 d23c
000001f0: dd4d 653e 8c47 7f3d dbc1 a73c 8be5 c8bd

fc_var.2.weight f4 [64, 128]
-0.06659623 -0.07931744 -0.039336186 -0.080370225 -0.0005251222 0.0068172393 -0.10128145 -0.09376668
0.028721968 -0.07254419 -0.0245645 -0.084411226 -0.04903686 0.013642263 0.0025493891 0.023156026
-0.037604988 -0.102593504 -0.02711105 0.023276672 -0.0057612373 -0.006505139 -0.010842438 0.04113451
0.013489271 -0.040015087 -0.061790984 0.03215027 -0.0767864 -0.087786086 0.005298227 -0.08527779
-0.10787408 -0.094271414 -0.010469218 -0.07957926 0.039996337 -0.025878208 -0.067326725 -0.08643869
-0.054709923 0.052122124 -0.084053285 -0.09801787 -0.002255096 0.013306955 -0.09292016 -0.06565424
0.043581754 -0.06890469 0.0077475226 -0.07799172 -0.11394043 -0.11037144 0.049307726 -0.00044383618
-0.0031952185 0.0035117255 0.014002712 0.030046085 0.0474466 0.044010203 0.0018691274 -0.009412402
-0.008910452 -0.099830635 0.0035841668 0.0055775954 0.01010643 -0.05664543 0.036351345 -0.019037096
-0.047224056 -0.028166445 -0.06321514 -0.042989362 0.047458563 -0.0024650441 -0.028861893 -0.03351612
-0.0077859717 -0.0704414 -0.0869607 0.04739951 -0.028619964 0.0029477074 -0.054483764 -0.07887682
-0.018426932 0.02638938 -0.10607471 -0.12233832 -0.05132563 0.03216074 -0.11132582 0.039469086
0.06469435 -0.056701858 -0.021492463 -0.039276306 0.059345104 -0.014711477 -0.0055734306 -0.05975487
-0.036709283 -0.07717777 -0.029759306 -0.022679325 -0.0063698124 -0.006690739 -0.10342386 0.031033158
0.028087426 0.041139856 0.04044035 -0.015445499 0.037717715 0.013742581 0.023624884 -0.08894413
0.0078499 -0.016950412 0.0009203823 0.006721518 -0.08696271 -0.06688241 -0.08829538 -0.04845893
0.021735528 0.0053028646 0.0650788 -0.06928536 0.027575748 0.07523595 -0.07904498 -0.08290211
0.014995045 -0.045330983 0.015475132 -0.054326296 0.002087389 -0.07544176 0.07518838 -0.056832038
-0.08881305 -0.068940714 0.009113425 0.07652462 0.011139867 -0.021773722 -0.059808828 0.053830415
0.001558675 -0.020211646 -0.027864326 0.013286776 0.05652598 -0.044607937 -0.028994257 0.045463137
-0.05382015 -0.0026957197 0.06266609 0.06920238 -0.07557811 -0.06432587 0.0021420706 0.06410577
-0.036613706 -0.08245585 0.0067413696 0.040919725 -0.0517919 -0.07142679 -0.005950589 0.07029272
-0.08511995 0.005051516 0.03926432 -0.0037160986 -0.039456323 -0.03894433 -0.05953753 0.010673379
-0.037852313 -0.009588758 -0.005273692 -0.07388991 0.07712454 0.025757419 0.04404744 0.041257493
0.04366924 -0.03248325 -0.0184221 -0.052460153 -0.07982119 -0.06561248 -0.02962511 0.07217562
-0.08743602 -0.058994453 -0.07371076 -0.063768536 0.072353974 -0.074482575 -0.061631143 -0.061600164
0.0042814934 -0.04490536 -0.0715103 0.07384011 0.023861507 -0.072690144 -0.04292378 0.037101466
0.02025409 -0.066936724 -0.061413016 -0.039861206 0.028406905 -0.07383904 0.08911369 0.011461298
0.030811831 0.021150839 0.061691802 -0.023993766 -0.029453875 -0.075705044 0.068894096 -0.026025899
-0.0021411397 0.083635636 -0.027020523 -0.036530323 -0.033566535 0.040714398 -0.006605237 -0.060741868
0.0571201 0.018002726 -0.03877755 0.023469627 -0.076112576 -0.07232706 -0.049549785 0.05635083
-0.011537954 0.0626668 -0.08603918 0.0726744 -0.08921665 -0.026815822 0.07162793 -0.040831003
00000000: 9b63 88bd 2f71 a2bd fb1e 21bd 2599 a4bd
00000010: 5ba8 09ba 2663 df3b a66c cfbd bf08 c0bd
00000020: 554a eb3c 0c92 94bd 7e3b c9bc cbdf acbd
00000030: e0da 48bd cc83 5f3c a713 273b b5b1 bd3c
00000040: b007 1abd 8b1c d2bd fe17 debc b8ae be3c
00000050: c3c8 bcbb 1029 d5bb 7ba4 31bc a97c 283d
00000060: 1a02 5d3c dce6 23bd 8b18 7dbd 00b0 033d
00000070: 3042 9dbd 31c9 b3bd c09c ad3b 1fa6 aebd
00000080: 16ed dcbd 5f11 c1bd 1587 2bbc 73fa a2bd
00000090: 33d3 233d 89fe d3bc 98e2 89bd c506 b1bd
000000a0: 8317 60bd 027e 553d 2124 acbd 98bd c8bd
000000b0: 3cca 13bb 6a05 5a3c ed4c bebd bb75 86bd
000000c0: c882 323d e71d 8dbd eede fd3b 1fba 9fbd
000000d0: 9a59 e9bd 6c0a e2bd e6f6 493d afb2 e8b9
000000e0: df66 51bb fa24 663b a26b 653c 3523 f63c
000000f0: 5e57 423d 0b44 343d 82fd f43a 7a36 1abc
00000100: 25fd 11bc 0174 ccbd 57e4 6a3b 43c4 b63b
00000110: 7195 253c 0a05 68bd 26e5 143d aff3 9bbc
00000120: 036e 41bd 51bd e6bc f076 81bd 9d15 30bd
00000130: e963 423d 948c 21bb c76f ecbc 3348 09bd
00000140: 7721 ffbb 9543 90bd 7418 b2bd fd25 423d
00000150: 6a74 eabc 532e 413b 5e2a 5fbd 2c8a a1bd
00000160: 14f4 96bc 8b2e d83c b33d d9bd 838c fabd
00000170: d33a 52bd fbba 033d cbfe e3bd 56aa 213d
00000180: 797e 843d 3540 68bd f610 b0bc 31e0 20bd
00000190: da13 733d 6808 71bc 53a1 b6bb 86c1 74bd
000001a0: 795c 16bd 610f 9ebd cac9 f3bc fec9 b9bc
000001b0: dcb9 d0bb fd3d dbbb e4cf d3bd 4039 fe3c
000001c0: 9a17 e63c 4482 283d c8a4 253d 1e0f 7dbc
000001d0: e47d 1a3d 9028 613c f988 c13c 5728 b6bd
000001e0: de9c 003c 97db 8abc d045 713a 2e40 dc3b
000001f0: 8119 b2bd a5f9 88bd 35d4 b4bd df7c 46bd
00000200: b50e b23c a7c3 ad3b 0948 853d 7ce5 8dbd
00000210: 89e6 e13c 4e15 9a3d 56e2 a1bd 95c8 a9bd
00000220: c7ad 753c fbac 39bd 688b 7d3c 4085 5ebd
00000230: 93cc 083b 3681 9abd 5efc 993d b6c8 68bd
00000240: 9ee3 b5bd ca30 8dbd 7a50 153c f1b8 9c3d
00000250: fd83 363c ce5e b2bc 1afa 74bd 487d 5c3d
00000260: 744c cc3a e592 a5bc ba43 e4bc c7b0 593c
00000270: c987 673d d0b6 36bd 5d85 edbc 8e37 3a3d
00000280: 8572 5cbd acaa 30bb 1457 803d fab9 8d3d
00000290: b2c8 9abd 48bd 83bd fb61 0c3b e349 833d
000002a0: 41f8 15bd 9dde a8bd b5e6 dc3b 719b 273d
000002b0: be23 54bd 3548 92bd 29fd c2bb a1f5 8f3d
000002c0: 5e53 aebd 3087 a53b a0d3 203d ca89 73bb
000002d0: f49c 21bd 1784 1fbd a0dd 73bd 65df 2e3c
000002e0: 070b 1bbd 2b1a 1dbc efce acbb 9853 97bd
000002f0: 79f3 9d3d 3901 d33c 176b 343d 9efd 283d
00000300: 84de 323d 280d 05bd f2e9 96bc 75e0 56bd
00000310: 4b79 a3bd d65f 86bd 5cb0 f2bc d0d0 933d
00000320: a811 b3bd 2ba4 71bd abf5 96bd 1499 82bd
00000330: 522e 943d 528a 98bd f070 7cbd 7450 7cbd
00000340: c54b 8c3b afee 37bd fe73 92bd 7c39 973d
00000350: 3579 c33c 92de 94bd d8d0 2fbd b5f7 173d
00000360: e8eb a53c 1f16 89bd 378c 7bbd 8145 23bd
00000370: 99b5 e83c ec38 97bd 3d81 b63d 2bc8 3b3c
00000380: 1869 fc3c 8644 ad3c 8bb0 7c3d 938e c4bc
00000390: 4149 f1bc 3f0b 9bbd 5918 8d3d 4434 d5bc
000003a0: 5d52 0cbb 2949 ab3d 255a ddbc d2a0 15bd
000003b0: 107d 09bd 24c4 263d be70 d8bb 77cc 78bd
000003c0: c4f6 693d 747a 933c 35d5 1ebd 6043 c03c
000003d0: e9e0 9bbd 3620 94bd b7f4 4abd 21d0 663d
000003e0: b009 3dbc 7457 803d 4f35 b0bd 51d6 943d
000003f0: 38b7 b6bd dbac dbbc aab1 923d 693e 27bd

fc_var.2.bias f4 [64]
-0.001984696 0.08148033 -0.097325794 -0.031463183 -0.08641071 0.00562232 -0.06457357 -0.025059141
0.07581379 -0.031553093 0.019708838 0.05995079 0.059022833 0.07279714 0.06027032 -0.0053386
0.060113057 0.090188585 -0.07804583 0.010982936 0.070199005 -0.06265644 0.037659615 0.040358946
-0.004113292 -0.042617135 -0.020599976 0.062405214 -0.07096291 0.03235237 -0.053776313 0.0561182
-0.02329075 0.028118247 0.0571069 -0.01977881 -0.004102396 0.09214074 0.07326993 0.046470016
-0.030308768 0.0076820394 -0.053423263 0.04975315 0.0260081 0.06476152 -0.058323096 0.013511068
0.03313241 -0.02753595 0.010212889 0.02482348 -0.016680785 0.07330455 -0.08907331 -0.018069122
-0.036121093 0.05968432 -0.025556738 -0.025265137 0.08585083 -0.08667915 -0.011912096 0.07784159
00000000: ac11 02bb 29df a63d bf52 c7bd 8adf 00bd
00000010: 19f8 b0bd 703b b83b 263f 84bd d448 cdbc
00000020: 4344 9b3d d13d 01bd 6e74 a13c f68e 753d
00000030: edc1 713d ab16 953d 03de 763d 6cef aebb
00000040: 1c39 763d cbb4 b83d 7ed6 9fbd c6f1 333c
00000050: 7fc4 8f3d 0552 80bd f840 1a3d 6c4f 253d
00000060: cbc8 86bb 4e8f 2ebd 48c1 a8bc 9c9c 7f3d
00000070: 0155 91bd eb83 043d 8d44 5cbd 33dc 653d
00000080: 3ecc bebc 3d58 e63c ede8 693d 2c07 a2bc
00000090: 646d 86bb 49b4 bc3d 8c0e 963d 5857 3e3d
000000a0: 184a f8bc 9eb9 fb3b 5ad2 5abd f6c9 4b3d
000000b0: f00e d53c b0a1 843d 33e4 6ebd 875d 5d3c
000000c0: dab5 073d 1393 e1bc f653 273c 9c5a cb3c
000000d0: 24a6 88bc b220 963d 116c b6bd b205 94bc
000000e0: b6f3 13bd 8c77 743d 5d5c d1bc d5f8 cebc
000000f0: 8fd2 af3d d784 b1bd f42a 43bc 696b 9f3d

fc_var.4.weight f4 [32, 64]
0.08727993 -0.040725447 -0.023761187 -0.0627003 0.02661999 0.017624969 0.08283079 0.04608473
0.06104959 -0.036681034 -0.09456605 0.06329476 -0.0012480104 -0.09284096 0.0014519535 0.116177104
-0.016119024 -0.10535008 0.07065508 0.08263844 -0.090409815 -0.11799801 -0.09881332 0.0527019
-0.06300077 -0.13177086 -0.016270174 -0.06365861 -0.054530244 -0.051189758 -0.04190987 -0.08938594
-0.033074874 -0.09137051 -0.020014634 -0.08051364 0.00019986545 0.083149016 -0.056282014 -0.03060859
-0.017276904 -0.04669843 -0.089079 0.027346555 -0.024796857 0.0010697755 -0.039779615 -0.08097109
-0.054340318 0.048410866 0.07015965 -0.056659814 0.050816607 -0.07253158 -0.02022299 -0.11607514
-0.022010045 0.029683307 0.07106917 0.033282075 0.051509008 -0.037810836 0.11398307 -0.107794054
-0.034222994 -0.025932077 0.084869415 0.03461676 0.13104656 -0.11674475 0.049634367 -0.11197984
0.045043312 -0.07227037 -0.070369534 0.018434463 0.027143415 0.10522965 0.084848 -0.007409721
0.041941416 0.035625566 -0.04647809 -0.10552954 -0.106895074 -0.0004481353 -0.05084655 0.11191446
-0.07200671 0.019109288 -0.060710557 0.11268813 0.035984274 0.07376072 0.036203634 -0.025729872
-0.038778003 -0.07860329 -0.10209438 -0.021394787 -0.049541622 0.13074245 0.09908842 -0.097086616
0.012173096 -0.09568782 0.06555352 0.094575875 -0.09295188 -0.09022864 -0.029289626 0.08078519
0.08829443 -0.09208196 -0.0017534094 -0.12605684 0.10151981 0.068413 -0.063303515 0.042983957
0.01344087 -0.07155102 -0.10290113 0.0678261 -0.08204249 0.06673266 -0.03137133 0.07587263
0.027367905 0.052044146 -0.07697141 0.020432582 -0.008440989 -0.002456916 -0.038719162 -0.016243875
0.039743017 0.06578058 -0.05520165 -0.034969687 -0.07102631 -0.06283388 0.025219562 0.09489254
0.024558766 -0.06597315 0.045022313 0.1045329 -0.00025607183 0.0846269 0.013144077 -0.061772868
0.019592881 0.01342285 0.009216063 -0.055557113 -0.104647115 -0.14874734 -0.11428038 0.039514937
-0.05985788 -0.11753514 0.06369422 -0.14962345 -0.010557002 0.047432527 -0.075330436 -0.022366881
0.10131371 0.06838868 0.054254353 -0.057326093 0.045606326 0.027491547 -0.025145479 0.09459166
-0.0026690871 0.078642644 -0.12072902 0.03838782 -0.13107958 -0.018676879 0.0043017524 0.052152727
0.023701156 -0.08351949 0.023689907 -0.14136529 0.05665722 0.040625952 -0.049569763 0.003965194
0.06046896 -0.114187896 0.06677517 0.04654023 0.12610249 -0.051061984 0.02086127 0.0050662155
0.10149131 -0.13819608 0.040578704 0.070557795 0.009239618 -0.112854585 0.07316137 0.04722906
-0.026104875 0.02484548 -0.06141592 -0.0816764 0.11037699 0.02582293 -0.0027017968 0.07309517
0.057346344 0.035085786 0.043004546 -0.10506949 -0.08509361 0.10558474 0.036561348 0.021928528
-0.08293324 -0.090041354 -0.04712094 0.05445484 -0.05601981 0.12241774 -0.12118463 -0.050674334
0.102086276 -0.04966667 -0.0023629065 -0.03793919 0.016226739 -0.07074837 -0.097881414 -0.07324934
0.047576822 -0.08460367 -0.11637292 -0.0754679 -0.08161646 0.12033814 -0.042562127 0.027977841
0.11924762 -0.09093928 0.06604434 -0.004185643 0.10915123 -0.023528928 0.028154295 -0.12525795
00000000: d2bf b23d bacf 26bd d2a6 c2bc 0469 80bd
00000010: 2a12 da3c 3d62 903c 30a3 a93d 58c3 3c3d
00000020: 230f 7a3d da3e 16bd d8ab c1bd afa0 813d
00000030: 4894 a3ba 6723 bebd 7a4f be3a 43ee ed3d
00000040: 0b0c 84bc c8c1 d7bd 9cb3 903d 583e a93d
00000050: c828 b9bd f1a8 f1bd a35e cabd f3dd 573d
00000060: 8c06 81bd f1ee 06be 0749 85bc 725f 82bd
00000070: 1b5b 5fbd 5aac 51bd afa9 2bbd fa0f b7bd
00000080: 8579 07bd 7620 bbbd bbf5 a3bc 56e4 a4bd
00000090: f992 5139 084a aa3d f887 66bd debe fabc
000000a0: 4b88 8dbc da46 3fbd 0d6f b6bd e205 e03c
000000b0: c722 cbbc b637 8c3a f3ef 22bd 2cd4 a5bd
000000c0: f493 5ebd 794a 463d ddaf 8f3d 1f14 68bd
000000d0: 1325 503d 708b 94bd afaa a5bc ceb8 edbd
000000e0: 694e b4bc 682a f33c b78c 913d c952 083d
000000f0: 1cfb 523d 89df 1abd f56f e93d 21c3 dcbd
00000100: 692d 0cbd 826f d4bc 04d0 ad3d 4eca 0d3d
00000110: 1231 063e df17 efbd 684d 4b3d b055 e5bd
00000120: 567f 383d 7d02 94bd e71d 90bd df03 973c
00000130: de5b de3c a582 d73d cac4 ad3d 3fcd f2bb
00000140: c3ca 2b3d 1dec 113d cf5f 3ebd df1f d8bd
00000150: ceeb dabd b4f3 eab9 7944 50bd 6933 e53d
00000160: 4178 93bd 158b 9c3c a2ab 78bd 09c9 e63d
00000170: 3f64 133d dc0f 973d 434a 143d 74c7 d2bc
00000180: afd5 1ebd c3fa a0bd dc16 d1bd 1f44 afbc
00000190: 28ec 4abd 59e1 053e dfee ca3d 59d5 c6bd
000001a0: aa71 473c faf7 c3bd ed40 863d ffb0 c13d
000001b0: 8e5d bebd cbc9 b8bd ccf0 efbc b572 a53d
000001c0: b6d3 b43d 7795 bcbd a8d2 e5ba 0b15 01be
000001d0: 9ee9 cf3d 1d1c 8c3d 46a5 81bd f20f 303d
000001e0: 1837 5c3c 5789 92bd d4bd d2bd 69e8 8a3d
000001f0: e505 a8bd 22ab 883d 397f 00bd 1c63 9b3d
00000200: a832 e03c 3e2c 553d 30a3 9dbd 3b62 a73c
00000210: 134c 0abc 3604 21bb fc97 1ebd e011 85bc
00000220: 93c9 223d f8b7 863d 201b 62bd 603c 0fbd
00000230: 3e76 91bd 0daf 80bd 4199 ce3c 0557 c23d
00000240: 772f c93c ee1c 87bd 5169 383d 5815 d63d
00000250: 6141 86b9 de50 ad3d 415a 573c 8c05 7dbd
00000260: 4081 a03c 83eb 5b3c f8fe 163c db8f 63bd
00000270: 3a51 d6bd 3951 18be d50b eabd 6ada 213d
00000280: 892d 75bd 43b6 f0bd 1d72 823d e436 19be
00000290: 47f7 2cbc 9c48 423d d846 9abd c03a b7bc
000002a0: 907d cf3d 5d0f 8c3d d039 5e3d c4ce 6abd
000002b0: b3cd 3a3d f435 e13c e4fd cdbc 46b9 c13d
000002c0: daeb 2ebb 650f a13d c740 f7bd 8c3c 1d3d
000002d0: ba39 06be 4100 99bc b7f5 8c3b 199e 553d
000002e0: ed28 c23c 440c abbd 5611 c23c 10c2 10be
000002f0: 6711 683d 6667 263d aa09 4bbd 75ee 813b
00000300: 4dae 773d 58db e9bd 6cc1 883d f8a0 3e3d
00000310: 0321 013e 5f26 51bd 41e5 aa3c 7f02 a63b
00000320: adda cf3d 4683 0dbe db35 263d 9b80 903d
00000330: c461 173c 4e20 e7bd a1d5 953d 4273 413d
00000340: e4d9 d5bc c088 cb3c 428f 7bbd f545 a7bd
00000350: 550d e23d 9c8a d33c a110 31bb ecb2 953d
00000360: 00e4 6a3d 1db6 0f3d 8925 303d ac2e d7bd
00000370: 8f45 aebd d03c d83d 5ac1 153d 75a3 b33c
00000380: e7d8 a9bd 9a67 b8bd e301 41bd 0a0c 5f3d
00000390: 0775 65bd 27b6 fa3d a62f f8bd e48f 4fbd
000003a0: 9c12 d13d 476f 4bbd feda 1abb 2066 1bbd
000003b0: f0ed 843c 85e4 90bd 0d76 c8bd c003 96bd
000003c0: eadf 423d b044 adbd ed54 eebd ea8e 9abd
000003d0: 8826 a7bd d873 f63d a055 2ebd c931 e53c
000003e0: 1938 f43d 603e babd 4142 873d b827 89bb
000003f0: ae8a df3d bdbf c0bc d6a3 e63c 9f43 00be

fc_var.4.bias f4 [32]
0.023341734 0.024207082 0.06753338 -0.06296684 0.0935854 -0.114524074 0.05265839 -0.07479754
-0.087840416 0.09037789 0.076260835 0.0073197656 -0.017126845 -0.090240344 -0.09693034 -0.020122059
-0.014659278 0.09309409 0.01975518 -0.05320308 0.04556445 -0.098653845 0.026599022 0.06027027
-0.055708557 0.019607013 -0.10000165 0.10418202 0.102950275 0.098240465 0.02827471 0.051705297
00000000: 2a37 bf3c ee4d c63c f14e 8a3d c2f4 80bd
00000010: b4a9 bf3d 998b eabd 53b0 573d 742f 99bd
00000020: ade5 b3bd 0b18 b93d a42e 9c3d a5da ef3b
00000030: 994d 8cbc eecf b8bd 6a83 c6bd 04d7 a4bc
00000040: 782d 70bc 1da8 be3d 9ed5 a13c 79eb 59bd
00000050: caa1 3a3d 070b cabd 31e6 d93c f5dd 763d
00000060: a82e 64bd e39e a03c aacd ccbd 625d d53d
00000070: 98d7 d23d 4c32 c93d 5da0 e73c efc8 533d
