dc_ids_known_traffic_classification.pth (torch, 364779 bytes, 32 tensors)

fc_mu.0.weight f4 [128, 8]
0	0x3ebd5614	0.36979735
1	0x3f028787	0.5098805
2	0xbda9a1a4	-0.08282784
3	0x3e81c0df	0.2534246
4	0xbd6e139c	-0.05812417
5	0x3d991fe2	0.07476784
6	0xbe1ad005	-0.15118416
7	0x3e549e7a	0.20763579
8	0x3e9e6a0f	0.3094029
9	0xbe8f8c3e	-0.28036684
10	0x3e9d5761	0.30730727
11	0x3c92894b	0.017887732
12	0x3e72b875	0.23703177
13	0x3ddd4cdc	0.108056754
14	0x3d8c22dc	0.068425864
15	0xbd4c7768	-0.049918562
16	0x3ec1e2c3	0.37868318
17	0x3e7b9531	0.24568631
18	0xbe29039c	-0.16505283
19	0x3d92b677	0.07163709
20	0xbe145009	-0.14483656
21	0xbc4c0cf8	-0.012454264
22	0xbddc05d0	-0.10743296
23	0x3e702a7a	0.23453704
24	0xbe95dbe2	-0.2926932
25	0xbe0327d8	-0.12808168
26	0xbdcc760c	-0.09983453
27	0xbe61b710	-0.22042489
28	0x3c729737	0.01480656
29	0xbea109b0	-0.31452703
30	0x3e9165f9	0.2839811
31	0xbe99c52a	-0.30033237
32	0x3ea9a510	0.33133745
33	0x3e7ced64	0.24699932
34	0xbdeb1c76	-0.11480038
35	0x3e2f0626	0.17092189
36	0x3d6b6fb5	0.05747958
37	0x3e9c0452	0.30472046
38	0x3d77317a	0.06034992
39	0xbde45ac6	-0.11150126
40	0x3e1bcf2a	0.15215746
41	0x3e14a797	0.14517055
42	0x3e185de2	0.14879563
43	0x3e82ef13	0.25573024
44	0x3e1a195d	0.15048738
45	0xbe012fd2	-0.12615898
46	0x3e3ad3d4	0.18244869
47	0x3d818e70	0.06325996
48	0x3e50f91b	0.20407526
49	0xbdf88507	-0.12134748
50	0xbeb3314c	-0.34998548
51	0xbe10f0a7	-0.14154302
52	0xbe65c034	-0.22436601
53	0x3e86b6ec	0.26311433
54	0x3dbf22e8	0.0933283
55	0x3e15f618	0.14644659
56	0x3e740628	0.23830473
57	0x3e843389	0.25820568
58	0x3e8daacf	0.2766938
59	0xbe777d3a	-0.24168864
60	0x3cd47d31	0.025938602
61	0xbe40b5e8	-0.18819392
62	0x3dd614db	0.104531966
63	0xbdf95c02	-0.12175752
64	0x3e298267	0.16553651
65	0x3d14ad75	0.036298234
66	0x3e9622cf	0.29323432
67	0xbe4d17a0	-0.20028543
68	0xbe48f75b	-0.19625609
69	0xbe2c47e0	-0.16824293
70	0x3e8e0e9f	0.2774553
71	0x3df14cb0	0.11782205
72	0x3e9596c3	0.29216585
73	0xbf0b07d0	-0.54308796
74	0xbeb38c7b	-0.35068116
75	0xbe9527aa	-0.29131824
76	0xbe61d45f	-0.2205367
77	0x3e15b7d0	0.146209
78	0x3d88a96b	0.06672939
79	0x3e9669d3	0.29377612
80	0xbe331444	-0.174882
81	0xbe3d20f7	-0.18469606
82	0x3e4016fe	0.18758771
83	0xbe050a93	-0.12992315
84	0x3e5fc0a2	0.21850827
85	0xbdb141ad	-0.08655105
86	0x3e2d3cdc	0.16917747
87	0xbe8ca56f	-0.27469966
88	0xbbaab39b	-0.005209399
89	0x3ea9b83c	0.33148372
90	0x3d991350	0.07474387
91	0xbe0299d0	-0.12753987
92	0x3e40f928	0.18845046
93	0x3e640a42	0.22269538
94	0xbe74a398	-0.23890531
95	0xbe4147eb	-0.18875091
96	0x3ed67d7c	0.41892612
97	0x3dd0f4e9	0.10202963
98	0xbe005940	-0.12534046
99	0xbea8ff14	-0.3300711
100	0xbe43c898	-0.19119489
101	0x3db264e9	0.08710653
102	0xbd231c56	-0.039821945
103	0xbe83663f	-0.25663945
104	0xbdd9c7a8	-0.106337845
105	0xbec6b5e2	-0.3881064
106	0xbe999382	-0.29995352
107	0xbe3f643d	-0.18690582
108	0xbe952a4d	-0.29133835
109	0xbe30e2d4	-0.17274028
110	0x3e92e9cc	0.28693998
111	0x3d88c294	0.06677738
112	0x3d3704c8	0.044682294
113	0xbebfc1aa	-0.3745244
114	0xbe6dc70b	-0.2322046
115	0xbe1348cc	-0.14383239
116	0x3db3e668	0.08784181
117	0xbe89a6a1	-0.2688494
118	0xbe2d979b	-0.16952364
119	0xbe58bdbd	-0.2116613
120	0x3d8626d8	0.065503776
121	0xbd2bdf11	-0.04196078
122	0xbcc8b3b0	-0.024499744
123	0xbe2b0b7c	-0.167036
124	0xbe5776df	-0.2104144
125	0xbe00bcbe	-0.12572
126	0xbd8b9b88	-0.068167746
127	0xbe8ee006	-0.2790529
128	0x3eae94c1	0.34097865
129	0x3dc4caea	0.09609015
130	0x3e9bbf9b	0.3041962
131	0x3d9145d2	0.07093395
132	0xbe8b4bd1	-0.2720628
133	0x3e5d45d9	0.21608676
134	0xbd8fdd81	-0.070246704
135	0xbe0ac763	-0.13552622
136	0xbed8a402	-0.42312628
137	0xbf04883a	-0.51770365
138	0x3dcf2a8c	0.10115537
139	0xbd6a3f57	-0.05718931
140	0x3e2a2dfb	0.16619103
141	0xbe88d22e	-0.26722854
142	0x3e7c13de	0.24616954
143	0xbe84e0bf	-0.25952718
144	0x3d19967f	0.03749704
145	0x3e3c7644	0.1840449
146	0x3e3ae732	0.18252257
147	0x3e656f2b	0.22405688
148	0x3e91361f	0.28361604
149	0xbe759059	-0.23980846
150	0x3da77b8d	0.08177862
151	0xbe1bb8e4	-0.15207249
152	0x3da56501	0.080759056
153	0xbcae2333	-0.021257019
154	0x3ea4e20d	0.32203713
155	0xbe7bacf2	-0.24577692
156	0x3e3326ec	0.17495316
157	0x3d98577b	0.074385606
158	0x3e2ba85d	0.16763444
159	0xbe43bc1e	-0.1911473
160	0x3ed698fc	0.41913593
161	0x3ea3a042	0.31958205
162	0x3d3a4a68	0.045481116
163	0xbead2f5e	-0.338252
164	0x3dede2e0	0.116155386
165	0xbd914543	-0.07093289
166	0xbe1057ea	-0.14096037
167	0x3e9b7c67	0.3036835
168	0xbda7c951	-0.08192695
169	0xbedf43df	-0.4360647
170	0xbe373deb	-0.17894714
171	0xbced704c	-0.028984211
172	0x3e6fafcb	0.23406903
173	0xbde01bfa	-0.10942836
174	0xbe7274fa	-0.23677436
175	0xbdf7f482	-0.12107183
176	0xbda7f1d3	-0.08200421
177	0x3e9da968	0.3079331
178	0x3e8c1dc3	0.27366456
179	0xbe98e834	-0.29864657
180	0x3e04a935	0.12955172
181	0x3e391d3e	0.18077561
182	0x3da7ed80	0.081995964
183	0xbe00ee4f	-0.12590908
184	0x3ea8a80f	0.3294072
185	0x3ecdaac0	0.40169334
186	0x3e07604a	0.13220325
187	0xbda18d19	-0.0788824
188	0xbda3e08d	-0.08001814
189	0x3d5ce246	0.05392673
190	0xbd06bde3	-0.032895934
191	0xbdd7c69c	-0.105359286
192	0x3ebdf400	0.3710022
193	0x3f0dfd10	0.5546427
194	0xbd0f5d10	-0.03500086
195	0xbd94abf3	-0.07259359
196	0x3d803661	0.06260372
197	0xbc201a74	-0.009771932
198	0x3df8eda7	0.121547036
199	0x3dcae92c	0.09907755
200	0xbeaf7a0c	-0.34272802
201	0xbe46de76	-0.194208
202	0x3e987115	0.29773775
203	0x3e182204	0.14856726
204	0x3d5528bf	0.05204081
205	0xbe10270f	-0.140774
206	0xbe43e77c	-0.19131273
207	0xbea226b0	-0.3167014
208	0xbd6fb6fa	-0.05852411
209	0x3e28f5b2	0.16499975
210	0x3e66d7fa	0.22543326
211	0x3e0cdf2c	0.13757008
212	0xbe842373	-0.25808296
213	0xbe06aa9f	-0.13151024
214	0xbc8104d9	-0.015749382
215	0x3eaf1be5	0.3420097
216	0x3e20cb49	0.15702547
217	0x3dbe646c	0.09296498
218	0x3e15c7ea	0.14627042
219	0xbe08f3f8	-0.13374317
220	0xbe46f0c9	-0.1942779
221	0x3e835ff5	0.25659147
222	0xbe187066	-0.14886627
223	0xbd912748	-0.070875704
224	0xbe94332c	-0.2894529
225	0x3e76fc1e	0.24119613
226	0x3e892583	0.26786432
227	0x3dc33caa	0.09533055
228	0xbe682fa8	-0.2267443
229	0xbe8903f2	-0.26760823
230	0xbe71ad62	-0.23601297
231	0x3e86fc75	0.26364484
232	0x3ea5035d	0.32229128
233	0x3ef624f7	0.48075077
234	0x3e3da942	0.18521598
235	0x3d94d856	0.07267825
236	0xbc1b5d71	-0.009482727
237	0xbe6d8d42	-0.23198417
238	0xbe7a045a	-0.24415722
239	0xbea950f2	-0.3306957
240	0x3e7d3bd8	0.2472986
241	0x3c74c774	0.014940131
242	0xbd91b8f0	-0.07115352
243	0xbe34f658	-0.17672098
244	0xbcefee6b	-0.029288491
245	0xbe5c659d	-0.21523137
246	0xbe1bbf9b	-0.1520981
247	0x3df02f2c	0.11727747
248	0x3cf4484e	0.029819634
249	0x3ebe3e37	0.3715684
250	0xbde84a54	-0.11342302
251	0xbe8bf816	-0.27337712
252	0xbbc338e5	-0.00595771
253	0xbe1bab4f	-0.15202068
254	0xbdd36473	-0.103218935
255	0xbeac5461	-0.33658126

fc_mu.0.bias f4 [128]
0	0x3e82670a	0.25469238
1	0xbcceb70b	-0.025233766
2	0x3e506f12	0.2035487
3	0xbe4f76e3	-0.20260195
4	0x3de61b6a	0.112356976
5	0xbe4f7732	-0.20260313
6	0x3e45eb5c	0.19328064
7	0xbe0e9712	-0.13924816
8	0xbdad4a71	-0.08461464
9	0xbe9a76a5	-0.30168644
10	0xbc5c0300	-0.01342845
11	0x3eae667e	0.3406257
12	0x3e4abd55	0.19798787
13	0xbe32f8eb	-0.17477767
14	0x3c515d41	0.012778581
15	0xbda8ba90	-0.08238709
16	0xbe7d41a7	-0.24732076
17	0x3e9bf759	0.3046215
18	0x3cb05378	0.021524176
19	0x3d2657a2	0.040610917
20	0xbddfd235	-0.10928766
21	0xbdf1d6cd	-0.11808548
22	0x3dc728c3	0.097245716
23	0x3e41e19b	0.18933718
24	0x3e2a9eab	0.1666209
25	0xbe10f60e	-0.14156362
26	0x3eb5fe0a	0.3554538
27	0xbd331c9f	-0.043728467
28	0xbe81c81a	-0.25347978
29	0xbdcc50a3	-0.09976318
30	0x3eaff3c1	0.34365657
31	0x3d15a900	0.036538124
32	0xbcd249dc	-0.025669985
33	0xbdc9cf77	-0.09854024
34	0xbca90c6f	-0.020635812
35	0xbe8efc55	-0.2792689
36	0xbe7e283a	-0.24820033
37	0x3e60d935	0.21957858
38	0x3e9fcbaa	0.3121007
39	0x3ea6b339	0.3255861
40	0xbe61bf9c	-0.2204575
41	0x3e590113	0.21191816
42	0xbe3d98dd	-0.18515344
43	0x3e86d818	0.2633674
44	0x3ea1f320	0.31630802
45	0x3e8f6fc5	0.2801496
46	0x3e89110e	0.26770824
47	0x3e7f10ef	0.24908803
48	0x3d853b5e	0.06505464
49	0x3e523361	0.20527412
50	0xbdf90ac7	-0.12160259
51	0x3e458bf0	0.19291663
52	0xbe1798bc	-0.14804357
53	0x3bee950c	0.0072809514
54	0xbe828e96	-0.2549941
55	0xbd1df036	-0.03855916
56	0xbe27529d	-0.16340108
57	0xbdc9c418	-0.09851855
58	0xbe539310	-0.20661569
59	0xbeada0d2	-0.3391176
60	0x3d670988	0.056405574
61	0x3e88bf77	0.26708576
62	0x3ec4690c	0.38361394
63	0x3e85cf22	0.26134592
64	0xbe12c8ae	-0.14334366
65	0xbe9baa4b	-0.3040336
66	0x3e39fa9f	0.1816201
67	0x3e3f5b79	0.18687238
68	0xbe890c82	-0.26767355
69	0x3e2778ed	0.16354723
70	0x3ea89ca1	0.32931998
71	0x3d45a0c5	0.048249025
72	0xbe44b3cf	-0.19209217
73	0x3ea87514	0.32901824
74	0x3e202a45	0.15641125
75	0x3e773a6d	0.24143381
76	0xbe12781b	-0.14303629
77	0x3e37ff7f	0.17968558
78	0xbe5ed916	-0.21762499
79	0x3ece9695	0.4034926
80	0xbe2ee0ad	-0.17077895
81	0x3e656e95	0.22405465
82	0x3da78ab7	0.08180755
83	0x3e09a7a7	0.1344286
84	0xbcadd876	-0.02122138
85	0x3e53d83f	0.2068796
86	0xbdf59ab6	-0.119923994
87	0xbe823758	-0.2543285
88	0xbe0e6284	-0.13904768
89	0x3e98ec1f	0.29867646
90	0xbd28e84a	-0.041237153
91	0x3de6c3fc	0.1126785
92	0xbdeb46eb	-0.11488136
93	0x3e8d3771	0.2758136
94	0x3e667c24	0.22508293
95	0x3e1c16f2	0.15243128
96	0xbe1fa2b1	-0.15589406
97	0xbe866990	-0.26252413
98	0x3d4d3e7d	0.05010842
99	0xbe5a1766	-0.21297988
100	0x3ea17f52	0.3154245
101	0xbea1bb86	-0.31588382
102	0x3e44a74c	0.19204444
103	0x3eb6d5c2	0.3570996
104	0x3e52ba24	0.2057882
105	0x3df10acf	0.1176964
106	0xbe8a132c	-0.26967752
107	0x3eadd05b	0.33948025
108	0xbcc496bd	-0.023997659
109	0xbe9a8461	-0.30179122
110	0x3ea3e92e	0.3201384
111	0xbded2695	-0.115796246
112	0xbcff6097	-0.031173987
113	0x3eb5042c	0.35354745
114	0xbe4a91c5	-0.19782169
115	0xbe69ed3e	-0.22844407
116	0x3d733e4a	0.059385575
117	0xbcc2cee7	-0.0237803
118	0x3d780561	0.060552005
119	0xbe791b35	-0.24326785
120	0x3cf7674f	0.030200629
121	0xbe184916	-0.1487163
122	0xbe255aa2	-0.16147855
123	0xbe9ab6df	-0.30217645
124	0x3e515276	0.20441613
125	0x3d950e70	0.07278144
126	0xbe88afc1	-0.2669659
127	0x3e8e153e	0.27750582

fc_mu.2.weight f4 [64, 128]
0	0x3dd1f29a	0.10251351
1	0x3ce75feb	0.02824398
2	0x3c138e1f	0.009006052
3	0xbc8b5a2b	-0.017010769
4	0x3e1576aa	0.14596048
5	0x3db18112	0.08667196
6	0xbd1299f2	-0.035791345
7	0x3df209eb	0.11818298
8	0x3ca3a0af	0.01997408
9	0x3d26a019	0.040680025
10	0x3d7c28cc	0.061562344
11	0x3e067bc2	0.13133147
12	0xbc9c8fbf	-0.019111512
13	0x3d6d98c9	0.058007035
14	0xbd6580c4	-0.056031004
15	0x3cc5b285	0.024132976
16	0xbc28af7a	-0.010295743
17	0xbd8d5a5e	-0.06902002
18	0x3c5c265f	0.013436883
19	0x3b80033e	0.0039066365
20	0x3d6f1d6d	0.058377672
21	0x3c2b2a41	0.010447086
22	0x3dfe6ea4	0.12423447
23	0x3dffea1e	0.12495826
24	0x3e065dd4	0.1312173
25	0x3c9dc777	0.019260151
26	0x3dbc10a4	0.091828614
27	0x3d24d393	0.040240835
28	0xbbc049a5	-0.005868154
29	0x3da757bb	0.0817103
30	0xbd3f26a9	-0.04666773
31	0xbd11e356	-0.035617195
32	0x3c5d8fff	0.013523101
33	0x3cb0ca1e	0.021580752
34	0x3d9d06a9	0.07667286
35	0xbcde3d36	-0.027128797
36	0x3d3d6cad	0.04624622
37	0x3da339f6	0.079700395
38	0x3bc684bf	0.006058305
39	0x3ddfbaca	0.10924299
40	0x3d204fbd	0.039138544
41	0xbdc4c608	-0.09608084
42	0xbc8c8751	-0.017154368
43	0xbdc8e19d	-0.09808657
44	0x3cf4a7d7	0.029865189
45	0xbcb11aa2	-0.021619145
46	0x3a84dcfa	0.0010136657
47	0x3ca13a75	0.019681195
48	0x3ca0744e	0.019586708
49	0x3d14a62c	0.036291286
50	0xbb497fa3	-0.0030746243
51	0x3dfabe9f	0.12243389
52	0xbbbc0fb6	-0.0057391776
53	0xbc4018fb	-0.011724706
54	0x3dab0959	0.08351392
55	0x3d0ff1ee	0.03514283
56	0x3da66789	0.081252165
57	0x3dde52ff	0.10855674
58	0x3dc90b70	0.09816635
59	0xbd4e738e	-0.05040317
60	0x3da9ab08	0.08284575
61	0x3e1c5a0f	0.1526873
62	0x3ca4570e	0.020061042
63	0x3e158e14	0.1460498
64	0x3d39aa09	0.045328174
65	0x3ce3e713	0.027820146
66	0x3dbd560b	0.09244927
67	0xbd202065	-0.039093394
68	0xbd08a77c	-0.03336285
69	0x3d8566cc	0.065137476
70	0x3db28cba	0.08718248
71	0xbdbb56fc	-0.0914745
72	0x3d90edde	0.070766196
73	0xbcddaba6	-0.027059387
74	0x3d50378d	0.050834227
75	0x3de2a611	0.11066831
76	0x3ded9345	0.11600355
77	0xbd49e95c	-0.049294814
78	0x3d40d348	0.047076494
79	0x3d99157f	0.07474803
80	0x3ced3c73	0.028959488
81	0x3d4a3398	0.04936561
82	0x3d95645e	0.07294534
83	0x3c381dd5	0.011237581
84	0x3d3ed400	0.046588898
85	0x3db84ba0	0.08998799
86	0x3c14741f	0.009060889
87	0x3e10f3cd	0.14155503
88	0xbcc0c3b5	-0.02353082
89	0xbc935a16	-0.017987292
90	0x3d9bb144	0.0760217
91	0xbd586d38	-0.052838534
92	0x3d406ed9	0.046980713
93	0x3c4d090b	0.012514363
94	0xbd38a4e6	-0.045079134
95	0x3c213e9c	0.009841587
96	0xbc62f5eb	-0.013852577
97	0x3cda5c77	0.026655419
98	0xbc805371	-0.015664788
99	0xbd8e7439	-0.069557615
100	0x3c9e10cf	0.019295124
101	0x3c165c50	0.009177282
102	0x3d45d271	0.048296396
103	0x3dd90581	0.10596753
104	0xbd170105	-0.036866207
105	0x3d88ac8d	0.066735364
106	0x3dc8fe96	0.098141834
107	0xbd18ec80	-0.03733492
108	0x3d613206	0.054979347
109	0x3de0058d	0.10938559
110	0xbc02697c	-0.00795972
111	0xbd4ee33d	-0.05050968
112	0x3dc6b31b	0.097021304
113	0x3deecac7	0.116597705
114	0x3cce2987	0.025166286
115	0x3d6786ec	0.056525156
116	0xbc28b508	-0.010297067
117	0xbd83a979	-0.06428809
118	0x3cb1ef57	0.021720571
119	0x3d982978	0.074297845
120	0x3b3ae772	0.00285193
121	0x3d36e081	0.044647697
122	0xbd370537	-0.044682708
123	0x3d215895	0.03939112
124	0x3d92764b	0.07151469
125	0x3d9bbfa3	0.07604911
126	0xbae208e4	-0.0017245081
127	0x3d12dd45	0.03585555
128	0xbdf0ad88	-0.117518485
129	0xbbd7a649	-0.006581102
130	0xbd3a8aab	-0.0455424
131	0xbceda159	-0.0290076
132	0xbdc12769	-0.09431345
133	0x3d46f3e8	0.04857245
134	0x3d859f84	0.06524566
135	0xbde8d661	-0.113690145
136	0x3ca17ba0	0.01971227
137	0x3d989051	0.07449401
138	0x3dd71479	0.10501952
139	0x3cc742f2	0.024323914
140	0x3d5a2b15	0.053263742
141	0xb94db9d9	-0.00019619557
142	0x3d9b79b5	0.07591573
143	0x3d90ae79	0.07064528
144	0xbdd071f0	-0.10177982
145	0xbc6f4624	-0.014604125
146	0x3c30df78	0.010795467
147	0x3d5b1a2d	0.05349176
148	0xbdcc507d	-0.099762894
149	0x3d2b8532	0.04187507
150	0xbc85e3bb	-0.016343942
151	0xbcec3c52	-0.028837357
152	0xbde570d0	-0.11203158
153	0x3daec173	0.08532991
154	0x3d6a4436	0.057193957
155	0xbd8f755a	-0.07004805
156	0x3cbbdc51	0.022932203
157	0xbd404ea4	-0.046949998
158	0x3c7a37f0	0.015272126
159	0x3d82fa8f	0.063954465
160	0x3cf21fc4	0.029556163
161	0xbd842f2d	-0.064543106
162	0x3ca095c5	0.019602666
163	0x3baaa74f	0.005207933
164	0xbd660d0b	-0.056164782
165	0x3bbbe285	0.0057337903
166	0xbda316cf	-0.07963335
167	0x3bcdfbc9	0.0062861186
168	0xbc52f62b	-0.012876074
169	0x3d600aed	0.05469792
170	0xbcad0766	-0.021121692
171	0x3d95cb9d	0.07314227
172	0xbe075d3a	-0.13219157
173	0xbd835de2	-0.06414391
174	0x3d65a115	0.056061823
175	0x3d1c984d	0.038231183
176	0xbdff97dc	-0.12480137
177	0xbc436b73	-0.011927473
178	0xbda50eba	-0.080594495
179	0xbc8dd73d	-0.017314548
180	0x3da4daed	0.08049569
181	0x3d02cdef	0.031934675
182	0xbdb23de6	-0.087032124
183	0x3ce4463b	0.02786552
184	0x3d78415f	0.060609218
185	0xbd048597	-0.032353964
186	0x3db23217	0.0870096
187	0xbcadf737	-0.021236045
188	0xbd15702f	-0.03648394
189	0xbdcbf388	-0.09958559
190	0xbd100d82	-0.035169132
191	0xbcb72d96	-0.022360604
192	0x3cd961fc	0.02653598
193	0xbd8ad6de	-0.06779264
194	0xbd6e7c7b	-0.058224183
195	0x3d912c3d	0.07088516
196	0xbdd4297d	-0.10359476
197	0xbd236e79	-0.039900277
198	0xbd2baafc	-0.04191111
199	0x3cae06fc	0.021243565
200	0x3c2e9fe2	0.010658236
201	0xbc81a3b5	-0.015825132
202	0x3dc2b360	0.09506869
203	0xbc931344	-0.017953523
204	0xbe049959	-0.12949122
205	0x3db3888a	0.08766277
206	0x3d50c599	0.050969694
207	0xbd86d230	-0.06583059
208	0xbd3b3398	-0.0457035
209	0x3ca2424f	0.019807009
210	0xbd6f646f	-0.05844539
211	0xbc5f5462	-0.013630958
212	0xbbb3fc1c	-0.0054927003
213	0xbdea14f7	-0.1142978
214	0xbbfe051a	-0.007752073
215	0xbdf68844	-0.12037709
216	0x3da9ddb7	0.08294242
217	0x3de15a53	0.11003556
218	0xbcedb8fb	-0.02901887
219	0x3e0eb7bb	0.13937275
220	0x3c85b1ae	0.016320076
221	0xbd3d7e09	-0.046262775
222	0x3cec9b1b	0.028882554
223	0x3d35b3fc	0.0443611
224	0x3da31dc7	0.07964664
225	0xbbc09d5a	-0.005878133
226	0x3e0255df	0.1272807
227	0x3d8965bf	0.0670886
228	0x3d2dc670	0.042425573
229	0xbd9ef19e	-0.077609286
230	0x3cba4787	0.022739185
231	0xbdb83d63	-0.089960836
232	0x3e0597ec	0.13046235
233	0xbb8bad90	-0.0042626336
234	0xbe070060	-0.13183737
235	0x3b798924	0.0038076127
236	0xbd2174e9	-0.039418135
237	0xbdcef1f9	-0.10104746
238	0xbd3ab1bb	-0.045579653
239	0x3ccf8cda	0.025335718
240	0x3d9e3b10	0.07726109
241	0xbd538c55	-0.051647503
242	0x3b7583e9	0.0037462658
243	0x3d03d023	0.032180917
244	0x3ce371df	0.027764259
245	0x3c807032	0.015678499
246	0xbd3507a1	-0.04419673
247	0xbdf26abf	-0.118367665
248	0xbcab2b39	-0.020894634
249	0xbd9ceb3e	-0.076620564
250	0xbd559727	-0.052146103
251	0x3d620078	0.05517623
252	0xbc81baac	-0.015836082
253	0xbd32863e	-0.043585055
254	0x3cf5738f	0.02996233
255	0x3be1ffde	0.006896957

fc_mu.2.bias f4 [64]
0	0x3d8ae108	0.067812026
1	0x3cd90ca8	0.026495293
2	0x3d89b2b2	0.067235366
3	0x3d20853e	0.03918957
4	0xbce7a0e9	-0.02827497
5	0x3ca3bbdf	0.019987045
6	0x3da802ac	0.082036346
7	0x3cae4937	0.021275146
8	0xbd3e8282	-0.04651118
9	0xbd4050c3	-0.04695202
10	0xbd89d394	-0.067298084
11	0x3963cfea	0.00021725861
12	0x3dd10284	0.10205558
13	0x3d39c766	0.045356177
14	0x3caa584b	0.020794054
15	0x3d343239	0.04399321
16	0xbd18be13	-0.037290644
17	0x3dcaa932	0.09895553
18	0x3d5e064c	0.054205224
19	0xbc80770a	-0.015681762
20	0xbd14d2bd	-0.03633379
21	0xbd7bccb1	-0.061474506
22	0xbc7a335f	-0.015271037
23	0x3dacdf9a	0.08441086
24	0x3c6a97e5	0.014318441
25	0xbc8fbc4f	-0.017545847
26	0x3c827708	0.0159259
27	0xbd48a02b	-0.048980873
28	0x3d9150af	0.07095467
29	0x3dca944b	0.09891566
30	0x3d3d3717	0.046195116
31	0xbc15a7be	-0.009134231
32	0xbd14604f	-0.03622466
33	0x3d861cb1	0.06548441
34	0x3d829995	0.0637695
35	0xbb816ebf	-0.0039499695
36	0x3c9e79ad	0.019345129
37	0x3cbea81f	0.023273526
38	0x3c39ed25	0.011348044
39	0xbda3778c	-0.07981786
40	0xbd5552fe	-0.0520811
41	0x3dd199e2	0.10234429
42	0xbd36729e	-0.0445429
43	0x3d8a4e11	0.06753171
44	0x3d950e3b	0.07278105
45	0x3b85d6d6	0.0040844483
46	0xbcbf579c	-0.023357205
47	0x3c8fdcb3	0.017561292
48	0xbd608c20	-0.054821134
49	0xbd02cb88	-0.031932384
50	0x3ded33cd	0.11582146
51	0xbd690ad3	-0.05689509
52	0x3c9f55c1	0.01945007
53	0xbd2e3e6d	-0.042540003
54	0x3cd538cb	0.026028058
55	0x3d04b187	0.032395866
56	0x3d7c5f5e	0.061614387
57	0xbc78b1f6	-0.015179148
58	0x3d1053e6	0.03523626
59	0x3c4f2223	0.012642416
60	0x3d5a90b8	0.05336067
61	0x3c7677d4	0.015043218
62	0xbc38bae8	-0.011275031
63	0x3d8a48d7	0.06752174

fc_mu.4.weight f4 [32, 64]
0	0xbd59cacf	-0.05317193
1	0x3d1cb258	0.03825602
2	0xbdc86be0	-0.097862005
3	0xbdf53eae	-0.11974846
4	0x3dfcb52e	0.12339245
5	0xbd47294a	-0.04862336
6	0xbdb97141	-0.090548046
7	0xbdba0985	-0.09083847
8	0x3df7b349	0.12094743
9	0xbc21316e	-0.009838445
10	0xbdcbec31	-0.09957159
11	0xbbc93f3a	-0.0061415704
12	0xbd6bee67	-0.057600405
13	0xbd9c91ac	-0.07644972
14	0xbd6390f0	-0.055558145
15	0x3d89f4f7	0.067361765
16	0x3d500e3f	0.050794836
17	0x3da20238	0.079105794
18	0x3c177035	0.009243061
19	0xbd54161b	-0.051778894
20	0xbd85fcdf	-0.06542372
21	0xbdecd77a	-0.115645364
22	0xbdaabf92	-0.083373204
23	0xbdd0fdfc	-0.10204694
24	0x3cf95c5f	0.030439554
25	0x3d89f41f	0.067360155
26	0x3dda9442	0.10672809
27	0x3b34b43b	0.0027573246
28	0xbca56144	-0.020187981
29	0xbc2c9ad2	-0.010534959
30	0x3d62ded4	0.055388287
31	0xbc879c91	-0.016554149
32	0xbd2ef284	-0.04271175
33	0xbd16cd7d	-0.036817063
34	0xbe14a217	-0.14514957
35	0xbdbd76b6	-0.09251158
36	0xbd91f33d	-0.07126472
37	0x3c21719a	0.009853745
38	0xbdd23159	-0.102633186
39	0x3c1ace2a	0.009448567
40	0xbd807a50	-0.06273329
41	0x3dfad347	0.12247329
42	0xbdd4e7c7	-0.103957705
43	0x3d9d554e	0.07682286
44	0xbd6e713a	-0.05821345
45	0xbd19e397	-0.037570562
46	0xbe11d8d9	-0.14242877
47	0xbe1501b3	-0.1455143
48	0xbe136935	-0.14395602
49	0xbcec683a	-0.028858293
50	0x3de8a0f1	0.11358822
51	0x3c88345e	0.016626533
52	0x3da161c7	0.07879978
53	0x3cfa3d7e	0.0305469
54	0xbd44fd12	-0.04809291
55	0xbd359c27	-0.04433837
56	0xbd193593	-0.037404608
57	0xbde12e48	-0.109951556
58	0x3da2bd31	0.07946242
59	0xbd138fb7	-0.03602573
60	0xbdcde0a8	-0.100526154
61	0x3b5d39e1	0.0033756422
62	0x3b9c4b80	0.0047697425
63	0x3d8cfc2b	0.06884035
64	0xbdeb0fee	-0.11477648
65	0x3d0f0680	0.03491831
66	0xbd9476dc	-0.07249233
67	0xbd0c6e6e	-0.034285
68	0x3da244c7	0.079232745
69	0xbd293861	-0.041313533
70	0xbe0dff26	-0.13866863
71	0xbe1a92b7	-0.1509503
72	0x3dc631a1	0.09677435
73	0xbe1a175c	-0.15047973
74	0xbd93fb7f	-0.072257034
75	0x3d785a33	0.060632896
76	0xbe04030b	-0.12891786
77	0x3daff521	0.085916765
78	0xbc54f238	-0.012997203
79	0xbd2fb946	-0.0429013
80	0xbc83a69d	-0.016070658
81	0xbc313551	-0.010815934
82	0x3cd25722	0.025676314
83	0xbe103912	-0.1408427
84	0xbd3b7cd5	-0.045773346
85	0xbe05b955	-0.1305898
86	0x3dc1e827	0.09468108
87	0x3d99a5b1	0.07502306
88	0xbdaa3112	-0.08310141
89	0x3cfe6de6	0.031058263
90	0xbd59e4d9	-0.05319676
91	0x3d2f8997	0.042855825
92	0xbd9c7418	-0.076393306
93	0xbdde190f	-0.10844623
94	0x3cfe95c9	0.031077283
95	0x3d3394bf	0.043843027
96	0x3dc1c420	0.09461236
97	0x3caca6e6	0.021075677
98	0xbdf8aaf7	-0.12141984
99	0x3ab8ac8c	0.0014089509
100	0xbd90537b	-0.07047173
101	0x3dad6c9b	0.084679805
102	0xbd0738a6	-0.03301301
103	0x3d103f15	0.03521641
104	0xbcac9eb7	-0.021071775
105	0xbe094ae7	-0.13407479
106	0xbdd80078	-0.105469644
107	0x3db48efc	0.088163346
108	0x3db9cfff	0.09072875
109	0x3c83aa3d	0.016072387
110	0xbe2ae505	-0.16688927
111	0x3b09bc5c	0.0021016812
112	0x3ab03d44	0.0013445993
113	0xbe355752	-0.17709091
114	0x3c95c2d1	0.018281372
115	0x3d1e7417	0.03868493
116	0xbdda8286	-0.106694266
117	0xbcb64804	-0.022251137
118	0xbb50e5a0	-0.0031875148
119	0xbd8e54cd	-0.06949768
120	0x3d4a8c50	0.04945022
121	0x3da78ad9	0.0818078
122	0x3db9fdbd	0.090816
123	0xbe13c52b	-0.14430682
124	0xbd98c40e	-0.074592695
125	0x3cb0a452	0.021562729
126	0x3da731f2	0.08163823
127	0xbd6e3160	-0.058152556
128	0x3d6d9520	0.058003545
129	0x3dce98d6	0.10087745
130	0xbd1cb206	-0.038255714
131	0x3d9d9212	0.07693876
132	0x3d6140a0	0.05499327
133	0xbd09b50e	-0.033619933
134	0xbd8df12f	-0.06930768
135	0xbdb2b29a	-0.08725472
136	0xbe046fd1	-0.1293328
137	0xbdc4a345	-0.09601454
138	0x3cadbc2f	0.021207897
139	0x3cd1d85d	0.025615865
140	0xbd7dec97	-0.061993208
141	0xbccfe781	-0.025378944
142	0x3d8895fa	0.06669231
143	0x3cf12281	0.029435398
144	0xbdce1826	-0.100632
145	0x3da2b10f	0.079439275
146	0x3d6047aa	0.054755844
147	0xbc2b0499	-0.010438108
148	0x3d41f217	0.047350015
149	0xbdce9811	-0.10087598
150	0x3d3ff624	0.046865597
151	0xb96f3441	-0.00022812282
152	0xbca41721	-0.02003056
153	0xbd7b6670	-0.06137699
154	0x3daa7ff3	0.083251856
155	0x3b160e5e	0.0022896747
156	0xbdb3e30b	-0.087835394
157	0x3cf1714c	0.02947297
158	0x3bc002c5	0.005859705
159	0xbda0c600	-0.078502655
160	0x3d8763ce	0.06610833
161	0x3dba6722	0.09101702
162	0xbc29911e	-0.01034954
163	0xbd90f7d0	-0.070785165
164	0xbd763d02	-0.060116775
165	0xbdbb5ea2	-0.09148909
166	0x3d9e065d	0.077160574
167	0x3d840f60	0.06448245
168	0xbdc5646c	-0.096382946
169	0x3d6d16b1	0.05788297
170	0xbc6dba02	-0.01450968
171	0xbcdfe181	-0.027329208
172	0xbd9882a2	-0.07446791
173	0xbe165da0	-0.14684153
174	0xbdbd129d	-0.09232066
175	0x3dc48d2b	0.09597238
176	0xbd2e3fd4	-0.04254134
177	0xbb9eada6	-0.004842478
178	0xbddce1b7	-0.10785239
179	0xbd03a23d	-0.032137144
180	0xbda6ed98	-0.08150786
181	0xbc9f3971	-0.01943657
182	0xbe062a7f	-0.13102148
183	0xbc9b9c74	-0.018995501
184	0xbe03e565	-0.12880476
185	0xbdddabf5	-0.10823814
186	0xbcc8bd03	-0.02450419
187	0xbcce78c5	-0.025204072
188	0xbd4c2672	-0.04984135
189	0x3db5472b	0.08851465
190	0xbc3c03bc	-0.0114755
191	0xbb3966ea	-0.0028290101
192	0x3db9ce12	0.09072508
193	0xbc33f3dc	-0.010983434
194	0xbd7406f1	-0.059576932
195	0xbd363519	-0.04448423
196	0x3de1587a	0.11003204
197	0x3dd6f357	0.10495632
198	0x3d885142	0.06656124
199	0x3e0d15d1	0.13777854
200	0x3a2fda33	0.00067082344
201	0x3c12a55b	0.008950557
202	0x3c156c1f	0.009120016
203	0x3be827e9	0.007084836
204	0x3e0db722	0.13839391
205	0xbdb819aa	-0.0898927
206	0x3d69e8a8	0.057106644
207	0x3dde50e4	0.108552724
208	0xbcf139a8	-0.029446438
209	0x3e056780	0.13027763
210	0xbdb4bd91	-0.088252194
211	0x3d59b6a4	0.053152695
212	0xbd8198b4	-0.06327954
213	0x3d1b2841	0.037880186
214	0x3d9b9529	0.075968094
215	0x3daec457	0.085335426
216	0xba7881b1	-0.0009479775
217	0xbb9b0e41	-0.004731924
218	0xbda55ed4	-0.08074728
219	0x3d88cb23	0.0667937
220	0x3e114b8f	0.1418898
221	0xbd645730	-0.05574721
222	0xbc8adef7	-0.016952021
223	0x3db57c21	0.08861566
224	0x3dd57de2	0.10424401
225	0x3dcce6bd	0.10004947
226	0x3db31f39	0.087461896
227	0x3d68aac3	0.056803476
228	0xbd779d49	-0.060452733
229	0xbd34b0c0	-0.044113874
230	0xbe134d76	-0.14385018
231	0xbd63edcd	-0.055646706
232	0x3dd11927	0.102098756
233	0x3e016833	0.12637405
234	0x3e224ea5	0.15850313
235	0x3e0c3620	0.13692522
236	0x3d94ea9b	0.0727131
237	0x3e14fa7d	0.14548679
238	0x3ca45e61	0.020064535
239	0xbdc00bef	-0.09377276
240	0x3c39b11b	0.011333729
241	0xbe01a4e0	-0.12660551
242	0x3e2a07b2	0.16604498
243	0x3d5ad2fb	0.053423863
244	0x3e285a75	0.16440757
245	0x3d4b60b2	0.049652763
246	0x3dff7c25	0.124748506
247	0x3dc82dd4	0.09774366
248	0x3cc6e6fd	0.024280066
249	0x3d1b376e	0.03789466
250	0x3e0180b6	0.12646756
251	0x3b99cb91	0.0046934565
252	0x3de3a5cc	0.111156076
253	0x3aa8033c	0.0012818347
254	0xbc51efca	-0.012813518
255	0xbc7cf104	-0.015438322

fc_mu.4.bias f4 [32]
0	0x3d34c703	0.044135105
1	0xbe00f817	-0.12594639
2	0xbca1ad8c	-0.019736074
3	0x3d5a9d36	0.053372584
4	0xbd7a9e9a	-0.06118641
5	0xbd3ae972	-0.045632787
6	0xbc6d8c09	-0.014498719
7	0x3de00969	0.10939295
8	0x3d9be483	0.076119445
9	0x3d16769b	0.036734205
10	0x3bbbb5bd	0.005728452
11	0x3d35c02a	0.044372715
12	0xbd1757a8	-0.03694883
13	0x3dce52d3	0.10074391
14	0x3d163cb8	0.036679
15	0xbe1f41f1	-0.15552498
16	0x3e03c670	0.12868667
17	0x3cee794a	0.02911057
18	0xbde6a323	-0.112615846
19	0xbda437e6	-0.08018474
20	0x3df01045	0.11721853
21	0xbdc90e36	-0.09817164
22	0x3d227c74	0.03966947
23	0xbcf7a4e1	-0.030229988
24	0xbddb5e30	-0.10711324
25	0x3c6ea0d6	0.014564713
26	0x3d9360a3	0.07196166
27	0x3dc7bd2e	0.0975288
28	0xbe2d5fb2	-0.16931036
29	0x3dc3bcbb	0.09557482
30	0x3ddb59e7	0.10710507
31	0xbb2ab04d	-0.0026045025

fc_var.0.weight f4 [128, 8]
0	0x3ec927c3	0.39288148
1	0x3ef1df9c	0.47240913
2	0xbe92990e	-0.28632396
3	0x3de80e55	0.113308586
4	0x3e2eb850	0.17062497
5	0x3b9eaa63	0.004842089
6	0x3e5c0e5d	0.21489854
7	0x3c9b8220	0.018982947
8	0x3c850d14	0.016241588
9	0x3ed78a1c	0.42097557
10	0x3e51c87a	0.20486632
11	0x3e1f3ffa	0.15551749
12	0xbdbe5d10	-0.09295094
13	0xbe85e14f	-0.2614846
14	0xbcd60703	-0.02612639
15	0xbd87a1c0	-0.06622648
16	0xbe2dadf0	-0.16960883
17	0xbe889a9b	-0.26680455
18	0x3e81fac7	0.2538664
19	0xbda0b7d7	-0.07847565
20	0xbea554d2	-0.32291275
21	0xbe5906ce	-0.21194002
22	0xbe8aab76	-0.2708394
23	0x3e485952	0.19565323
24	0x3c8dc8c7	0.017307652
25	0xbe833380	-0.2562523
26	0xbe8ad3dc	-0.2711476
27	0x3e3f80e0	0.18701506
28	0xbe83c79a	-0.2573822
29	0xbe7a62e1	-0.24451782
30	0xbd50606e	-0.050873213
31	0x3e582ba2	0.21110395
32	0xbed06949	-0.40705326
33	0xbec5e4e0	-0.3865118
34	0x3de97154	0.11398569
35	0xbea7a171	-0.32740358
36	0x3e289c6f	0.16465925
37	0x3e1372d0	0.14399266
38	0x3dec78d6	0.11546485
39	0x3e9a159f	0.3009462
40	0x3e800467	0.2500336
41	0xbe8b36f3	-0.2719036
42	0x3e4c83b2	0.19972113
43	0x3e3d0924	0.18460518
44	0x3e349f0d	0.17638798
45	0xbdb56b39	-0.08858342
46	0xbe255eda	-0.16149464
47	0xbe6b0a5b	-0.22953169
48	0x3db1ad66	0.08675651
49	0x3d3e151d	0.046406854
50	0x3c929c80	0.01789689
51	0x3e8d1e91	0.27562383
52	0xbe6bc83b	-0.230256
53	0x3d8293a2	0.06375815
54	0x3ad6b4d9	0.0016380801
55	0xbc806030	-0.015670866
56	0x3eace470	0.33768034
57	0x3ebbff79	0.36718348
58	0xbe73bf72	-0.238035
59	0x3d9c9f09	0.07647521
60	0xbe600b48	-0.21879303
61	0xbe41a743	-0.18911462
62	0xbe9ab2a4	-0.30214417
63	0x3e06faee	0.1318166
64	0xbdfcc3cc	-0.12342033
65	0xbe802f01	-0.2503586
66	0xbd8fc514	-0.070200115
67	0xbbc1ecdd	-0.005918129
68	0x3de21f07	0.11041074
69	0x3e72b97b	0.23703568
70	0xbe72cb5a	-0.23710385
71	0xbcb4fe70	-0.022093982
72	0x3ee46cdb	0.446143
73	0x3ea668c2	0.325018
74	0x3e26e06a	0.16296545
75	0xbe205fdd	-0.15661569
76	0x3daff73a	0.085920766
77	0x3c404ef0	0.01173757
78	0x3d1925d3	0.037389588
79	0x3e6c4432	0.2307289
80	0xbe7bd133	-0.24591522
81	0xbe5b90fe	-0.21442029
82	0x3e7c55ee	0.24642155
83	0x3dbf3328	0.09335929
84	0xbe910837	-0.2832658
85	0xbda8de5f	-0.08245539
86	0x3e4b4e4d	0.19854088
87	0x3e5b627a	0.21424285
88	0x3e25a81b	0.16177408
89	0xbea07297	-0.31337425
90	0xbe8741c1	-0.26417354
91	0x3ddbc612	0.10731138
92	0x3e899f12	0.26879174
93	0x3e6839f7	0.22678362
94	0x3dce9161	0.100863226
95	0x3e55b752	0.20870712
96	0xbe859a25	-0.26094165
97	0x3d66ada8	0.056317955
98	0xbd153cd0	-0.03643495
99	0x3bfa11fd	0.007631539
100	0x3e2718c7	0.16318046
101	0xbe7ef26b	-0.24897163
102	0x3ce5ed3a	0.02806722
103	0xbdfdaf6c	-0.12386975
104	0x3de0d3ce	0.109778985
105	0xbec383a5	-0.38186374
106	0xbe47b7bb	-0.19503681
107	0xbe51b4b2	-0.20479086
108	0x3e396a61	0.18106987
109	0x3e210071	0.15722825
110	0x3e796382	0.24354365
111	0x3eb2b493	0.34903392
112	0x3daccd62	0.08437611
113	0x3d8ad426	0.06778745
114	0x3dca477c	0.09876916
115	0x3c8420c8	0.016128913
116	0x3cfbf364	0.030755706
117	0xbe759d55	-0.23985799
118	0x3e864daa	0.26231128
119	0xbe752b3a	-0.23942271
120	0x3e928fb7	0.2862527
121	0x3e703846	0.23458967
122	0x3dbbb79c	0.0916588
123	0x3df53187	0.11972337
124	0x3d4792ca	0.048723973
125	0xbe3890d3	-0.18023996
126	0xbe26e5a2	-0.16298535
127	0xbe38009a	-0.1796898
128	0xbdbee55a	-0.09321089
129	0x3e57b402	0.21064761
130	0x3cd77fc0	0.026306033
131	0x3bd71c7c	0.006564675
132	0x3e08f8b8	0.13376129
133	0x3e9eaee8	0.30992818
134	0xbcd654ff	-0.026163576
135	0xbe2dd4af	-0.16975664
136	0xbe548bcd	-0.20756455
137	0x3ec5537d	0.3854026
138	0xbe9ff3cd	-0.31240693
139	0x3e255ff5	0.16149886
140	0x3e9eddee	0.31028694
141	0x3e425298	0.1897682
142	0xbcb77bd5	-0.022397915
143	0xbd3c0f98	-0.04591331
144	0x3e382759	0.1798376
145	0xbe883285	-0.26601043
146	0x3dfff888	0.124985754
147	0xbd6a0810	-0.057136595
148	0x3e333b34	0.17503053
149	0xbdcc8374	-0.0998601
150	0xbe5c217b	-0.21497147
151	0xbe0a3f45	-0.13500698
152	0x3eab5b07	0.33467886
153	0x3e609b2d	0.21934195
154	0xbe7f9ddc	-0.24962562
155	0xbe9581a7	-0.2920048
156	0xbdd31ae5	-0.10307864
157	0xbda10f52	-0.0786425
158	0xbd7bd18f	-0.061479148
159	0x3e7369ae	0.23770782
160	0x3e1512ad	0.14557905
161	0xbc9f309e	-0.019432362
162	0xbca62f10	-0.020286113
163	0x3debcd92	0.11513819
164	0xbe82f5b6	-0.25578088
165	0xbeb01587	-0.34391424
166	0xbe89f896	-0.2694747
167	0x3e1f2d22	0.1554456
168	0xbcff8cac	-0.031195007
169	0xbecd480a	-0.40094024
170	0x3e93f3c3	0.28896913
171	0x3e3b75a6	0.18306598
172	0xbea0065d	-0.31254855
173	0x3e3e7fe5	0.18603475
174	0x3c3bc17f	0.011459707
175	0x3cf35a40	0.02970612
176	0x3ec71232	0.3888107
177	0x3ed63215	0.41835085
178	0x3d9e2ce8	0.07723409
179	0xbe5750c8	-0.2102691
180	0x3e8616c6	0.2618925
181	0x3e89c9e3	0.2691184
182	0xbd407b76	-0.04699274
183	0xbe904118	-0.28174663
184	0x3ecab9c7	0.39594862
185	0xbcf84dac	-0.030310474
186	0xbe584977	-0.21121775
187	0xbea22c36	-0.31674355
188	0x3dd2071e	0.10255264
189	0x3e291409	0.16511549
190	0xbe05690b	-0.13028352
191	0xbeaf6bd1	-0.34261945
192	0x3e9efeaf	0.31053683
193	0x3e0e9a87	0.13926135
194	0x3ea0b3ef	0.31387278
195	0xbd8867db	-0.06660434
196	0x3e94318b	0.28944048
197	0xbe0b9552	-0.1363118
198	0xbe1000b8	-0.14062774
199	0x3e53a02a	0.20666566
200	0x3e71451b	0.23561518
201	0x3edf7002	0.43640143
202	0x3cd9ad20	0.02657181
203	0xbe7a7049	-0.24456896
204	0xbe83c17a	-0.25733548
205	0xbdd4cbc6	-0.10390429
206	0xbd912069	-0.0708626
207	0xbe46979b	-0.1939377
208	0x3e7d27c9	0.24722208
209	0xbe76be04	-0.24095923
210	0x3d0966a0	0.033545136
211	0x3e4a2cca	0.19743648
212	0x3da876a8	0.08225757
213	0x3bb89362	0.005632804
214	0x3e0bbc6d	0.13646097
215	0xbe3bc6b0	-0.18337512
216	0xbed8bbad	-0.42330685
217	0x3d4d56fb	0.05013178
218	0xbe85e6fd	-0.26152793
219	0xbeb04dce	-0.3443436
220	0xbe94a846	-0.29034632
221	0x3e7881de	0.2426829
222	0xbe5c17c3	-0.2149344
223	0x3e8cfa05	0.275345
224	0x3e882f6c	0.2659868
225	0x3db97429	0.09055359
226	0xbe548aea	-0.20756117
227	0xbeb1c8c4	-0.34723485
228	0xbe828b75	-0.25497022
229	0x3e4d2f70	0.20037627
230	0xbe70737a	-0.23481551
231	0xbd3c7080	-0.046005726
232	0xbd44d357	-0.048053112
233	0xbe3289c4	-0.17435366
234	0x3da217d4	0.07914701
235	0xbe85237b	-0.26003632
236	0x3e85f817	0.2616584
237	0xbe775abf	-0.2415571
238	0xbe4b0489	-0.19825949
239	0xbe96cc2b	-0.29452643
240	0x3e65780e	0.22409078
241	0xbd8d67d6	-0.06904571
242	0xbdf6c8c4	-0.12050012
243	0x3e329048	0.17437851
244	0xbd988472	-0.07447137
245	0x3e679c5f	0.22618245
246	0x3d87d53d	0.06632469
247	0xbcf5e420	-0.030016005
248	0xbe68102e	-0.22662422
249	0xbeac2a5e	-0.33626074
250	0x3dc86c38	0.09786266
251	0xbcdb63ce	-0.026780989
252	0x3e882b65	0.26595607
253	0xbe98e74a	-0.2986396
254	0x3c90a484	0.017656572
255	0x3e06cbf8	0.13163745

fc_var.0.bias f4 [128]
0	0x3dbb669b	0.0915043
1	0x3e8e859a	0.27836305
2	0x3e89675d	0.26836672
3	0xbe10d66c	-0.14144295
4	0xbe8222ec	-0.25417268
5	0x3d9dc51a	0.0770361
6	0xbe7b8b52	-0.24564865
7	0xbea76bec	-0.32699525
8	0x3e65786a	0.22409216
9	0xbe915f6b	-0.2839311
10	0x3eb579b3	0.35444412
11	0xbea4757e	-0.3212089
12	0xbe9996b4	-0.2999779
13	0x3e3e269c	0.18569416
14	0x3b020aa1	0.001984276
15	0xbe2cbb21	-0.16868259
16	0x3e05c7ee	0.13064548
17	0xbe800011	-0.2500005
18	0xbe4584d8	-0.19288957
19	0xbea72aff	-0.3264999
20	0xbe53f389	-0.2069837
21	0xbe942777	-0.2893636
22	0x3eaad1b7	0.33363125
23	0xbe3078cf	-0.17233585
24	0x3d8d085a	0.068863586
25	0xbe0d1f75	-0.13781531
26	0xbdd05d41	-0.10174037
27	0x3e842429	0.25808838
28	0x3d92a45f	0.071602575
29	0x3e176bfc	0.14787287
30	0x3ded4fca	0.11587484
31	0xbe9cb180	-0.30604172
32	0x3e637ebb	0.22216313
33	0x3e9a5caa	0.30148822
34	0x3dd6efb7	0.10494941
35	0x3e9143b7	0.28371975
36	0xbe2113db	-0.1573023
37	0xbe8284e0	-0.25492
38	0xbe899bc9	-0.26876667
39	0xbd1319eb	-0.03591339
40	0xbc9d0c44	-0.019170888
41	0xbe142f0f	-0.14471076
42	0xbdb01a64	-0.085987836
43	0xbe10606e	-0.14099285
44	0x3ebc129c	0.36732948
45	0xbcb8b76c	-0.0225484
46	0x3e8620a5	0.2619678
47	0x3d65ced5	0.056105454
48	0x3dcf0372	0.10108079
49	0x3e1a0400	0.15040588
50	0xbeaa3eb4	-0.33250964
51	0xbe1ddd71	-0.15416504
52	0xbe876513	-0.264443
53	0x3ec24dfa	0.37950116
54	0x3dfda0e8	0.12384206
55	0xbe0bff68	-0.13671649
56	0xbe9b1c5d	-0.30295077
57	0x3e2db02e	0.16961738
58	0x3c8ae55b	0.016955068
59	0xbe2e2f60	-0.1701026
60	0xbe8a6d5b	-0.27036557
61	0xbe5d335b	-0.21601622
62	0x3de7974e	0.11308156
63	0xbe83d00c	-0.25744665
64	0xbd013448	-0.031544
65	0x3e499156	0.19684348
66	0x3e3d5ae3	0.18491702
67	0x3d022338	0.03177187
68	0x3c41822b	0.01181082
69	0x3e0f5db1	0.14000584
70	0x3df6f941	0.1205926
71	0x3e8de8bf	0.27716634
72	0x3dd2ae13	0.10287108
73	0x3e2b6833	0.16738968
74	0x3e5fe1b9	0.2186345
75	0xbe6c1be0	-0.23057508
76	0xbe35f30b	-0.17768495
77	0x3e3e5ffb	0.18591301
78	0x3d80c575	0.06287662
79	0xbe55b637	-0.2087029
80	0x3dc62e15	0.09676758
81	0xbe9da0c9	-0.30786732
82	0xbe258bc5	-0.16166599
83	0x3e3dc376	0.18531594
84	0xbace0f50	-0.0015721116
85	0xbe6f67ec	-0.23379487
86	0x3e37aa4c	0.17936057
87	0x3d0610aa	0.032730736
88	0xbd574467	-0.052555468
89	0xbeb0d992	-0.34540993
90	0xbe27f7b0	-0.16403079
91	0x3d26aabd	0.040690172
92	0xbe456ce0	-0.19279814
93	0x3d049126	0.032364987
94	0xbe8c7ee2	-0.27440554
95	0x3e82728b	0.25478014
96	0x3e73d681	0.23812295
97	0x3e6301c5	0.22168644
98	0xbc01d7e4	-0.0079250075
99	0xbeb3a485	-0.35086456
100	0xbdf1479f	-0.11781239
101	0x3ae94e7e	0.0017799882
102	0xbe91e128	-0.28492093
103	0x3e96d5bd	0.29459944
104	0x3dd302ab	0.10303243
105	0x3e7ebbb2	0.24876288
106	0xbe9a6208	-0.30152917
107	0xbe2d449d	-0.16920705
108	0x3dc78ce4	0.0974367
109	0x3cc0f4d6	0.023554247
110	0xbe41cad7	-0.18925034
111	0x3e8a2683	0.26982507
112	0x3e0db588	0.1383878
113	0xbc7490ef	-0.014927133
114	0x3ea3db36	0.32003182
115	0xbea6df18	-0.32592082
116	0xbe859adb	-0.26094708
117	0x3d0a94b2	0.033833213
118	0x3eae6dfb	0.34068283
119	0x3e42deb0	0.19030261
120	0xbe3beee4	-0.18352848
121	0x3e85c5cd	0.26127473
122	0x3e3a262b	0.18178622
123	0x3c75bfd2	0.014999347
124	0x3e6efa03	0.2333756
125	0x3d21fa47	0.039545324
126	0x3cbe09df	0.023198066
127	0xbdc4f915	-0.09617821

fc_var.2.weight f4 [64, 128]
0	0xbda83ce4	-0.08214739
1	0xbdc5d02a	-0.09658845
2	0xbd2ec2cb	-0.042666238
3	0xbdaaf5ad	-0.0834764
4	0xbc0b2ca1	-0.008494527
5	0xbbffac24	-0.007802503
6	0xbded340e	-0.11582194
7	0xbdda80c9	-0.10669095
8	0x3c609f10	0.013709798
9	0xbda15259	-0.07877035
10	0xbcdcf594	-0.02697257
11	0xbdc7e754	-0.09760919
12	0xbd76ad09	-0.060223613
13	0x3bd06521	0.0063597118
14	0xbc2d477a	-0.010576123
15	0x3b1a4207	0.002353789
16	0xbd6d0d05	-0.057873745
17	0xbdf4a94b	-0.119463526
18	0xbd1957cf	-0.037437256
19	0x3ca12b3e	0.01967394
20	0xbc7b7dac	-0.015349787
21	0xbc79a970	-0.015238151
22	0xbcde4c7a	-0.027136076
23	0x3d143feb	0.03619377
24	0x3a9971b0	0.0011706855
25	0xbd4f0dce	-0.050550275
26	0xbd9795ec	-0.07401642
27	0x3cf361ef	0.029709784
28	0xbdac8a55	-0.08424822
29	0xbdc21d93	-0.09478297
30	0xbc590868	-0.013246633
31	0xbdbfca55	-0.09364764
32	0xbdf6f64e	-0.12058698
33	0xbdd778c5	-0.10521082
34	0xbca084c4	-0.019594558
35	0xbdb05fd4	-0.08612028
36	0x3ce127b2	0.027484749
37	0xbd353089	-0.04423574
38	0xbdb55793	-0.08854594
39	0xbdbfd340	-0.093664646
40	0xbd7f402e	-0.062317066
41	0x3d6ffcba	0.05859063
42	0xbdbccfba	-0.09219308
43	0xbdd742ab	-0.10510763
44	0xbbd05782	-0.006358088
45	0x3bc1e4c2	0.0059171626
46	0xbdd0aad6	-0.10188834
47	0xbd98c6c7	-0.07459789
48	0x3d096afd	0.033549298
49	0xbd9ff7d2	-0.0781094
50	0xbbe43ce9	-0.006965269
51	0xbdb7caf1	-0.08974255
52	0xbe0021c1	-0.12512876
53	0xbde01032	-0.10940589
54	0x3d42cc37	0.047558036
55	0xbba9a8fb	-0.0051776147
56	0xbc3df17b	-0.011593218
57	0xbaade5ae	-0.0013267302
58	0x3b6f0fb0	0.0036477856
59	0x3cac4682	0.021029714
60	0x3d10ec86	0.035381816
61	0x3d17c5b3	0.037053775
62	0xbcaa64d1	-0.020800026
63	0xbcc9e246	-0.024644028
64	0xbbfb069b	-0.0076606995
65	0xbde5c586	-0.11219315
66	0xbb706619	-0.0036681949
67	0xba3abad9	-0.00071231794
68	0x3ba9b843	0.0051794364
69	0xbd6a15f4	-0.057149842
70	0x3cd76cd0	0.026297003
71	0xbd18d866	-0.03731575
72	0xbd692945	-0.056924123
73	0xbd1b5dd7	-0.03793129
74	0xbd8bb076	-0.06820767
75	0xbd4b0b01	-0.04957104
76	0x3d218e3d	0.03944229
77	0xbc80984c	-0.01569762
78	0xbd13986a	-0.036034025
79	0xbd470e8b	-0.048597854
80	0xbc8cc597	-0.017184062
81	0xbd967b85	-0.07347778
82	0xbdd0d458	-0.10196751
83	0x3d00b500	0.031422615
84	0xbd0a7b02	-0.033808716
85	0xbb0c0cd6	-0.0021369956
86	0xbd9a0acf	-0.07521593
87	0xbdb97c0d	-0.09056864
88	0xbd001d68	-0.031278044
89	0x3c935fae	0.01798996
90	0xbdf56e0f	-0.11983883
91	0xbe0e3ebb	-0.13891117
92	0xbd84d26f	-0.064854495
93	0x3c82ca05	0.015965471
94	0xbdf006df	-0.117200606
95	0x3d0212c5	0.03175618
96	0x3d49036a	0.04907552
97	0xbd943fa4	-0.07238701
98	0xbcb9bb02	-0.02267218
99	0xbd545a38	-0.05184385
100	0x3d47f58e	0.048818164
101	0xbc94ddaa	-0.018172104
102	0xbc85d8c0	-0.016338706
103	0xbda719ed	-0.08159242
104	0xbd3fdb82	-0.0468402
105	0xbdb288fd	-0.08717535
106	0xbd2c9943	-0.04213835
107	0xbd1b8f72	-0.037978597
108	0xbcd5b486	-0.026087057
109	0xbcc24772	-0.023715708
110	0xbde91203	-0.113803886
111	0x3c8b45cb	0.017001053
112	0x3c5a9ab6	0.01334255
113	0x3cb7a920	0.022419512
114	0x3cf6c4e9	0.030123191
115	0xbc8f2eab	-0.017478308
116	0x3ca2a2f5	0.019853095
117	0xbb299d4f	-0.0025881117
118	0x3c850da5	0.016241858
119	0xbdbbb900	-0.09166145
120	0x3b767320	0.003760524
121	0xbd275a3c	-0.04085754
122	0xbbcab225	-0.0061857873
123	0xba8ecf9a	-0.001089561
124	0xbdca29b8	-0.098712385
125	0xbd9be36f	-0.07611739
126	0xbdc4de29	-0.09612686
127	0xbd828451	-0.063728936
128	0x3cb74939	0.022373782
129	0xb9efcc20	-0.00045737717
130	0x3d9063f1	0.07050312
131	0xbd87a5d5	-0.06623427
132	0x3cbc1983	0.022961384
133	0x3d95db51	0.07317222
134	0xbda2e714	-0.07954231
135	0xbdac18ae	-0.08403145
136	0x3c65d430	0.01402764
137	0xbd320f5e	-0.043471687
138	0x3c9781af	0.018494455
139	0xbd5ef408	-0.054431945
140	0xbbe91416	-0.00711299
141	0xbda1791d	-0.07884429
142	0x3d8e5c81	0.069512375
143	0xbd89e29a	-0.06732674
144	0xbdc771a3	-0.09738471
145	0xbda249c0	-0.07924223
146	0x3be3e1ae	0.0069543933
147	0x3da077be	0.07835339
148	0x3c2a3e73	0.010390866
149	0xbcb14b39	-0.021642314
150	0xbd9b749e	-0.07590602
151	0x3d12ea46	0.03586795
152	0x3b0dde1c	0.002164728
153	0xbd021fd0	-0.03176862
154	0xbcc8477b	-0.024448147
155	0x3c92e463	0.017931169
156	0x3d5268c1	0.051369432
157	0xbd56ecc5	-0.052471895
158	0xbce2dd7d	-0.027693504
159	0x3d356dbb	0.0442941
160	0xbd83bd86	-0.06432633
161	0xbb58244e	-0.0032980624
162	0x3d6f941b	0.058490854
163	0x3d89c4d3	0.06726994
164	0xbdaaf031	-0.08346594
165	0xbd8e5676	-0.06950085
166	0xbc1c27db	-0.009530987
167	0x3d81ec5d	0.06343911
168	0xbd07066a	-0.0329651
169	0xbdb5649c	-0.0885708
170	0xbc092f4c	-0.008373093
171	0x3d2a097f	0.041512962
172	0xbd58ce9c	-0.052931413
173	0xbd8ec628	-0.06971389
174	0xbbe88d66	-0.007096934
175	0x3d951a62	0.07280423
176	0xbdb0d6c7	-0.086347155
177	0xb9f942df	-0.00047542804
178	0x3d0b7cd8	0.034054607
179	0xbc15cdd0	-0.009143308
180	0xbd6de467	-0.05807915
181	0xbd132fa9	-0.035934124
182	0xbd63dc89	-0.05563024
183	0x3ac92a97	0.0015347776
184	0xbd1f667a	-0.03891609
185	0xbc2901da	-0.010315383
186	0xbc5eb401	-0.013592721
187	0xbd9dbc1b	-0.07701894
188	0x3da094bb	0.07840868
189	0x3cb9a1e7	0.022660209
190	0x3d0b0cbb	0.033947688
191	0x3d220b5b	0.03956161
192	0x3d222db5	0.03959437
193	0xbd1017f8	-0.03517911
194	0xbcd9a7a9	-0.026569204
195	0xbd3d5def	-0.04623216
196	0xbda78463	-0.08179548
197	0xbd78e1f4	-0.06076236
198	0xbd434ac2	-0.047678716
199	0x3d93cd4d	0.072168924
200	0xbdaa764a	-0.08323343
201	0xbd6855b2	-0.05672235
202	0xbd8ae892	-0.067826405
203	0xbd71eba3	-0.05906261
204	0x3d987406	0.07444005
205	0xbda2445d	-0.079231955
206	0xbd66dfd4	-0.056365803
207	0xbd8742ba	-0.06604524
208	0x3b0b6bba	0.0021273927
209	0xbd4dbed3	-0.050230812
210	0xbd96fd33	-0.07372513
211	0x3d8dbb67	0.0692051
212	0x3cb34fce	0.02188864
213	0xbd91d73f	-0.07121133
214	0xbd466ecd	-0.04844551
215	0x3d3fbf83	0.0468135
216	0x3c88ae5c	0.016684704
217	0xbd87ed0c	-0.0663701
218	0xbd71747b	-0.058948975
219	0xbd4d44d0	-0.050114453
220	0x3cd3e9bc	0.02586829
221	0xbd9884ef	-0.0744723
222	0x3dadef30	0.08492887
223	0x3bdfa6ba	0.0068252953
224	0x3cec476d	0.028842652
225	0x3c6ffe92	0.014648097
226	0x3d8505bf	0.064952366
227	0xbd1a07df	-0.037605163
228	0xbd108144	-0.035279527
229	0xbd9f2e73	-0.07772531
230	0x3d93b0c6	0.07211451
231	0xbd13f31f	-0.03612053
232	0xbbd856bd	-0.006602137
233	0x3d92682c	0.071487755
234	0xbce74f24	-0.02823598
235	0xbce96d7c	-0.028494589
236	0xbd3e5eff	-0.046477314
237	0x3d2468d3	0.04013903
238	0x3b49426b	0.0030709754
239	0xbd71e15e	-0.059052818
240	0x3d5c86b8	0.053839415
241	0x3c2fb9f5	0.010725488
242	0xbd2f77df	-0.042838927
243	0x3cd40d0a	0.025885124
244	0xbdae1914	-0.08500877
245	0xbd986db6	-0.07442801
246	0xbd594348	-0.05304268
247	0x3d266a20	0.040628552
248	0xbc0414f8	-0.00806164
249	0x3d51d825	0.051231522
250	0xbdb94339	-0.09046025
251	0x3d882c8b	0.06649121
252	0xbdb4ee9f	-0.08834576
253	0xbcc7c9e8	-0.024388269
254	0x3d9086cc	0.070569605
255	0xbd309566	-0.043111227

fc_var.2.bias f4 [64]
0	0xbc75de75	-0.015006651
1	0x3da1a8b7	0.07893508
2	0xbdca8622	-0.09888865
3	0xbcca31d3	-0.024681961
4	0xbda8eae9	-0.082479306
5	0x3c84b88d	0.016201282
6	0xbd62cfe5	-0.055374045
7	0xbc1f03bc	-0.00970548
8	0x3da66319	0.0812437
9	0xbcdb6c02	-0.0267849
10	0x3c8462bd	0.016160363
11	0x3d70dcd2	0.05880434
12	0x3d0a46c8	0.03375891
13	0x3d8d6d31	0.06905592
14	0x3d83760c	0.06419
15	0xbc2343b3	-0.009964871
16	0x3d41ab94	0.04728277
17	0x3dbdd8da	0.09269877
18	0xbda3a322	-0.079900995
19	0x3cfcca0a	0.030858058
20	0x3d9c82f0	0.07642162
21	0xbd6d9f0b	-0.058013003
22	0x3d4243dd	0.047428
23	0x3d35e0b9	0.044403765
24	0x3b022e46	0.0019864007
25	0xbd1fb39a	-0.03898964
26	0xbccfc923	-0.025364464
27	0x3d6f90f6	0.058487855
28	0xbdaeba7c	-0.08531663
29	0x3cd87783	0.026424175
30	0xbd59b75a	-0.053153373
31	0x3d67c082	0.056580074
32	0xbcca8c0f	-0.024724988
33	0x3d172581	0.036901
34	0x3d6c019d	0.057618726
35	0xbcd77437	-0.026300533
36	0x3aeb5bc9	0.0017956431
37	0x3db6b741	0.08921672
38	0x3d78015c	0.06054817
39	0x3d62fc05	0.055416126
40	0xbd204f48	-0.03913811
41	0x3be2252f	0.0069014053
42	0xbd4e74fc	-0.050404534
43	0x3d2b67d2	0.041847058
44	0x3d27ac33	0.040935706
45	0x3d798751	0.060920063
46	0xbda34cc5	-0.07973627
47	0x3cae2879	0.021259533
48	0x3d0f2f12	0.034957
49	0xbd180321	-0.03711236
50	0x3c80b864	0.015712924
51	0x3ce84c03	0.028356558
52	0xbced2d8b	-0.02895238
53	0x3d629ab4	0.055323318
54	0xbdafd798	-0.08586043
55	0xbca68b4b	-0.020330092
56	0xbd13c964	-0.036080733
57	0x3d848d9f	0.064723246
58	0xbcfb0d99	-0.030646132
59	0xbce897ea	-0.02839275
60	0x3da68fcd	0.081328966
61	0xbdb858eb	-0.09001335
62	0xbbbc384a	-0.005744015
63	0x3d9f1824	0.07768276
