dc_ids_known_traffic_classification.pth (torch, 609643 bytes, 32 tensors)

fc_mu.0.weight f4 [128, 105]
0.054914318 0.09809446 0.05729147 0.029825026 -0.0670184 0.018626133 -0.02232294 0.021506399
0.051890723 -0.033728283 0.025032317 -0.028508225 0.05326362 0.008426004 -0.007288322 0.03820366
0.10040937 0.011853795 -0.019575503 0.027786132 -0.016779084 0.024603039 -0.0120480815 0.034805495
-0.011270566 -0.04866278 -0.04841283 -0.08945924 0.024000457 -0.029652946 0.09324281 -0.0699905
0.09094809 -0.0067846957 -0.032617223 0.060849924 0.032922547 0.013279317 0.010904555 -0.028807938
-0.004047561 0.002903148 0.01557178 0.061906625 0.07344919 -0.030294871 0.027203359 -0.018295089
0.0366583 -0.03923639 -0.042670164 -0.028860005 -0.054362327 0.045344546 0.013267068 0.014976026
-0.013594967 0.022280613 0.05201604 -0.06668436 -0.0020414656 -0.050771095 0.009649562 -0.0012994265
0.07898775 -0.02244146 0.04323473 -0.04528685 0.012411661 -0.027450612 0.07248654 0.019539176
0.05095548 -0.08105055 -0.06320208 -0.013365127 -0.029401455 0.036148626 -0.019654639 -0.0048268368
-0.056177128 -0.029888842 0.07080557 0.0024608453 0.031170534 -0.04253486 0.034669697 -0.061766945
-0.05355418 0.062156197 -0.07420926 -0.023929624 0.055721078 0.055297818 -0.011362593 -0.031477485
0.050491154 0.02104503 0.016429903 -0.049338482 -0.041045927 0.032721702 0.008327897 -0.02598859
0.05589845 -0.04098615 -0.053663123 -0.03257128 -0.07769993 -0.015882583 0.039564785 -0.0018494929
0.02260379 -0.040806025 -0.038515076 -0.019918784 0.02013559 -0.029773993 -0.041159842 -0.0566197
-0.024402468 -0.037256636 -0.0026930973 -0.0506818 -0.05057721 -0.036533598 0.0062622693 -0.06956402
0.0444207 -0.03227243 0.045982227 0.018189127 -0.056575567 0.023067275 -0.0273657 -0.028256623
-0.060742952 -0.083436966 0.02228735 -0.008953999 0.025878416 -0.04159979 0.042698663 -0.022285119
-0.016526084 0.013256422 0.03739778 0.06045939 0.074239075 -0.060209405 0.02809614 -0.0083158
0.008474596 -0.055271693 0.03422256 -0.023843756 0.042575896 0.011820849 0.03039243 -0.064562514
0.055212464 0.004715988 0.0051386217 -0.052508015 0.04351839 -0.021779126 -0.020849172 0.06225676
0.048244122 -0.038889065 -0.046839308 -0.014470103 0.01588627 -0.020710008 -0.03080471 -0.01869765
-0.059585165 0.02937257 0.04082472 -0.05209074 0.003874331 0.033519786 0.011245805 -0.02472898
0.028361687 0.03626717 0.032546967 -0.009295278 -0.04425136 -0.020188857 -0.016556758 -0.016275797
0.07161974 0.04852694 -0.016695745 -0.019156417 0.020236991 0.03482122 0.022208555 0.034962136
-0.066553794 -0.019432569 0.05293553 0.024738153 -0.00633102 -0.049775206 -0.03132123 -0.06947256
-0.037936565 0.0037409586 0.05129604 0.03888993 -0.056312565 -0.049934044 -0.0079104295 0.06105085
0.015838152 -0.0105293235 0.045199513 -0.042027604 -0.038539834 0.060108595 -0.022919713 -0.007113649
-0.060260795 0.030326685 0.03545334 0.03208825 -0.028063804 -0.061889514 -0.05058608 0.03669284
0.021044383 0.030017909 0.03439475 0.02105942 -0.00026840705 -0.040467557 -0.048430137 -0.05138447
0.026732206 -0.021400098 -0.01837085 -0.042230837 -0.005547495 -0.03647855 -0.05124495 0.018143276
-0.025351852 0.03992724 -0.020943856 -0.05979624 -0.0023350976 -0.0263795 -0.016057113 -0.06165644
00000000: d6ed 603d c0e5 c83d 76aa 6a3d 9d53 f43c
00000010: f140 89bd d595 983c 99de b6bc 302e b03c
00000020: 5e8b 543d ab26 0abd 9310 cd3c 158a e9bc
00000030: f42a 5a3d 390d 0a3c e0d2 eebb 717b 1c3d
00000040: 6ea3 cd3d 6b36 423c ce5c a0bc be9f e33c
00000050: 4a74 89bc 508c c93c 5165 45bc 3590 0e3d
00000060: 2ea8 38bc a052 47bd 884c 46bd 6836 b7bd
00000070: 9b9c c43c bcea f2bc 16f6 be3d 2e57 8fbd
00000080: fe42 ba3d 2752 debb a399 05bd c53d 793d
00000090: cbd9 063d 7e91 593c 05a9 323c a0fe ebbc
000000a0: 67a1 84bb be42 3e3b c720 7f3c cd91 7d3d
000000b0: 876c 963d f32c f8bc 94d9 de3c 95df 95bc
000000c0: 0327 163d 56b6 20bd e9c6 2ebd d16b ecbc
000000d0: 08ab 5ebd 34bb 393d 1e5e 593c 015e 753c
000000e0: 6dbd 5ebc d585 b63c c50e 553d cf91 88bd
000000f0: 1cca 05bb 5af5 4fbd 3219 1e3c 8551 aaba
00000100: 54c4 a13d 27d7 b7bc e616 313d b47e 39bd
00000110: 485a 4b3c 1be0 e0bc d373 943d 9f10 a03c
00000120: b2b6 503d d5fd a5bd 1870 81bd 68f9 5abc
00000130: 52db f0bc 9510 143d c402 a1bc 712a 9ebb
00000140: fd19 66bd 72d9 f4bc 8302 913d 2246 213b
00000150: 5959 ff3c 0939 2ebd d001 0e3d 56ff 7cbd
00000160: a15b 5bbd 7f97 7e3d 06fb 97bd 0f08 c4bc
00000170: c93b 643d f77f 623d 2b2a 3abc 89ee 00bd
00000180: d0cf 4e3d a066 ac3c 0198 863c 2617 4abd
00000190: c61f 28bd 3107 063d bb71 083c 06e6 d4bc
000001a0: c6f5 643d 18e1 27bd ddcd 5bbd 7669 05bd
000001b0: 2421 9fbd 311c 82bc af0e 223d af6a f2ba
000001c0: 952b b93c 3824 27bd fcc1 1dbd b82c a3bc
000001d0: 65f3 a43c 97e8 f3bc 3997 28bd 0fea 67bd
000001e0: afe7 c7bc 6a9a 18bd ad7e 30bb b897 4fbd
000001f0: 0c2a 4fbd 41a4 15bd b933 cd3b 9577 8ebd
00000200: 7bf2 353d 1830 04bd dc57 3c3d 5d01 953c
00000210: c8bb 67bd 95f7 bc3c 082e e0bc 6f7a e7bc
00000220: 9acd 78bd 00e1 aabd f693 b63c cbb3 12bc
00000230: f9fe d33c 8b64 2abd cbe4 2e3d 488f b6bc
00000240: b661 87bc 7731 593c 6a2e 193d 44a4 773d
00000250: a80a 983d 239e 76bd e029 e63c fe3e 08bc
00000260: 08d9 0a3c 9264 62bd f42c 0c3d fb53 c3bc
00000270: 1064 2e3d 3cac 413c 8cf9 f83c 5a39 84bd
00000280: 7726 623d 9388 9a3b e261 a83b a512 57bd
00000290: 5740 323d 236a b2bc e2cb aabc f200 7f3d
000002a0: a19b 453d 244a 1fbd 93da 3fbd 0314 6dbc
000002b0: ec23 823c 09a8 a9bc 295a fcbc d02b 99bc
000002c0: 930f 74bd be9e f03c d237 273d 1a5d 55bd
000002d0: 7de8 7d3b 0b4c 093d 5340 383c 6e94 cabc
000002e0: c556 e83c e28c 143d f84f 053d 394b 18bc
000002f0: ea40 35bd 1a63 a5bc 0aa2 87bc d254 85bc
00000300: 5fad 923d 2fc4 463d 84c5 88bc ebed 9cbc
00000310: 0cc8 a53c b2a0 0e3d b7ee b53c 7534 0f3d
00000320: 5b4d 88bd 0d31 9fbc edd2 583d aba7 ca3c
00000330: 7274 cfbb 16e1 4bbd b14a 00bd a147 8ebd
00000340: 5f63 1bbd df2a 753b cc1b 523d 0c4b 1f3d
00000350: 01a8 66bd a487 4cbd bf9a 01bc 7510 7a3d
00000360: 03bf 813c 2f83 2cbc 2023 393d 2325 2cbd
00000370: f2db 1dbd 6e34 763d 1fc2 bbbc 9d19 e9bb
00000380: 06d4 76bd ab6f f83c 8537 113d f86e 033d
00000390: 10e6 e5bc dc7f 7dbd 5933 4fbd 3b4b 163d
000003a0: 4565 ac3c 1ee8 f53c 82e1 0c3d ce84 ac3c
000003b0: fcb8 8cb9 4fc1 25bd ae5e 46bd 8678 52bd
000003c0: 80fd da3c 424f afbc 777e 96bc 3efa 2cbd
000003d0: c3c7 b5bb 886a 15bd 3ae6 51bd 35a1 943c
000003e0: b0ae cfbc bf8a 233d 7392 abbc e7ec 74bd
000003f0: 7008 19bb d219 d8bc 358a 83bc 778b 7cbd

fc_mu.0.bias f4 [128]
0.10084806 -0.06666885 -0.012266885 0.013261618 0.08698787 0.024254642 -0.0034333267 -0.08684301
-0.0032928998 -0.019366574 0.123191185 -0.061964363 -0.0034425193 0.04801142 0.12157969 0.04013271
-0.0848059 0.041860763 0.04170015 -0.025240773 -0.004182713 -0.10427227 -0.041679867 0.0581818
0.10209098 0.027500635 -0.032130193 0.047852904 -0.013309541 -0.07433776 -0.053215668 -0.022811452
0.07039877 -0.0008645647 0.12696283 -0.020459004 0.06924559 -0.05856415 -0.079717025 0.04141405
0.044375353 0.0032000665 0.07954677 -0.074156344 0.16859639 0.04566503 0.0111744115 0.032060593
-0.110326014 0.07964489 0.009554343 0.033659037 0.07646466 -0.09178372 0.095741324 -0.012394394
-0.07344512 0.09509882 -0.028730998 0.024084542 0.018607493 -0.05206083 0.092931174 0.0056653623
0.067453474 0.021361368 -0.07552096 -0.019954938 -0.0052129943 0.0094212545 -0.060429405 0.092926376
-0.04012411 -0.018053455 0.005762157 -0.031357247 0.08615329 -0.020264717 0.015440708 -0.03041937
0.036377672 -0.06951919 0.07911577 -0.108406186 -0.12263399 0.02209881 -0.072395146 0.18198137
0.11332029 -0.049143456 0.06893651 -0.008089929 0.040286735 -0.039618563 0.04219816 0.0010708416
0.017126895 0.034707952 -0.09923793 0.07069693 0.0901506 0.10257642 0.040736254 0.012815958
0.06126723 0.075506344 -0.047505368 0.014478026 -0.066589855 0.020252747 -0.013733591 -0.07719443
0.011502708 0.07524482 -0.06020897 -0.032720126 -0.04671895 0.021203935 -0.074561745 -0.014435297
0.071792044 -0.0801994 -0.014695781 -0.030711131 0.080087356 -0.02541454 0.107261814 -0.10454615
00000000: 6d89 ce3d ae89 88bd 0bfb 48bc 4247 593c
00000010: b226 b23d acb1 c63c aa01 61bb bfda b1bd
00000020: b1cd 57bb a6a6 9ebc a94b fc3d 58ce 7dbd
00000030: e49b 61bb 9fa7 443d c6fe f83d 3262 243d
00000040: b7ae adbd 3176 2b3d c7cd 2a3d bdc5 cebc
00000050: 240f 89bb b38c d5bd 82b8 2abd 0a50 6e3d
00000060: 1315 d13d 0349 e13c f39a 03bd 6801 443d
00000070: 4310 5abc 653e 98bd acf8 59bd 15df babc
00000080: 3b2d 903d f4a3 62ba 8b02 023e a499 a7bc
00000090: a2d0 8d3d f6e0 6fbd ae42 a3bd c7a1 293d
000000a0: eec2 353d 35b8 513b 6be9 a23d 48df 97bd
000000b0: 88a4 2c3e 410b 3b3d e114 373c f851 033d
000000c0: 9bf2 e1bd dc1c a33d d289 1c3c 0fde 093d
000000d0: 8199 9c3d 1af9 bbbd 0714 c43d db11 4bbc
000000e0: 656a 96bd 2cc3 c23d 455d ebbc f24c c53c
000000f0: be6e 983c bd3d 55bd b352 be3d 81a4 b93b
00000100: 0c25 8a3d 09fe ae3c bcaa 9abd 8a78 a3bc
00000110: c4d1 aabb 9b5b 1a3c d384 77bd 2f50 be3d
00000120: 2e59 24bd d7e4 93bc 7ad0 bc3b 7570 00bd
00000130: 2371 b03d 3102 a6bc 06fb 7c3c 0b32 f9bc
00000140: c100 153d 1460 8ebd 7307 a23d 1004 debd
00000150: 8827 fbbd 9008 b53c e843 94bd 5359 3a3e
00000160: 7814 e83d a64a 49bd 962e 8d3d 9f8b 04bc
00000170: b403 253d 1347 22bd fad7 2c3d 7b5b 8c3a
00000180: b44d 8c3c ed29 0e3d 413d cbbd 8dc9 903d
00000190: e1a0 b83d 9613 d23d 0fdb 263d 06fa 513c
000001a0: 59f3 7a3d 12a3 9a3d fd94 42bd 3e35 6d3c
000001b0: 4360 88bd 17e9 a53c db02 61bc 1d18 9ebd
000001c0: db75 3c3c f519 9a3d ae9d 76bd 8a05 06bd
000001d0: 5f5c 3fbd e0b3 ad3c d4b3 98bd 0682 6cbc
000001e0: b507 933d 953f a4bd 93c6 70bc e995 fbbc
000001f0: d704 a43d 2732 d0bc 15ac db3d 4b1c d6bd

fc_mu.2.weight f4 [64, 128]
-0.0092695905 -0.043054443 0.06878045 -0.06879352 -0.06183443 0.04028461 -0.08065008 -0.010517733
0.014864188 -0.027970208 0.049906276 -0.1065074 -0.04073016 -0.08684414 -0.0046797553 0.058992393
-0.10404567 -0.06708215 -0.09774624 -0.060658593 0.00045096615 -0.039289013 -0.09305376 -0.0694539
-0.08212006 -0.04366617 -0.09014519 -0.104608 -0.098841615 0.05168767 0.04558636 -0.057676293
-0.009262368 -0.028789116 -0.05367946 0.016162828 -0.07315956 -0.02748137 0.02808039 -0.11106805
0.038747277 0.011041592 0.013142708 -0.041288603 -0.06803144 -0.06675006 -0.0879179 -0.103833206
-0.044166163 -0.01763779 -0.105468675 0.056093805 -0.08439297 -0.025079539 -0.06154067 0.06704559
-0.06405883 -0.009424427 -0.00886583 0.0025933366 -0.090994194 -0.06737266 -0.03153804 -0.10480109
-0.06909213 -0.09684555 0.00557673 -0.012014709 -0.08781881 0.059938483 0.014182282 -0.07607147
-0.024867106 0.018568799 -0.060818955 0.00934643 -0.010465511 -0.07089707 -0.064923115 -0.026659036
-0.09829238 0.049671523 -0.0107544735 -0.05388077 -0.023268266 -0.013181116 0.004098548 0.04912993
-0.087260224 -0.060126852 0.016968485 -0.076279774 -0.032262795 -0.04479972 0.022339616 -0.06869784
0.045905568 0.0005970031 -0.08144934 -0.04628197 -0.055534206 -0.09973564 -0.106741495 0.038621567
0.028046625 -0.08368105 -0.022765195 -0.009532888 0.0079539465 0.031276565 0.033632744 0.034283176
-0.08803857 -0.052267116 0.0003171522 -0.097758 -0.10833155 0.026515942 0.033809833 -0.009047628
0.0338325 0.01387017 -0.023912268 -0.05040387 -0.021147417 -0.05770524 0.043477893 0.047907345
-0.0409937 0.016241336 -0.032527823 0.05317524 -0.07010483 -0.007437645 -0.014520335 0.037486486
-0.0033748997 0.00023075617 -0.08462381 -0.06395918 0.06951318 -0.02722686 0.025356535 -0.06576881
0.031269155 -0.03876124 -0.014435197 0.062324226 0.046938714 -0.08479345 -0.03446116 0.03772494
-0.01326924 0.03364908 0.028219415 -0.025910227 -0.059921708 -0.02127792 0.059238374 0.051270723
-0.040345263 -0.016454445 0.01714108 -0.06803045 0.0051421653 0.016454749 0.06270613 -0.024576843
0.06289729 0.07909558 -0.05870541 0.0033105896 0.026827892 -0.021189047 -0.061299246 -0.018843632
0.017682906 -0.07840852 -0.06528673 -0.06905958 -0.06268133 0.054400127 -0.038349014 -0.0072898404
-0.027383883 -0.05610866 0.05370851 -0.04113077 0.03179857 -0.052256696 0.06612831 0.016769594
-0.026605645 -0.010630176 0.0148090925 -0.046930745 -0.03196533 -0.07109363 -0.048840046 0.025251126
-0.0015377601 -0.039396096 -0.00968489 0.041035406 0.059843466 -0.040877122 0.021280913 0.009197405
-0.04059449 0.005874186 -0.014233138 0.026280573 0.04829203 0.040570706 0.0060247383 -0.058749348
-0.069696926 0.0272145 -0.050668266 -0.016073108 0.03811375 0.028130457 -0.01951746 0.008320041
0.00020169486 -0.0076817228 0.04291871 -0.06386352 0.06365774 -0.015087323 0.06603142 -0.03154495
0.03805627 -0.05449907 -0.07828602 0.036463533 0.015596931 0.047589008 0.015045899 -0.053881694
-0.04705261 0.058448628 -0.033165645 -0.044736054 -0.0782151 -0.03482547 -0.038660802 -0.086533196
0.058472354 0.008516022 0.01777105 -0.053537946 -0.0061682938 0.027436433 -0.036621083 0.049129836
00000000: 7bdf 17bc db59 30bd c4dc 8c3d 9ee3 8cbd
00000010: 1946 7dbd 7a01 253d df2b a5bd 9252 2cbc
00000020: ec88 733c c721 e5bc 866a 4c3d 8d20 dabd
00000030: abd4 26bd 57db b1bd a258 99bb 02a2 713d
00000040: e515 d5bd 5e62 89bd 2e2f c8bd 2575 78bd
00000050: a76f ec39 84ed 20bd f892 bebd d93d 8ebd
00000060: 902e a8bd 4cdb 32bd 0b9e b8bd b83c d6bd
00000070: 796d cabd 73b6 533d c3b8 3a3d fa3d 6cbd
00000080: 30c1 17bc 27d7 ebbc fede 5bbd e867 843c
00000090: aed4 95bd 9c20 e1bc d908 e63c a577 e3bd
000000a0: 77b5 1e3d cbe7 343c 8354 573c 3d1e 29bd
000000b0: 1154 8bbd 41b4 88bd 4d0e b4bd 81a6 d4bd
000000c0: 94e7 34bd 207d 90bc f6ff d7bd 9ec2 653d
000000d0: 39d6 acbd 9b73 cdbc 1212 7cbd 334f 893d
000000e0: 4731 83bd e968 1abc fc41 11bc f8f4 293b
000000f0: 2a5b babd adfa 89bd 082e 01bd f4a1 d6bd
00000100: 2d80 8dbd f656 c6bd 00bd b63b 58d9 44bc
00000110: 59da b3bd 0e82 753d cd5c 683c 5ccb 9bbd
00000120: 1ab6 cbbc 981d 983c 4c1d 79bd c521 193c
00000130: 8977 2bbc 7c32 91bd 69f6 84bd 0d64 dabc
00000140: 844d c9bd 5e74 4b3d 8833 30bc 15b2 5cbd
00000150: 179d bebc 9cf5 57bc 1d4d 863b 773c 493d
00000160: 7db5 b2bd 9347 76bd 7e01 8b3c 9238 9cbd
00000170: fe25 04bd e97f 37bd 9201 b73c 74b1 8cbd
00000180: 7a07 3c3d 3380 1c3a e9ce a6bd 2a92 3dbd
00000190: d677 63bd 3342 ccbd 499b dabd a631 1e3d
000001a0: 09c2 e53c f860 abbd 137e babc d52f 1cbc
000001b0: 4551 023c db1b 003d 7dc2 093d 846c 0c3d
000001c0: 914d b4bd 0b16 56bd 7347 a639 5935 c8bd
000001d0: efdc ddbd f637 d93c 2e7c 0a3d 813c 14bc
000001e0: f393 0a3d b63f 633c a9e3 c3bc 4a74 4ebd
000001f0: 593d adbc 545c 6cbd e015 323d 7e3a 443d
00000200: 03e9 27bd 8d0c 853c e53b 05bd 48ce 593d
00000210: 1f93 8fbd 7db7 f3bb b3e6 6dbc 6e8b 193d
00000220: 6c2d 5dbb 23f7 7139 404f adbd 08fd 82bd
00000230: ed5c 8e3d dd0a dfbc 82b8 cf3c ccb1 86bd
00000240: 1614 003d 1bc4 1ebd 9b81 6cbc b047 7f3d
00000250: cf42 403d 30a8 adbd 2527 0dbd 7785 1a3d
00000260: 3a67 59bc 9ed3 093d 672c e73c af41 d4bc
00000270: 7770 75bd 084f aebc f0a3 723d 4001 523d
00000280: 1341 25bd 79cb 86bc 736b 8c3c 8c53 8bbd
00000290: 9c7f a83b 1ccc 863c 126c 803d 6055 c9bc
000002a0: 4bd0 803d ddfc a13d 1675 70bd 7af6 583b
000002b0: 2bc6 db3c a794 adbc eb14 7bbd f65d 9abc
000002c0: bedb 903c a594 a0bd 0db5 85bd 1c6f 8dbd
000002d0: 125f 80bd abd2 5e3d db13 1dbd 9ddf eebb
000002e0: 2a54 e0bc 32d2 65bd 74fd 5b3d bd78 28bd
000002f0: 383f 023d 1e0b 56bd 486e 873d 6360 893c
00000300: 15f4 d9bc 312a 2ebc d6a1 723c 743a 40bd
00000310: 14ee 02bd 8999 91bd 800c 48bd 73db ce3c
00000320: ab8e c9ba cd5d 21bd 5fad 1ebc be14 283d
00000330: 6c1e 753d c56e 27bd 4f55 ae3c b6b0 163c
00000340: 6846 26bd 3e7c c03b 1c32 69bc 5b4a d73c
00000350: ddcd 453d 782d 263d 2b6b c53b 28a3 70bd
00000360: 43bd 8ebd f1f0 de3c 8789 4fbd c0ab 83bc
00000370: 2a1d 1c3d d871 e63c 15e3 9fbc c850 083c
00000380: 0d7e 5339 f6b6 fbbb 87cb 2f3d e1ca 82bd
00000390: fd5e 823d d230 77bc 7b3b 873d 4735 01bd
000003a0: e4e0 1b3d 6b3a 5fbd 6c54 a0bd c95a 153d
000003b0: 458a 7f3c b1ec 423d 1383 763c 0db3 5cbd
000003c0: 3dba 40bd d467 6f3d b3d8 07bd 273d 37bd
000003d0: 3d2f a0bd 27a5 0ebd ca5a 1ebd 5138 b1bd
000003e0: b580 6f3d c986 0b3c 9894 913c 9b4a 5bbd
000003f0: 661f cabb 5fc2 e03c fdff 15bd 5e3c 493d

fc_mu.2.bias f4 [64]
0.03635731 0.0018802506 0.018780328 -0.05074367 -0.07932278 -0.0012527702 0.006643272 0.04215263
-0.02208254 0.021909527 0.036825687 -0.02986972 -0.07924989 -0.10443547 0.037997898 -0.11613226
0.0020434598 -0.06692687 -0.019158512 0.019021675 -0.103523076 0.032768298 -0.0266327 0.032227144
-0.0036763912 0.01801368 -0.03645713 -0.07354121 0.0139166415 -0.11194126 -0.07759584 -0.031492032
0.058572132 -0.017056031 -0.06041443 0.038028423 0.0072630043 0.0031172368 0.054877408 0.036216773
0.0034256696 -0.107670896 0.005372643 0.016471028 -0.087664254 0.029025529 0.05943498 0.0052105263
0.028627876 0.022481153 -0.04868799 -0.10535008 -0.050677255 0.019422939 -0.09830853 0.051728647
-0.0016339143 -0.048493758 0.034524884 -0.09892685 -0.017169245 -0.11814906 0.005492116 -0.022691842
00000000: 67eb 143d be72 f63a 34d9 993c 98d8 4fbd
00000010: fb73 a2bd fe33 a4ba ceaf d93b 3ca8 2c3d
00000020: 71e6 b4bc 9c7b b33c 88d6 163d 58b1 f4bc
00000030: c44d a2bd 44e2 d5bd afa3 1b3d c0d6 edbd
00000040: 91eb 053b f410 89bd 50f2 9cbc 58d3 9b3c
00000050: e803 d4bd 0d38 063d d22c dabc 9c00 043d
00000060: 9cef 70bb 6d91 933c 1254 15bd c69c 96bd
00000070: a002 643c 7641 e5bd 91ea 9ebd cafd 00bd
00000080: 55e9 6f3d 17b9 8bbc 1f75 77bd b1c3 1b3d
00000090: 7ffe ed3b 8e4a 4c3b 22c7 603d 0a58 143d
000000a0: 3381 603b 8f82 dcbd ff0c b03b 40ee 863c
000000b0: 5189 b3bd f2c6 ed3c 1872 733d 10bd aa3b
000000c0: 0285 ea3c 652a b83c 0f6d 47bd c8c1 d7bd
000000d0: f492 4fbd db1c 9f3c fc55 c9bd 6be1 533d
000000e0: 1129 d6ba 64a1 46bd f769 0d3d 299a cabd
000000f0: 84a6 8cbc 22f8 f1bd 35f7 b33b 3ee4 b9bc

fc_mu.4.weight f4 [32, 64]
0.08476836 -0.0485983 0.09167814 -0.1077195 0.106850736 0.059166934 0.039246716 -0.07841414
-0.0528021 -0.010703744 0.06542219 0.09542674 0.11539093 0.033767685 -0.018178733 -0.091331035
0.006564827 0.02450461 -0.035206333 0.056418385 -0.06920661 0.028958082 0.009145415 -0.07465469
-0.100748844 -0.080146454 0.12252436 -0.0338611 0.04200883 -0.025456857 0.029281743 -0.094272606
0.06273095 0.101710826 0.0027885637 0.019791752 -0.08248158 -0.06482161 -0.07674831 0.11987537
0.0034539157 0.04487631 -0.0034193972 0.069302015 0.098134324 -0.078995034 -0.07064601 -0.026803441
0.013307821 -0.01282842 0.053961486 0.06527255 0.03285768 -0.09652681 -0.0635091 0.07182831
-0.03913244 -0.064414576 -0.01786585 0.09939765 0.04423637 -0.036375046 0.11257846 -0.015629513
0.105185926 0.10447999 -0.08032073 -0.017571753 0.088504784 -0.11125392 0.0791669 0.09522862
0.118756376 -0.055811837 0.09763836 0.026409822 0.09249338 0.054979138 0.0054494226 -0.109330684
-0.07228723 0.09278815 0.047153343 -0.03406018 0.10158543 -0.08217177 0.08634382 0.11259481
-0.044787053 0.030025385 0.06395483 -0.02812364 0.01918195 0.06011599 -0.034741636 -0.07007185
0.040033236 -0.09556799 -0.10395083 0.0053399326 -0.052219782 0.030558402 0.032206427 -0.097316384
-0.06674342 0.11894211 -0.01008889 -0.0037983255 -0.05415579 0.0404292 0.04561424 0.037232988
-0.03733562 0.059738982 0.070020504 0.102158904 -0.10609096 0.050060313 -0.039280392 -0.034686137
-0.082591645 0.02765205 -0.08829877 -0.07189086 -0.0016439267 0.040952895 0.054915894 0.06514214
-0.12311155 -0.05546128 0.015975084 -0.08945393 -0.066247895 -0.053148136 0.05351638 0.048679776
-0.046172258 -0.06409868 0.019128548 0.030925935 0.099218525 0.08202923 -0.033700716 -0.014442137
0.058735784 0.029614063 0.05083088 0.10288551 0.036145832 -0.00939609 -0.114374876 -0.057120807
0.05178752 0.10098799 0.033954363 -0.086240664 -0.09584519 0.10980639 -0.04335937 -0.034569357
-0.025838282 0.06491981 0.10263913 0.040961772 0.07819362 0.09593729 -0.11601224 -0.0496205
-0.07059168 0.058500517 0.08163068 0.019567546 0.07396961 -0.120167695 -0.024503307 0.008005499
-0.0058768704 0.090443626 -0.053501192 0.09254824 -0.03325133 0.001914667 0.01395951 0.09116535
-0.0242913 -0.01231542 0.07884348 0.11576907 -0.060301863 0.031583168 -0.0023657593 -0.120389424
-0.10992878 -0.0340608 -0.030930152 0.017450266 -0.06566521 0.023003649 0.112896666 0.0071314275
0.066626236 -0.079696946 0.094170794 -0.033137877 0.10368987 -0.043988653 0.011682748 0.011449921
0.016585689 -0.0012710809 -0.024089737 -0.033900525 0.07345645 0.099160016 0.11647126 -0.06776165
0.09483066 0.10096761 0.053507395 -0.013462888 -0.084863484 -0.039206788 -0.1165019 0.062719546
0.075197056 0.03753297 -0.11674976 0.03724599 -0.07188587 -0.062063552 -0.10433029 0.091552675
0.06203085 0.101689555 0.100335956 -0.059893183 0.0708041 0.08618899 0.025135843 -0.11967334
-0.025270736 -0.12254517 -0.019331416 0.09101292 -0.0057312804 -0.10589301 0.099116236 -0.02928794
0.059164047 -0.024317695 -0.0756667 0.02553035 0.016355518 0.034648035 -0.006354611 0.08271076
00000000: 099b ad3d 030f 47bd c0c1 bb3d 0b9c dcbd
00000010: 8fd4 da3d 0759 723d 2ac1 203d 9897 a0bd
00000020: 0447 58bd c25e 2fbc 12fc 853d 186f c33d
00000030: 1452 ec3d fc4f 0a3d 91eb 94bc c40b bbbd
00000040: c31d d73b e4bd c83c 8434 10bd f716 673d
00000050: 32bc 8dbd 8039 ed3c a7d6 153c 8fe4 98bd
00000060: 6955 cebd d323 a4bd 0dee fa3d f0b1 0abd
00000070: 7311 2c3d e68a d0bc 44e0 ef3c ff11 c1bd
00000080: 1679 803d c44d d03d 56c0 363b 5022 a23c
00000090: 1aec a8bd 31c1 84bd 382e 9dbd 3881 f53d
000000a0: 175b 623b 39d0 373d f717 60bb 37ee 8d3d
000000b0: a6fa c83d 26c8 a1bd dbae 90bd e492 dbbc
000000c0: 0c09 5a3c 4b2e 52bc b806 5d3d 9dad 853d
000000d0: c695 063d d9af c5bd 0f11 82bd b91a 933d
000000e0: 5649 20bd caeb 83bd 675b 92bc ff90 cb3d
000000f0: 3231 353d 00fe 14bd 898f e63d 7709 80bc
00000100: b86b d73d 9bf9 d53d 327f a4bd a3f2 8fbc
00000110: ff41 b53d 18d9 e3bd 4122 a23d 3907 c33d
00000120: 8b36 f33d f49a 64bd 9ff6 c73d 6959 d83c
00000130: 2b6d bd3d ce31 613d 1291 b23b c4e8 dfbd
00000140: 540b 94bd b707 be3d dd23 413d b082 0bbd
00000150: 060c d03d ac49 a8bd 07d5 b03d 1c98 e63d
00000160: a172 37bd ccf7 f53c c0fa 823d 8c63 e6bc
00000170: 7723 9d3c 2f3c 763d 3f4d 0ebd d581 8fbd
00000180: e4f9 233d 26b9 c3bd 2ce4 d4bd 9afa ae3b
00000190: 69e4 55bd 9d55 fa3c e3ea 033d d04d c7bd
000001a0: c6b0 88bd ec97 f33d df4b 25bc 54ed 78bb
000001b0: 76d2 5dbd 1799 253d ffd5 3a3d 9e81 183d
000001c0: 3ced 18bd ddb0 743d e966 8f3d b038 d13d
000001d0: 3846 d9bd 0b0c 4d3d 7ae4 20bd 0d13 0ebd
000001e0: cf25 a9bd 8d86 e23c fcd5 b4bd 843b 93bd
000001f0: 0779 d7ba 39be 273d 7def 603d 3e69 853d
00000200: e921 fcbd 5e2b 63bd 2ede 823c 9f33 b7bd
00000210: faac 87bd dcb1 59bd fe33 5b3d 7264 473d
00000220: 1f1f 3dbd 2b46 83bd 79b3 9c3c 6358 fd3c
00000230: 1533 cb3d f1fe a73d c309 0abd b79e 6cbc
00000240: ef94 703d 3199 f23c 0a34 503d a3b5 d23d
00000250: a70d 143d 0ff2 19bc 603d eabd 82f7 69bd
00000260: 271f 543d cbd2 ce3d bb13 0b3d f29e b0bd
00000270: 7c4a c4bd 2ce2 e03d 9899 31bd 9998 0dbd
00000280: ceaa d3bc adf4 843d 7734 d23d 88c7 273d
00000290: fa23 a03d c57a c43d d397 edbd de3e 4bbd
000002a0: 5f92 90bd 3d9e 6f3d fc2d a73d 1e4c a03c
000002b0: 617d 973d 7b1a f6bd 29bb c8bc 7f29 033c
000002c0: c392 c0bb 823a b93d 1124 5bbd ef89 bd3d
000002d0: 8c32 08bd 90f5 fa3a 6eb6 643c e6b4 ba3d
000002e0: 8cfe c6bc 9ec6 49bc b178 a13d 5618 ed3d
000002f0: 16ff 76bd 5a5d 013d db0a 1bbb bb8e f6bd
00000300: 5722 e1bd 5683 0bbd 3b61 fdbc dcf3 8e3c
00000310: 7b7b 86bd 2672 bc3c 5e36 e73d c0ae e93b
00000320: 5673 883d 2738 a3bd 9edc c03d 95bb 07bd
00000330: 5b5b d43d 722d 34bd ff68 3f3c 7398 3b3c
00000340: b6de 873c 669a a6ba d757 c5bc 47db 0abd
00000350: 5670 963d 6814 cb3d 7c88 ee3d 9fc6 8abd
00000360: 9436 c23d 1bc8 ce3d 922a 5b3d 7293 5cbc
00000370: e8cc adbd 4c97 20bd 8c98 eebd 1b73 803d
00000380: ea00 9a3d 2cbc 193d 801a efbd 408f 183d
00000390: e638 93bd 5a36 7ebd 1eab d5bd f87f bb3d
000003a0: 1014 7e3d 9d42 d03d f07c cd3d 8e52 75bd
000003b0: bd01 913d da83 b03d afe9 cd3c 4c17 f5bd
000003c0: 9304 cfbc f6f8 fabd eb5c 9ebc fb64 ba3d
000003d0: 77cd bbbb 6fde d8bd 74fd ca3d 43ed efbc
000003e0: 0056 723d e735 c7bc 25f7 9abd 0625 d13c
000003f0: 02fc 853c 19eb 0d3d 573a d0bb 4264 a93d

fc_mu.4.bias f4 [32]
0.0887319 0.024963034 0.0025862625 -0.04688505 0.09659528 0.08937669 0.11153424 -0.0203086
-0.052314073 -0.08836546 -0.12476606 -0.092519745 -0.032807734 0.09061593 -0.1193073 -0.03986206
0.044394393 0.06186549 -0.0069225784 -0.01484782 0.0016293022 -0.083660975 0.0514623 0.05910952
0.021657994 0.08691159 0.06684118 -0.09957845 -0.051363274 -0.095313765 0.045508485 -0.11231714
00000000: 12b9 b53d 477f cc3c 497e 293b 8a0a 40bd
00000010: bfd3 c53d 200b b73d 106c e43d 395e a6bc
00000020: 4847 56bd f3f8 b4bd 5985 ffbd fe7a bdbd
00000030: 6761 06bd d894 b93d 6357 f4bd 6646 23bd
00000040: e5d6 353d ab66 7d3d ccd6 e2bb 4544 73bc
00000050: 4f8e d53a 7256 abbd 22ca 523d d31c 723d
00000060: 1b6c b13c b4fe b13d 07e4 883d c9ef cbbd
00000070: 4c62 52bd dd33 c3bd 1b67 3a3d 8706 e6bd

fc_var.0.weight f4 [128, 105]
-0.012269435 -0.013153308 0.03730128 -0.045566957 -0.055588547 -0.00071974355 0.031059653 -0.055440813
0.026652142 0.012695565 -0.031421434 -0.008163822 0.04509735 -0.0166818 0.073679134 0.009641411
0.03297123 0.022687467 0.06806157 -0.035497755 -0.014800732 0.049275108 -0.061371617 0.023713972
-0.038408708 -0.050072916 0.064977646 0.01628292 0.034206744 -0.039956264 0.008641759 -0.022411857
0.060659368 0.015358533 -0.014760488 -0.061659522 -0.008162403 0.070267685 -0.03990261 0.019627318
-0.05528032 -0.016866857 -0.011806224 0.00013113994 -0.0049945163 -0.02773274 -0.033731148 0.03840768
0.04170716 -0.0069169253 0.024281086 0.07030003 0.01892456 0.007693667 0.008949969 0.070312046
-0.033858318 0.05690153 0.045651346 -0.023593642 -0.039854646 0.028007522 -0.0062647657 0.044307947
-0.010204784 0.031730443 0.032162275 0.020142643 -0.00426443 -0.03141959 0.027588174 -0.0028138745
-0.035930693 0.06901468 -0.014187642 0.045062527 0.011533865 -0.042876743 0.046652682 -0.030182466
0.037238102 -0.05278238 0.02856079 0.046362165 -0.033949934 0.07011437 -0.071616895 0.0105879735
-0.012125511 -0.0052353158 0.019391479 0.03248428 -0.008336513 -0.052986458 -0.054481693 -0.019602312
-0.0030103964 -0.008548971 0.0072100987 -0.069082096 -0.08350017 -0.034138493 -0.042451683 0.047886927
0.0047459383 -0.0031500114 0.0368832 0.022277642 0.050602064 -0.0036246062 0.029392015 0.027260268
0.070170894 0.030903239 0.014907027 0.000937924 0.02716737 -0.0015249387 -0.04554043 -0.025453238
0.0045688394 0.017085776 0.034744225 0.023056243 0.08213619 -0.0003599299 -0.0123755075 0.018073691
-0.025853863 0.034132216 -0.034807734 0.046002537 -0.018996593 0.045778047 -0.02038698 -0.042129222
0.039239466 0.024065724 0.032523856 0.08183204 0.09761627 0.012275688 -0.03396687 0.058118373
-0.011469125 0.025539888 -0.0006582225 0.04715607 0.018385937 0.0012382775 0.029671073 -0.03325072
0.0019841678 -0.052946176 -0.008160506 0.009794773 0.016474549 -0.065277204 0.014154062 0.06186432
-0.023754744 -0.005787853 0.0032736587 0.030588025 -0.036113087 0.028753178 -0.06555752 0.06290915
0.0594982 -0.01664236 0.051458742 0.017623136 -0.018587219 -0.026193053 0.021235716 -0.03400631
0.012532489 -0.024736894 0.008021601 -0.040416606 -0.009652782 0.039575737 -0.06943515 -0.067646794
0.07934177 -0.04450008 0.0390468 -0.09159221 0.029951807 -0.049064644 0.0283463 0.013967495
0.048867073 -0.05036622 0.048183393 -0.028938025 -0.0577336 -0.02454733 0.017948762 0.048305716
-0.00039510432 -0.07952331 -0.009837584 -0.072217494 0.05564324 0.029635306 -0.042960454 0.031303406
-0.01996352 0.048512384 0.04533119 0.053661462 0.023863524 -0.034937773 -0.0038998537 -0.04457965
0.014131405 -0.015997296 -0.0800563 -0.018262446 -0.029709011 -0.0537973 0.018056782 -0.0016053892
-0.065593325 -0.012131785 0.046449393 -0.010260332 0.017680839 0.035028838 -0.0533046 0.0060312804
-0.058604404 -0.04327174 0.039000306 0.04171131 0.03338788 0.016347181 -0.045593277 0.0233468
-0.03701567 0.056285158 -0.030355228 -0.056936428 0.019813322 0.009653176 -0.065552056 -0.009359929
-0.012868507 -0.024253696 -0.058164302 0.04839316 -0.069069296 0.028177148 0.0066016554 -0.0112082055
00000000: be05 49bc f980 57bc 3ac9 183d 6ba4 3abd
00000010: d1b0 63bd 2cad 3cba d070 fe3c e815 63bd
00000020: 9855 da3c 0f01 503c c3b3 00bd 8dc1 05bc
00000030: 00b8 383d 45a8 88bc 16e5 963d 02f7 1d3c
00000040: d70c 073d 11db b93c dd63 8b3d 1866 11bd
00000050: c57e 72bc b2d4 493d ce60 7bbd ce43 c23c
00000060: 7352 1dbd 4219 4dbd 0013 853d c263 853c
00000070: 5f1c 0c3d 2ea9 23bd 2a96 0d3c 1299 b7bc
00000080: f575 783d 5ba2 7b3c f9d5 71bc b28e 7cbd
00000090: 99bb 05bc 81e8 8f3d eb70 23bd 78c9 a03c
000000a0: 9e6d 62bd 5d2c 8abc e46e 41bc 9c82 0939
000000b0: 0aa9 a3bb c52f e3bc ac29 0abd 5f51 1d3d
000000c0: 21d5 2a3d 60a7 e2bb 21e9 c63c 76f9 8f3d
000000d0: ae07 9b3c 281b fc3b e4a2 123c c3ff 8f3d
000000e0: 05af 0abd 9411 693d e8fc 3a3d 7447 c1bc
000000f0: a03e 23bd 0870 e53c aa48 cdbb 407c 353d
00000100: f731 27bc c8f7 013d 97bc 033d 2f02 a53c
00000110: a2bc 8bbb d4b1 00bd 9800 e23c fb68 38bb
00000120: 102c 13bd 9257 8d3d 4973 68bc 7c93 383d
00000130: 89f8 3c3c 869f 2fbd e216 3f3d 3841 f7bc
00000140: fb86 183d 5632 58bd 51f8 e93c 41e6 3d3d
00000150: 160f 0bbd 1f98 8f3d e1ab 92bd 2e79 2d3c
00000160: 14aa 46bc 038d abbb e1da 9e3c 3d0e 053d
00000170: df95 08bc 5408 59bd 3228 5fbd 0795 a0bc
00000180: 124a 45bb fc10 0cbc b142 ec3b ea7a 8dbd
00000190: 2302 abbd ced4 0bbd d1e1 2dbd 1525 443d
000001a0: d183 9b3b 6c70 4ebb d712 173d 9a7f b63c
000001b0: 1c44 4f3d cd8a 6dbb 86c7 f03c ed50 df3c
000001c0: c2b5 8f3d ca28 fd3c 9a3c 743c 04df 753a
000001d0: 1b8e de3c 74e0 c7ba 9a88 3abd 4f83 d0bc
000001e0: 34b6 953b 78f7 8b3c f64f 0e3d 72e0 bc3c
000001f0: 0537 a83d f9b4 bcb9 a4c2 4abc 470f 943c
00000200: 7bcb d3bc 39ce 0b3d 8e92 0ebd 286d 3c3d
00000210: be9e 9bbc c381 3b3d 9902 a7bc b18f 2cbd
00000220: 90b9 203d 7b25 c53c bc37 053d 8e97 a73d
00000230: 0aeb c73d f81f 493c d820 0bbd 880d 6e3d
00000240: ffe8 3bbc 0739 d13c 908c 2cba b926 413d
00000250: 1b9e 963c b34d a23a c010 f33c e831 08bd
00000260: d008 023b 17de 58bd a5b3 05bc 417a 203c
00000270: a2f5 863c 0eb0 85bd 70e6 673c 7165 7d3d
00000280: 4f99 c2bc 08a8 bdbb e18a 563b bd93 fa3c
00000290: 51eb 13bd c98b eb3c 0543 86bd 83d6 803d
000002a0: 62b4 733d 8f55 88bc 67c6 523d 655e 903c
000002b0: 3944 98bc d092 d6bc 86f6 ad3c 334a 0bbd
000002c0: 1255 4d3c 07a5 cabc 086d 033c e28b 25bd
000002d0: b426 1ebc 2b1a 223d 0434 8ebd 678a 8abd
000002e0: f07d a23d b745 36bd 8aef 1f3d b294 bbbd
000002f0: 7e5d f53c 02f8 48bd 8036 e83c ecd7 643c
00000300: d728 483d cf4c 4ebd f35b 453d 700f edbc
00000310: 117a 6cbd 7b17 c9bc 4809 933c 37dc 453d
00000320: 0126 cfb9 1edd a2bd d12d 21bc c4e6 93bd
00000330: 2bea 633d bec5 f23c 4df7 2fbd 0038 003d
00000340: 898a a3bc ecb4 463d 33ad 393d 1fcc 5b3d
00000350: 707d c33c e91a 0fbd b094 7fbb 2799 36bd
00000360: 6987 673c c30c 83bc 8ff4 a3bd 209b 95bc
00000370: 5060 f3bc 8f5a 5cbd d1eb 933c ec6b d2ba
00000380: cb55 86bd 65c4 46bc b841 3e3d f41a 28bc
00000390: 68d7 903c 667a 0f3d ed55 5abd 0ca2 c53b
000003a0: 2c0b 70bd b53d 31bd c9be 1f3d 7bd9 2a3d
000003b0: bbc1 083d 86ea 853c 04c0 3abd ca41 bf3c
000003c0: be9d 17bd 448b 663d 87ab f8bc 2c36 69bd
000003d0: 8c4f a23c 5b28 1e3c 2840 86bd 635a 19bc
000003e0: 6ed6 52bc b0af c6bc b13d 6ebd e837 463d
000003f0: 3474 8dbd c3d3 e63c b352 d83b 9fa2 37bc

fc_var.0.bias f4 [128]
0.013643729 0.01808559 -0.112436615 0.010277481 -0.01523265 -0.040551893 0.012897343 0.069110356
-0.08644386 -0.078475356 0.012987973 0.020297937 -0.08631139 -0.0582127 -0.051109787 -0.04332898
-0.112084 -0.019472724 0.031014485 -0.046397664 -0.07970453 -0.013774486 -0.036443792 0.0028540695
0.116934426 -0.025696969 0.072672896 0.017758308 -0.016527796 0.09967173 -0.030928358 -0.10976605
0.07750357 0.08016002 -0.004363123 -0.09357319 0.10501481 -0.034750912 0.10222241 -0.10541989
-0.07549281 0.0290465 0.08457493 -0.019341037 0.077013545 -0.018465035 0.080796696 -0.07586107
0.034960233 -0.012260982 0.041768614 -0.09074859 -0.026787752 0.071283236 -0.027714124 0.06636337
-0.116238646 -0.015100259 0.0028594641 0.025497135 0.10304983 -0.06825102 0.04436296 -0.09451218
-0.010350276 -0.079627395 0.058680236 -0.10617496 0.14109537 0.076562636 -0.077609465 -0.021431742
0.028092533 -0.022463782 0.085244335 0.06827793 -0.0895553 -0.005797946 -0.0938256 -0.03707926
0.04115806 0.091581 0.059586808 0.055644996 0.03344923 0.05368219 0.038251746 0.02184644
-0.0634934 -0.03950989 -0.04217823 -0.03149824 -0.0034252584 -0.028325465 0.13237856 -0.015496993
-0.08916584 0.044957664 0.02845265 0.022019437 -0.03299967 0.07377817 -0.006746249 -0.14836773
-0.00780282 -0.038360346 0.067912124 -0.07403954 0.12726417 0.017877575 -0.08138218 -0.06370261
-0.0325341 -0.007026458 0.087241665 0.06318299 0.1098928 0.0022534847 0.041338183 0.07416474
0.06368889 0.05802998 -0.022320956 0.05588705 -0.056054894 -0.03318102 0.016453171 -0.06170835
00000000: f289 5f3c 3b28 943c 2b45 e6bd e162 283c
00000010: 5d92 79bc be19 26bd 614f 533c bb89 8d3d
00000020: 7a09 b1bd b0b7 a0bd 82cb 543c dc47 a63c
00000030: 07c4 b0bd 7170 6ebd 7f58 51bd bb79 31bd
00000040: 4c8c e5bd 4385 9fbc 1712 fe3c 7a0b 3ebd
00000050: 213c a3bd 62ae 61bc 1646 15bd 570b 3b3b
00000060: 517b ef3d 7382 d2bc 87d5 943d df79 913c
00000070: 4d65 87bc b120 cc3d 785d fdbc 06cd e0bd
00000080: 31ba 9e3d f02a a43d 87f8 8ebb 4da3 bfbd
00000090: 0112 d73d f956 0ebd fc59 d13d 62e6 d7bd
000000a0: f99b 9abd edf2 ed3c 9f35 ad3d 1871 9ebc
000000b0: 47b9 9d3d fc43 97bc bd78 a53d 0c5d 9bbd
000000c0: 7632 0f3d 49e2 48bc 9115 2b3d 66da b9bd
000000d0: fd71 dbbc f2fc 913d bb08 e3bc 85e9 873d
000000e0: 870e eebd 1467 77bc d965 3b3b 5edf d03c
000000f0: ca0b d33d 31c7 8bbd efb5 353d 9a8f c1bd
00000100: 3494 29bc b013 a3bd b05a 703d 4272 d9bd
00000110: 4e7b 103e dfcc 9c3d b6f1 9ebd 9f91 afbc
00000120: 5022 e63c f705 b8bc 9594 ae3d 4dd5 8b3d
00000130: c568 b7bd b2fc bdbb a327 c0bd 6ce0 17bd
00000140: 5b95 283d d28e bb3d 4c11 743d 02ec 633d
00000150: 0f02 093d dbe1 5b3d ddad 1c3d 4ef7 b23c
00000160: d408 82bd 1fd5 21bd 14c3 2cbd 4c04 01bd
00000170: 4d7a 60bb ce0a e8bc 3f8e 073e 1ae7 7dbc
00000180: 949c b6bd 8725 383d 8815 e93c 1b62 b43c
00000190: a92a 07bd 0219 973d a30f ddbb b6ed 17be
000001a0: ccae ffbb bd1f 1dbd 8315 8b3d 0ba2 97bd
000001b0: 8a51 023e fe73 923c b3ab a6bd 8476 82bd
000001c0: 7a42 05bd 343e e6bb c2ab b23d 1566 813d
000001d0: 7a0f e13d 33af 133b 3a52 293d afe3 973d
000001e0: 526f 823d d8b0 6d3d 70da b6bc d2e9 643d
000001f0: d199 65bd d2e8 07bd cdc8 863c e5c1 7cbd

fc_var.2.weight f4 [64, 128]
-0.05439237 0.0024224357 0.06503248 -0.07112908 0.009416977 0.06078478 -0.027442 -0.07083328
0.038906254 -0.037132353 -0.047388215 -0.04556953 0.0139759015 -0.019344572 0.02683954 -0.062594846
-0.0023083054 0.040769137 -0.036638923 -0.029833682 -0.07725911 0.054640107 -0.05222481 -0.006803859
-0.06091855 -0.059010502 0.044276234 -0.076350905 0.061376702 -0.087193415 0.018917104 0.035327896
-0.006138403 0.032231905 -0.055530876 -0.0042531327 0.0016734859 -0.0070916684 0.017457183 0.03060435
-0.048472065 0.011845207 -0.0101407105 -0.021201372 -0.059628215 -0.057862192 0.042456463 -0.052475747
-0.0065954193 0.05882251 0.06172215 -0.08387584 -0.036007024 0.02613343 0.05416969 -0.013313961
-0.033597313 -0.057979316 0.004303437 -0.013242314 -0.045340672 -0.0830358 0.0006755423 0.06591297
-0.03960407 -0.0026682555 0.063288644 0.017485626 -0.04255802 -0.03400557 0.038149305 -0.044025727
0.03143227 0.04838248 -0.031889316 0.018321268 0.056389984 0.0472747 0.04649143 -0.022761546
0.063536026 -0.008249127 0.004828995 0.018185133 0.06139888 0.038660686 -0.014302138 0.018128049
-0.074114874 0.043904524 -0.033825286 -0.015319109 -0.006982148 -0.030855639 -0.03869899 0.026637698
0.046047863 -0.07275631 0.009988681 -0.011627964 0.05526228 -0.0660331 -0.041355327 -0.045437906
-0.058495104 0.04549877 0.05057753 0.013977726 -0.040021483 -0.06891904 0.05991766 -0.027738055
-0.013174237 0.066225976 0.026392153 0.030510716 -0.026862634 -0.026457524 0.004081159 -0.019947823
-0.06283428 -0.0059319856 0.045276154 0.05372429 0.033033844 -0.034268115 -0.015202596 0.019923301
-0.0820174 -0.07668402 -0.010823903 -0.09441427 -0.05275812 0.00083993055 -0.09649544 -0.06576594
0.03309136 -0.056773473 -0.006288154 0.05736764 -0.03312331 0.04471655 0.008817801 0.02324497
-0.04283681 -0.013055131 0.009495152 0.015298333 0.013202563 -0.09381483 0.0059852544 -0.10350011
-0.023411453 0.0042756596 -0.07060181 0.038917292 -0.0857617 0.018594777 0.0385528 -0.040368795
-0.060969446 -0.07485055 -0.058573928 0.031311624 -0.042677507 0.048184916 -0.05562369 -0.08617121
-0.07930711 0.049115375 -0.037155792 -0.06485394 0.0080445325 0.05334353 -0.09587218 0.0050848993
-0.029003127 -0.021671126 -0.07064999 1.0459073e-05 -0.021947682 0.033318862 -0.09358079 -0.0016721933
0.008163599 -0.086952105 -0.022494256 0.051195286 0.017423566 -0.08769675 -0.08789093 -0.053093262
0.032639094 -0.060572434 -0.051969588 -0.09127572 -0.030693298 -0.04171668 0.03831098 -0.054611795
-0.04907178 -0.08363028 0.014945529 -0.08737131 -0.0010316456 0.038810898 0.039210867 -0.00012313556
-0.08283661 0.021804603 -0.0761809 0.0613945 0.022067646 -0.07685373 -0.042337734 0.010615041
0.0019984392 -0.057402685 -0.013296018 -0.088245496 -0.0060154963 -0.033252075 -0.06262798 -0.02149707
-0.012028155 0.051391788 -0.02885689 -0.040548313 0.007330669 -0.061847188 0.009719049 0.033757858
-0.010355719 -0.059896093 -0.026501307 -0.012143366 -0.024768826 -0.05483245 -0.04010932 -0.023263594
-0.089821875 0.0065699965 0.03879626 -0.04536095 0.008942646 -0.01916475 0.022570128 0.019681964
-0.03954356 -0.015676351 -0.038899142 -0.026306132 -0.09036768 -0.029081652 -0.044551235 0.050562035
00000000: 89ca 5ebd bac1 1e3b c02f 853d 20ac 91bd
00000010: aa49 1a3c 76f9 783d 0cce e0bc 0a11 91bd
00000020: 2a5c 1f3d 1818 18bd 251a 42bd 1ea7 3abd
00000030: 2efb 643c 8278 9ebc 98de db3c ba31 80bd
00000040: f046 17bb 8afd 263d b212 16bd c465 f4bc
00000050: 063a 9ebd 4ece 5f3d afe9 55bd e8f2 debb
00000060: bb85 79bd ffb4 71bd ff5a 353d dd5d 9cbd
00000070: 2366 7b3d 7692 b2bd 0bf8 9a3c fcb3 103d
00000080: a824 c9bb 9a05 043d 5874 63bd dd5d 8bbb
00000090: de58 db3a 3a61 e8bb 5e02 8f3c f9b5 fa3c
000000a0: a58a 46bd 6612 423c 3925 26bc 80ae adbc
000000b0: b73c 74bd e800 6dbd d4e6 2d3d cff0 56bd
000000c0: 631e d8bb dfef 703d 5dd0 7c3d 19c7 abbd
000000d0: 1a7c 13bd c615 d63c 09e1 5d3d cd22 5abc
000000e0: 569d 09bd b87b 6dbd d903 8d3b 4af6 58bc
000000f0: 24b7 39bd ac0e aabd e016 313a 61fd 863d
00000100: e137 22bd e6dd 2ebb 7a9d 813d 043e 8f3c
00000110: 5251 2ebd 6d49 0bbd 7242 1c3d 5254 34bd
00000120: 20bf 003d b52c 463d 5f9e 02bd 7c16 963c
00000130: 2ff9 663d 1ea3 413d cc6d 3e3d 6c76 babc
00000140: 2d1f 823d 5927 07bc 8c3c 9e3b fdf8 943c
00000150: 647d 7b3d ab5a 1e3d 8453 6abc 4681 943c
00000160: 8ac9 97bd 3bd5 333d 628c 0abd 00fd 7abc
00000170: 81ca e4bb f7c4 fcbc d582 1ebd 4d37 da3c
00000180: af9c 3c3d 4301 95bd 91a7 233c 3783 3ebc
00000190: b35a 623d 5d3c 87bd 3464 29bd 191d 3abd
000001a0: 9098 6fbd eb5c 3a3d 622a 4f3d d502 653c
000001b0: 91ed 23bd 6d25 8dbd 386c 753d eb3a e3bc
000001c0: c1d8 57bc 7ca1 873d 5b34 d83c 9cf1 f93c
000001d0: 070f dcbc 73bd d8bc 3ebb 853b 9e69 a3bc
000001e0: 42af 80bd 1a61 c2bb 7d73 393d 000e 5c3d
000001f0: 7f4e 073d b95c 0cbd 4f14 79bc 3136 a33c
00000200: bdf8 a7bd 830c 9dbd bd56 31bc 455c c1bd
00000210: e618 58bd c92e 5c3a 679f c5bd 4bb0 86bd
00000220: ce8a 073d 4d8b 68bd dc0c cebb 55fa 6a3d
00000230: 4fac 07bd b328 373d 8a78 103c 3c6c be3c
00000240: a775 2fbd 30e5 55bc 8e91 1b3c dca5 7a3c
00000250: 904f 583c fd21 c0bd f41f c43b def7 d3bd
00000260: 60c9 bfbc d51a 8c3b af97 90bd bd67 1f3d
00000270: d5a3 afbd 1354 983c 8ae9 1d3d c059 25bd
00000280: 19bb 79bd 3f4b 99bd 37eb 6fbd 9e40 003d
00000290: 9cce 2ebd 8c5d 453d abd5 63bd 887a b0bd
000002a0: c46b a2bd 342d 493d ac30 18bd 24d2 84bd
000002b0: 37cd 033c bf7e 5a3d a258 c4bd 3a9f a63b
000002c0: f797 edbc a587 b1bc f1b0 90bd 6079 2f37
000002d0: a0cb b3bc 5c79 083d 49a7 bfbd 7f2d dbba
000002e0: 9ec0 053c f213 b2bd e045 b8bc 26b2 513d
000002f0: debb 8e3c 5b9a b3bd 2900 b4bd 5278 59bd
00000300: 92b0 053d cd1a 78bd 10de 54bd c4ee babd
00000310: 8370 fbbc 1cdf 2abd f9eb 1c3d 9eb0 5fbd
00000320: 7eff 48bd 5a46 abbd 18de 743c bbef b2bd
00000330: 4838 87ba 2df8 1e3d 939b 203d f31d 01b9
00000340: 3ea6 a9bd 919f b23c bb04 9cbd cd78 7b3d
00000350: 35c7 b43c 7d65 9dbd 556a 2dbd b5ea 2d3c
00000360: 3ff8 023b 141f 6bbd 8bd7 59bc 0eba b4bd
00000370: a41d c5bb 5433 08bd 1943 80bd a01a b0bc
00000380: bd11 45bc 3280 523d 4965 ecbc fd15 26bd
00000390: 1c36 f03b 7a53 7dbd a53c 1f3c ae45 0a3d
000003a0: 09ab 29bc 9b55 75bd 4519 d9bc f8f4 46bc
000003b0: fee7 cabc fe97 60bd ac49 24bd 4b93 bebc
000003c0: 88f4 b7bd 2049 d73b d4e8 1e3d 67cc 39bd
000003d0: 2d84 123c 65ff 9cbc fde4 b83c 123c a13c
000003e0: 6ef8 21bd b16b 80bc b554 1fbd f57f d7bc
000003f0: b112 b9bd a53c eebc 5b7b 36bd 231a 4f3d

fc_var.2.bias f4 [64]
-0.045779653 -0.011039688 -0.044189315 0.024704333 0.051777076 0.031034106 -0.06337922 0.004660075
0.05297748 -0.026796047 0.021773506 0.06349849 -0.10161703 -0.015516702 -0.08637042 -0.0020974663
0.037148423 -0.09243627 -0.052753683 0.04076669 -0.062016394 0.012921336 -0.003153576 -0.08221092
-0.07807321 -0.081822835 -0.041057814 -0.085997656 -0.036354817 0.017025895 0.034145407 -0.01339656
0.029256959 0.0059351805 0.04429656 -0.09285589 0.013145697 -0.029508993 0.0074425857 -0.11305834
-0.05785041 -0.02968186 0.026572416 -0.04106942 -0.028388867 -0.02819682 -0.033984322 -0.09949764
0.038840022 -0.106364354 -0.11667987 -0.1053932 -0.05888936 -0.100982346 -0.10965428 0.040412113
-0.0610254 -0.06933639 -0.07850713 0.011472698 -0.017172007 0.04280969 -0.013119763 -0.03434112
00000000: 7283 3bbd cfdf 34bc dbff 34bd be60 ca3c
00000010: 3314 543d 3d3b fe3c f7cc 81bd 8bb3 983b
00000020: eafe 583d 6283 dbbc 5a5e b23c 7f0b 823d
00000030: 971c d0bd c439 7ebc fae2 b0bd a575 09bb
00000040: f228 183d 3a4f bdbd 3f14 58bd f9fa 263d
00000050: e704 7ebd 03b4 533c 3aac 4ebb 335e a8bd
00000060: d9e4 9fbd bb92 a7bd 3d2c 28bd 8a1f b0bd
00000070: cae8 14bd e479 8b3c 0edc 0b3d 3f7d 5bbc
00000080: 4aac ef3c e77b c23b 4f70 353d 3b2b bebd
00000090: 0d61 573c d8bc f1bc efe0 f33b 228b e7bd
000000a0: 8df4 6cbd 5f27 f3bc 65ae d93c 6838 28bd
000000b0: c58f e8bc 04fd e6bc 2533 0bbd 6bc5 cbbd
000000c0: b716 1f3d 8ed5 d9bd dbf5 eebd 64d8 d7bd
000000d0: f835 71bd d5cf cebd 6c92 e0bd 2c87 253d
000000e0: c5f5 79bd 3d00 8ebd 59c8 a0bd fcf7 3b3c
000000f0: 4fac 8cbc 3759 2f3d 46f4 56bc 46a9 0cbd

fc_var.4.weight f4 [32, 64]
0.052641455 0.07684494 -0.104950465 -0.09415279 0.0015959919 -0.042099252 -0.031489782 -0.011230081
0.0018507027 0.113483466 0.033711404 -0.039439417 0.016002672 0.07946098 -0.105357654 -0.050936334
-0.09187174 -0.0368627 -0.09236988 0.060146738 0.035596304 -0.017831855 0.07738844 -0.05884188
-0.081218734 0.10970024 0.1144306 -0.059645765 0.011779713 -0.013220063 -0.03624537 0.017604008
0.0065628043 -0.047847122 0.08174512 -0.05062579 0.07128943 -0.10055152 -0.06885513 0.02188589
-0.06376733 -0.08063739 -0.01300573 0.10144883 0.084677435 0.0030165277 -0.054497156 -0.047197826
-0.10197528 -0.09821705 -0.018948423 -0.08064569 0.019869696 -0.041154984 0.09318571 0.073388934
-0.029722603 0.12243429 0.0538956 -0.040924635 0.041138582 -0.095358506 0.028169751 -0.10751159
-0.08859516 0.07091039 -0.0066892616 0.062228736 -0.050733246 -0.11624145 -0.07386895 0.050283566
0.11559334 0.0033127773 0.07015761 -0.056929793 0.09864575 0.0122297425 -0.086083405 0.06899679
-0.024122803 0.0050463886 -0.07619334 0.0016696046 0.008332924 0.006908031 0.017814 -0.06375955
0.036501996 0.030050006 0.104910426 0.039020512 -0.0556964 0.004957536 -0.03554319 0.010832061
-0.10529357 0.020749167 -0.09617546 -0.07254661 -0.04656351 -0.06929015 -0.05500879 0.06766978
0.058903545 0.0999257 -0.10929804 -0.0873074 -0.0026960329 0.021992272 -0.057564277 0.08636875
-0.03351143 0.099006854 -0.09484828 -0.006773569 -0.003302899 -0.037385922 -0.03073702 0.013826251
0.11658147 -0.058052797 -0.05886694 0.08732214 -0.041536536 0.011424964 -0.11015331 0.049559936
0.0714152 0.10050055 -0.034434702 -0.03593065 -0.009123956 -0.0594753 -0.107356265 -0.111318596
-0.05015822 -0.06748073 -0.008499693 -0.10505503 -0.06900856 -0.027599072 0.037989065 -0.09459489
0.039279833 0.016958142 -0.07778933 0.043820612 0.010461107 0.0620205 -0.00065977726 0.06115676
0.09474063 -0.07582546 0.10430811 -0.105436 -0.06467587 0.1189215 -0.07298718 0.059230924
-0.09547065 0.117130786 -0.022682166 0.10241697 -0.04798845 0.043769535 -0.08277823 -0.107400954
-0.10020888 0.0561184 0.11272233 -0.007290856 0.11138871 -0.08600723 -0.07194421 0.0482971
-0.07838379 -0.0327196 -0.100515574 0.041886576 -0.04942371 0.042047612 0.047248513 0.051087942
-0.109073974 -0.020619243 0.06979427 0.10850672 0.10515628 0.031985648 0.08702912 -0.11185438
-0.09894925 -0.010879138 -0.07621362 -0.022242645 0.100354984 -0.11281988 0.01602974 0.06047413
0.014887969 -0.032193117 -0.06304892 0.10297189 -0.013532528 -0.05432017 0.02340311 -0.018124864
0.08549871 -0.050911896 0.021101324 0.10020262 0.08175064 -0.03401753 0.09695151 0.07012614
-0.013202098 0.08269484 0.050966278 -0.12021147 0.010379532 -0.0887462 -0.043227363 -0.11992878
0.014840655 -0.071771756 0.036195412 -0.08580579 0.031851914 -0.12493176 -0.03296006 -0.0824095
0.052665055 -0.12788114 0.08578547 0.07857486 -0.050742798 -0.12044017 -0.0814183 -0.09926035
0.05905677 -0.049994163 0.07813009 -0.0263326 0.012051202 0.009307861 0.11348305 0.08511428
0.033795554 -0.10477076 0.076617114 -0.05199212 -0.03449824 0.057745297 0.10275804 0.07056992
00000000: 919e 573d e160 9d3d 45f0 d6bd 2ed3 c0bd
00000010: 9a30 d13a 4470 2cbd 6efb 00bd 60fe 37bc
00000020: 4793 f23a 056a e83d f814 0a3d 3a8b 21bd
00000030: 0918 833c 70bc a23d c1c5 d7bd 9ea2 50bd
00000040: 4027 bcbd 58fd 16bd 6b2c bdbd 6d5c 763d
00000050: 6ecd 113d 1c14 92bc d57d 9e3d 2f04 71bd
00000060: 0256 a6bd 85aa e03d 975a ea3d 1e4f 74bd
00000070: b3ff 403c f798 58bc 0676 14bd 4836 903c
00000080: cb0c d73b 58fb 43bd fc69 a73d fd5c 4fbd
00000090: 3100 923d f5ed cdbd eb03 8dbd 0a4a b33c
000000a0: 7298 82bd 3725 a5bd fc15 55bc 67c4 cf3d
000000b0: 5d6b ad3d f0b0 453b 6938 5fbd 8252 41bd
000000c0: 6ad8 d0bd 0526 c9bd b939 9bbc 9129 a5bd
000000d0: c6c5 a23c 2192 28bd 26d8 be3d f04c 963d
000000e0: d17c f3bc d4be fa3d a2c1 5c3d 97a0 27bd
000000f0: ee80 283d 524b c3bd 40c4 e63c 092f dcbd
00000100: 6171 b5bd 7739 913d 9831 dbbb 8fe3 7e3d
00000110: aacd 4fbd ff0f eebd 9b48 97bd 24f6 4d3d
00000120: 33bc ec3d 2e1b 593b cbae 8f3d 372f 69bd
00000130: c806 ca3d 425f 483c 7f4c b0bd 304e 8d3d
00000140: 2f9d c5bc 2d5c a53b 410b 9cbd a2d6 da3a
00000150: d186 083c c45c e23b aaee 913c 5e94 82bd
00000160: 1e83 153d 6e2b f63c 47db d63d f9d3 1f3d
00000170: e921 64bd d372 a23b bc95 11bd f578 313c
00000180: 28a4 d7bd 28fa a93c a4f7 c4bd 5193 94bd
00000190: 61b9 3ebd ffe7 8dbd e650 61bd 7496 8a3d
000001a0: d844 713d d8a5 cc3d a7d7 dfbd 39ce b2bd
000001b0: edaf 30bb 2329 b43c 85c8 6bbd 19e2 b03d
000001c0: 4843 09bd 1bc4 ca3d d13f c2bd d1f4 ddbb
000001d0: 7375 58bb fb21 19bd 34cc fbbc 8087 623c
000001e0: 44c2 ee3d c5c8 6dbd 761e 71bd f3d5 b23d
000001f0: 3722 2abd c62f 3b3c 0f98 e1bd 5cff 4a3d
00000200: 2242 923d 3bd3 cd3d 670b 0dbd 042c 13bd
00000210: a57c 15bc 5f9c 73bd 9add dbbd 01fb e3bd
00000220: b572 4dbd 5633 8abd 4c42 0bbc 1727 d7bd
00000230: 5c54 8dbd 7317 e2bc 6c9a 1b3d f7ba c1bd
00000240: e4e3 203d cdeb 8a3c 0350 9fbd 3e7d 333d
00000250: 1065 2b3c 3509 7e3d e7f4 2cba 837f 7a3d
00000260: 6007 c23d 614a 9bbd 7e9f d53d d4ee d7bd
00000270: c874 84bd 1e8d f33d 4d7a 95bd 209c 723d
00000280: 1e86 c3bd 44e2 ef3d f3cf b9bc fdbf d13d
00000290: 898f 44bd af47 333d a287 a9bd 08f5 dbbd
000002a0: 503a cdbd 68dc 653d f7da e63d 22e8 eebb
000002b0: c41f e43d 8f24 b0bd 7c57 93bd 2ed3 453d
000002c0: ae87 a0bd fd04 06bd 1cdb cdbd 4291 2b3d
000002d0: 8470 4abd 1e3a 2c3d a887 413d 9741 513d
000002e0: 2d62 dfbd b0e9 a8bc 4cf0 8e3d c538 de3d
000002f0: 2d5c d73d 6203 033d 533c b23d e913 e5bd
00000300: e8a5 cabd 693e 32bc e315 9cbd 3536 b6bc
00000310: ea86 cd3d 1c0e e7bd cd50 833c b9b3 773d
00000320: abec 733c eedc 03bd cb1f 81bd ede2 d23d
00000330: 89b7 5dbc d47e 5ebd e1b7 bf3c 987a 94bc
00000340: f319 af3d fe88 50bd afdc ac3c 0837 cd3d
00000350: e16c a73d f755 0bbd 838e c63d 4b9e 8f3d
00000360: 9d4d 58bc ea5b a93d 04c2 503d 6e31 f6bd
00000370: ea0e 2a3c 91c0 b5bd 2d0f 31bd 389d f5bd
00000380: 3826 733c 12fd 92bd a441 143d f2ba afbd
00000390: 2777 023d 39dc ffbd 2101 07bd 50c6 a8bd
000003a0: 50b7 573d 46f3 02be 4bb0 af3d dbeb a03d
000003b0: aed7 4fbd 56a9 f6bd a3be a6bd 0349 cbbd
000003c0: 83e5 713d aec6 4cbd ab02 a03d 77b7 d7bc
000003d0: 6872 453c 0080 183c cd69 e83d 6550 ae3d
000003e0: 356d 0a3d 0d92 d6bd 6fe9 9c3d b0f5 54bd
000003f0: 074e 0dbd 5586 6c3d cf72 d23d f686 903d

fc_var.4.bias f4 [32]
0.032262385 0.04448063 -0.056888033 -0.105213955 0.07608496 -0.021177715 -0.059826788 -0.0128610255
-0.091954514 0.098287575 0.08421092 -0.06824276 0.029792236 -0.0042268056 -0.04633788 -0.017581327
-0.022561023 0.025604565 -0.0742654 -0.10604218 -0.1158259 -0.052014083 0.098493956 0.109978534
0.09904413 0.04177142 -0.014990139 0.0993724 -0.08373616 0.005411776 0.054706298 -0.03675092
00000000: 9025 043d 5231 363d 6d03 69bd 6a7a d7bd
00000010: 6ed2 9b3d e37c adbc ef0c 75bd 0db7 52bc
00000020: a652 bcbd ff4a c93d c676 ac3d dcc2 8bbd
00000030: d90e f43c 0481 8abb cacc 3dbd b706 90bc
00000040: e5d1 b8bc aac0 d13c 7518 98bd a42c d9bd
00000050: 2136 edbd b80c 55bd 33b7 c93d 6d3c e13d
00000060: a6d7 ca3d 8218 2b3d 3399 75bc c283 cb3d
00000070: dd7d abbd 4455 b13b b613 603d 2288 16bd
